logs/cp1_agent0_050924-034311.pth (torch, 67322 bytes, 16 tensors)

weight f4 [64, 42]
0	0x3d3c4df2	0.045972772
1	0x3c4336e4	0.011914942
2	0xbd607468	-0.054798514
3	0x3e06652a	0.13124529
4	0x3dbd456d	0.092417575
5	0x3dbbc271	0.09167946
6	0x3d2ab362	0.04167498
7	0x3dabefe3	0.08395364
8	0x3cf136d0	0.029445082
9	0x3cc3ec2f	0.023916332
10	0xbe063bc7	-0.13108741
11	0x3db5efa6	0.088836
12	0xbddad68b	-0.10685452
13	0xbd421fdb	-0.04739366
14	0x3dbd1799	0.092330165
15	0x3dc56bf5	0.09639732
16	0x3df030b6	0.11728041
17	0xbdf20846	-0.11817984
18	0xbdf7e7ab	-0.12104734
19	0x3d983923	0.07432773
20	0xbe0bd4e4	-0.1365543
21	0x3cc93a3f	0.024563907
22	0xbd6ddb1f	-0.0580703
23	0x3e17e623	0.14833884
24	0x3bd73554	0.0065676365
25	0xbb8fa5ed	-0.0043837936
26	0x3d8d36b6	0.06895201
27	0x3e00f2e4	0.12592655
28	0x3dc1abf5	0.09456626
29	0x3d1d8b86	0.038463138
30	0xbdbe4caf	-0.0929197
31	0xbd431d72	-0.047635503
32	0x3b2f7b92	0.0026776535
33	0x3d5f39bf	0.05449843
34	0x3d142863	0.03617133
35	0x3e132ff1	0.14373757
36	0xbe167f2c	-0.1469695
37	0x3d2aaf96	0.041671358
38	0x3dc948ca	0.098283365
39	0x3e1d58f1	0.1536596
40	0x3d929530	0.071573615
41	0x3dbf4311	0.09338964
42	0xbd82baec	-0.06383309
43	0xbe13b527	-0.14424573
44	0x3cf76563	0.030199712
45	0xbc962231	-0.01832685
46	0x3e1c22eb	0.15247695
47	0xbbc71f27	-0.0060767117
48	0xbccd16e7	-0.025035335
49	0xbe05024f	-0.12989162
50	0xbd4b077f	-0.049567696
51	0x3d59b2b0	0.053148925
52	0x3d787867	0.0606617
53	0x3deb62d5	0.1149346
54	0xbdb627fe	-0.08894347
55	0xbc26b4e0	-0.01017496
56	0x3e1bc2dc	0.15211052
57	0xbd9220b3	-0.07135143
58	0xbcf70914	-0.030155696
59	0xbded38c9	-0.115830965
60	0x3c47d859	0.012197577
61	0xbde9efe4	-0.11422709
62	0xbd530bdc	-0.05152498
63	0x3dbc4d20	0.09194398
64	0x3d38d9c8	0.045129567
65	0x3de2a5d5	0.11066786
66	0xbdbc5faa	-0.09197934
67	0x3dd1f2c6	0.102513835
68	0x3df1bb08	0.118032515
69	0xbd1bc72b	-0.03803174
70	0x3e0afc5f	0.13572834
71	0xbbcf8d28	-0.006333966
72	0xbda7ff29	-0.08202965
73	0x3db7018d	0.08935843
74	0xbe17be6d	-0.14818735
75	0x3d0c33cb	0.03422908
76	0x3dedcbc8	0.11611134
77	0xbd9dba3d	-0.07701538
78	0x3d33352f	0.04375189
79	0x3de5d566	0.11222343
80	0xbc212925	-0.00983647
81	0x3e09fcca	0.13475338
82	0x3bce9bea	0.0063052075
83	0xbdd073ad	-0.101783134
84	0xbddec2e2	-0.10877015
85	0xbb8fa49d	-0.004383637
86	0xbdd797a0	-0.10526967
87	0x3e0aed66	0.13567123
88	0x3d009da0	0.031400323
89	0xbcd63911	-0.026150258
90	0x3d8fb22e	0.07016407
91	0x3ddb33cc	0.10703239
92	0x3de04073	0.10949793
93	0xbded6e9e	-0.11593364
94	0x3ce2302c	0.02761086
95	0x3df72131	0.12066878
96	0x3d9b7b45	0.07591871
97	0xbdb234f5	-0.08701507
98	0xbd9c793d	-0.07640312
99	0x3db15803	0.08659365
100	0x3d89e6e4	0.06733492
101	0x3c128abc	0.00894421
102	0x3dad0daa	0.08449872
103	0xbe153b30	-0.1457336
104	0x3c808a78	0.015691027
105	0x3c8b520d	0.017006898
106	0x3e0c2c4b	0.13688771
107	0x3c85c8a5	0.016331026
108	0xbe02a40b	-0.1275789
109	0x3d8dc5ef	0.069225185
110	0x3e0a07e8	0.13479578
111	0x3c02c4e5	0.007981514
112	0xbcedffff	-0.029052733
113	0xbe099f07	-0.1343957
114	0x3d458a71	0.04822773
115	0xbe0e034c	-0.13868445
116	0x3deac42e	0.114631996
117	0x3cc6229f	0.02418643
118	0x3e0755e8	0.13216364
119	0x3ced55c9	0.02897157
120	0x3dbfbde2	0.09362389
121	0x3d70c77a	0.058783986
122	0x3de22c64	0.11043623
123	0xbde711ba	-0.11282678
124	0xbd0307ae	-0.031989746
125	0xbd92c8e7	-0.07167225
126	0x3db38b2c	0.08766779
127	0x3e195b0e	0.14976141
128	0x3d1cbcf1	0.038266126
129	0x3d26a223	0.04068197
130	0xbd6cc3a1	-0.057803754
131	0xbc1d5f28	-0.009605207
132	0x3d39d471	0.045368616
133	0xbe19a70f	-0.15005134
134	0xbdfafdbd	-0.12255428
135	0x3b82517d	0.0039769993
136	0xbdba5631	-0.09098471
137	0x3db01d68	0.08599359
138	0x3dd9a925	0.10627965
139	0xbd847f7a	-0.06469627
140	0xbc6df377	-0.014523379
141	0x3dd51ee5	0.10406283
142	0x3e15d435	0.14631732
143	0x3de359d8	0.11101121
144	0xbd02406f	-0.03179973
145	0xbd8a469c	-0.06751749
146	0xbe068dbf	-0.1314001
147	0xbc04c627	-0.008103884
148	0x3e002584	0.12514311
149	0xbe1b60fd	-0.15173717
150	0x3ba812fb	0.005129216
151	0x3ca2eb13	0.019887483
152	0xbd0fdcf9	-0.035122845
153	0xbd10beab	-0.035338085
154	0x3da79a3c	0.08183715
155	0xbcdcca72	-0.026952002
156	0xbd0775e6	-0.03307142
157	0x3db54a24	0.08852032
158	0xbe1a1365	-0.15046461
159	0x3e025550	0.12727857
160	0x3a54b211	0.0008113692
161	0x3d6399e6	0.05556669
162	0xbc964938	-0.01834546
163	0x3e0739a9	0.1320559
164	0x3caab5ea	0.020838697
165	0x3d8cc36f	0.068732135
166	0xbdcba0de	-0.09942792
167	0x3d6d3775	0.057914216
168	0xbddc8276	-0.10767071
169	0x3e03d2b3	0.12873344
170	0xbdcf6455	-0.10126559
171	0x3d9a7115	0.075411
172	0xbd42b57c	-0.04753636
173	0xbd0bfbd7	-0.03417572
174	0x3dcc3124	0.0997031
175	0xbdd5f7f5	-0.10447685
176	0xbb996596	-0.0046812994
177	0x3d9c3d31	0.07628859
178	0xbcbd730f	-0.023126153
179	0x3d392a24	0.045206204
180	0x3c05c95d	0.0081656845
181	0xbe1229f5	-0.14273818
182	0x3dc0c112	0.09411825
183	0x3da00a61	0.078144796
184	0x3daea435	0.08527414
185	0xbe02929d	-0.12751241
186	0x3debb403	0.11508944
187	0xbda05e6f	-0.07830512
188	0x3e049fe7	0.12951623
189	0x3c7a0749	0.015260526
190	0x3e179f4b	0.14806859
191	0xbdb2b1c8	-0.08725315
192	0xbe0c42a9	-0.13697304
193	0xbd89fc84	-0.06737617
194	0x3e05606f	0.13025068
195	0x3da060be	0.07830952
196	0xbdeaeee6	-0.114713475
197	0xbd0fb8ba	-0.03508828
198	0x3cd92c76	0.026510458
199	0xbe17b099	-0.1481346
200	0xbe06ce78	-0.13164699
201	0xbbd4e941	-0.0064975326
202	0x3c0968b5	0.0083867805
203	0xbc90a79c	-0.017658047
204	0xbe0d7f72	-0.13818148
205	0x3de826ea	0.11335547
206	0x3debc4cf	0.11512148
207	0xbc72f577	-0.014829031
208	0x3e16e5ca	0.14736095
209	0x3d769efb	0.06021021
210	0x3dd76d39	0.105188794
211	0x3da9fb39	0.0829987
212	0xbda24936	-0.0792412
213	0xbd6f5773	-0.058433007
214	0x3d65592d	0.055993248
215	0xbdf71d32	-0.120661154
216	0x3d824ea5	0.063626565
217	0x3dad7840	0.084702015
218	0xbda4c352	-0.08045067
219	0x3e0e3575	0.1388758
220	0xbda5fcce	-0.08104859
221	0xbd4de8f6	-0.050270997
222	0x3e0afb04	0.13572317
223	0xbc03a149	-0.008034059
224	0xbd498203	-0.049196254
225	0x3ac3fd4a	0.0014952805
226	0x3d443539	0.04790232
227	0xbd5548cb	-0.052071374
228	0xbd89948f	-0.067177884
229	0xbdf8232e	-0.12116085
230	0x3e075dbb	0.13219349
231	0xbcf8729f	-0.030328093
232	0xbd178a60	-0.0369972
233	0xbdcdd36b	-0.100500904
234	0x3cbe1d12	0.023207221
235	0x3e0b61c8	0.1361152
236	0x3d57c3dd	0.052677024
237	0xbb3d3b8b	-0.0028874602
238	0xbe092feb	-0.13397186
239	0xbe02bc1f	-0.12767075
240	0x3d07b969	0.033135805
241	0xbe06b178	-0.13153636
242	0xbdb6f32d	-0.08933101
243	0x3df6c612	0.12049498
244	0x3dfe0c9b	0.12404748
245	0xbd5523d4	-0.05203612
246	0x3d410ef7	0.047133412
247	0x3dd49149	0.103792734
248	0xbd9fbbcb	-0.077994905
249	0x3d9a619e	0.0753815
250	0xbd2f26c7	-0.04276159
251	0x3d60174f	0.05470973
252	0x3d9f1bf9	0.07769007
253	0x3e0a17fd	0.13485713
254	0xbd93a14a	-0.07208498
255	0xbddd8a8c	-0.10817441

bias f4 [64]
0	0xbe1076c9	-0.14107813
1	0xbd9314d5	-0.07181708
2	0xbda25055	-0.07925478
3	0x3e175e6c	0.14782113
4	0xbd4c667b	-0.04990242
5	0xbd8355d3	-0.06412854
6	0x3e0bbe45	0.13646801
7	0xbdeb1bc9	-0.11479909
8	0x3dffeb7d	0.12496088
9	0x3c91e939	0.017811405
10	0xbc93a50b	-0.018023035
11	0x3d954405	0.07288364
12	0x3deaa98f	0.11458122
13	0xbdf126de	-0.117749915
14	0x3da0214d	0.078188516
15	0xbe12e411	-0.14344813
16	0xbc9810b3	-0.01856265
17	0xbd1c7472	-0.03819699
18	0xbdb2803c	-0.08715865
19	0x3d22c25a	0.03973613
20	0xbc788c86	-0.015170222
21	0xbd66be09	-0.056333575
22	0xbde0b903	-0.10972788
23	0x3d9f4552	0.07776894
24	0xbda4a613	-0.08039489
25	0xbdb8d737	-0.09025424
26	0xbe0799d6	-0.13242278
27	0x3b9408e9	0.0045176637
28	0x3df13cf3	0.11779203
29	0x3da1c34c	0.07898578
30	0xbe1945fb	-0.14968102
31	0x3e1613a3	0.14655928
32	0x3df08a2a	0.11745103
33	0xbe18c655	-0.14919408
34	0xbd028258	-0.031862587
35	0x3db824a5	0.089913644
36	0x3df22183	0.11822798
37	0xbcd0a27f	-0.02546811
38	0xbd0b0c20	-0.03394711
39	0x3e059d3e	0.13048264
40	0xbded52b5	-0.11588041
41	0xbda73883	-0.08165076
42	0xbd5bde63	-0.05367888
43	0x3dbe6341	0.09296275
44	0xbe16e786	-0.14736757
45	0x3bfd5e4b	0.007732188
46	0x3c02e034	0.0079880245
47	0x3e0d8972	0.13821962
48	0x3d5c34fe	0.053761475
49	0xbe0460cc	-0.1292755
50	0x3e10561c	0.14095348
51	0x3d685735	0.056723792
52	0x3c5833dd	0.013195959
53	0xbd23fd41	-0.040036444
54	0x3d5e916d	0.054337908
55	0xbda8e8e9	-0.08247549
56	0x3dc9144a	0.09818323
57	0xbd9668f5	-0.07344238
58	0xbc936e23	-0.017996853
59	0xbdde9488	-0.10868174
60	0x3d729b19	0.059229944
61	0xbde97469	-0.113991566
62	0x3c72efe4	0.014827702
63	0xbdcbffd8	-0.09960908

weight f4 [64, 64]
0	0x3d759bcd	0.059963036
1	0x3de3e4f8	0.11127657
2	0xbddba45b	-0.10724708
3	0x3d88d0bc	0.06680438
4	0x3d00cf39	0.031447623
5	0x3dc9dbe5	0.09856395
6	0xbdc1be7c	-0.0946016
7	0xbd33cf20	-0.0438987
8	0xbdef4807	-0.1168366
9	0xbdb8399f	-0.08995365
10	0xbdb0cf95	-0.08633343
11	0xbd8fc6dd	-0.07020352
12	0xbd9c9866	-0.07646255
13	0x3df52453	0.11969819
14	0x3da28428	0.07935363
15	0xbd6e9e8a	-0.058256663
16	0x3c8cdd75	0.017195443
17	0x3d7ab9cf	0.061212357
18	0x3cb2f963	0.021847432
19	0xbb89ea6e	-0.0042088544
20	0xbd9f878b	-0.07789525
21	0xbdaaa7a0	-0.08332753
22	0xbda6b585	-0.08140091
23	0x3d8ed65a	0.06974478
24	0xbd6ab650	-0.057302773
25	0xbddbf4fa	-0.10740085
26	0x3c62a809	0.013834008
27	0x3c6aa6fd	0.01432204
28	0xbdcfd10a	-0.10147293
29	0x3cb38bb4	0.021917202
30	0xbdafd25f	-0.08585047
31	0xbd864bc0	-0.06557417
32	0x3d5fdb7e	0.054652683
33	0x3df9c7d4	0.12196317
34	0xbca03950	-0.019558579
35	0x3d363a38	0.044489115
36	0xbdd1d4a6	-0.102456376
37	0xbd990f3e	-0.0747361
38	0x3b5d0d35	0.0033729796
39	0x3db009be	0.08595608
40	0xbde5390b	-0.11192521
41	0xbd100cb3	-0.03516836
42	0x3c36a71a	0.011148239
43	0xbd2db373	-0.042407464
44	0xbd32d774	-0.043662503
45	0x3d346695	0.044043142
46	0x3d366fad	0.044540096
47	0x3dc9e7bc	0.09858653
48	0x3dc4acaa	0.096032456
49	0xbd3f0b5c	-0.046641693
50	0xbd85baf3	-0.06529798
51	0xbce524a8	-0.02797158
52	0xbdd371ce	-0.10324441
53	0x3de050af	0.10952889
54	0x3ca8e61d	0.020617539
55	0x3d51328e	0.051073603
56	0x3ddb5e06	0.10711293
57	0xbc199b5d	-0.00937542
58	0x3daf0631	0.08546103
59	0x3dd9bd7f	0.10631847
60	0xbca4324e	-0.020043518
61	0xbd216255	-0.039400417
62	0xbcab9fc3	-0.020950204
63	0x3db1e6e4	0.08686617
64	0x3da451ee	0.08023439
65	0xbdb544ee	-0.08851038
66	0xbdf5bd82	-0.11999036
67	0x3c3bfdf7	0.011474124
68	0x3dad2164	0.084536344
69	0xbd7c0925	-0.06153216
70	0x3d0a45f8	0.033758134
71	0xbdf2aa77	-0.1184892
72	0xbdfa3100	-0.12216377
73	0xbc9879da	-0.01861279
74	0xbc3fe608	-0.011712559
75	0x3d09797a	0.033563115
76	0xbdcb85ea	-0.099376515
77	0x3c8d3156	0.01723544
78	0xbd9e232b	-0.077215515
79	0xbdfcef67	-0.1235035
80	0x37470b63	1.18639755e-05
81	0xbd89e64a	-0.06733377
82	0xbdb37ca1	-0.087640055
83	0xbddedeb9	-0.10882325
84	0x3d04b9ad	0.032403637
85	0xbdbdde39	-0.09270901
86	0x3da9aad5	0.08284537
87	0x3dc71917	0.097215824
88	0x3d8132b5	0.063085
89	0xbdf56e90	-0.11983979
90	0x3d71c1ed	0.059022833
91	0xbd85bf66	-0.06530647
92	0x3dda4ad5	0.10658804
93	0x3df95be4	0.1217573
94	0xbd14739e	-0.036243074
95	0x3d751067	0.059830096
96	0xbd454e2b	-0.04817025
97	0x3ca525b9	0.02015959
98	0x3c248394	0.010041136
99	0x3c8bc336	0.017060857
100	0x3ae7bff3	0.0017681107
101	0x3d8db398	0.069190204
102	0x3dc2c36c	0.0950993
103	0x3cf5cbed	0.030004466
104	0x3de2b821	0.11070276
105	0xbdc91600	-0.09818649
106	0xbd8e42c2	-0.06946327
107	0x3d85c9aa	0.06532605
108	0xbdcafb14	-0.099111706
109	0xbcb7b5a4	-0.02242548
110	0x3dcd6f16	0.100309536
111	0x3d55a540	0.052159548
112	0x3bbf20fd	0.00583279
113	0x3cb815e0	0.022471368
114	0xbdc8a90e	-0.097978696
115	0x3c5d2365	0.013497208
116	0x3dd9babd	0.106313206
117	0xbddc80a3	-0.10766723
118	0xbcbc6d89	-0.02300145
119	0x3d28312e	0.041062526
120	0x3d9cecaa	0.076623276
121	0x3daef544	0.085428745
122	0xbdbcad45	-0.09212736
123	0x3d8e78e1	0.069566496
124	0x3dcbebfc	0.0995712
125	0x3c276ee0	0.010219306
126	0x3b819819	0.003954899
127	0xbda86508	-0.08222395
128	0xbdfe7ae9	-0.12425787
129	0x3d909a68	0.07060701
130	0xbd6da9e0	-0.058023334
131	0xbd73e8c7	-0.059548166
132	0x3ddcca20	0.1078074
133	0xbd475ef5	-0.048674542
134	0x3c80222b	0.015641293
135	0x3dbc80d1	0.09204257
136	0x3c85e6fa	0.01634549
137	0xbd319852	-0.043358155
138	0xbcdf8143	-0.027283316
139	0x3dfcea3f	0.123493664
140	0x3cfd0e6a	0.030890662
141	0x3db57a23	0.08861186
142	0xbc989361	-0.018624963
143	0x3dc7ece8	0.09761983
144	0xbdef50b0	-0.11685312
145	0xbda3506e	-0.07974325
146	0x3d11aab0	0.03556317
147	0xbd58abe5	-0.052898306
148	0x3d63e301	0.05563641
149	0x3daf7290	0.08566773
150	0x3bc04c3a	0.005868462
151	0x3ddbd5cd	0.10734139
152	0xbcef5e36	-0.029219728
153	0x3db56e5a	0.088589385
154	0x388fe382	6.861148e-05
155	0xbdddaeea	-0.10824378
156	0x3da78647	0.08179908
157	0xbdeb86b3	-0.11500301
158	0x3d76d48e	0.0602613
159	0xbd4288c2	-0.047493704
160	0x3da2d7bb	0.079513036
161	0x3d98f2b0	0.07468164
162	0x3c1a29ad	0.00940935
163	0x3de20029	0.11035187
164	0xbd0603d7	-0.032718506
165	0x3defed44	0.11715177
166	0xbde2aa19	-0.110676
167	0xbc5cbfe8	-0.013473488
168	0x3db75960	0.08952594
169	0xbcf0fa26	-0.029416155
170	0xbcd673ec	-0.026178323
171	0x3d87934f	0.06619894
172	0xbd943613	-0.07236876
173	0x3dddac5a	0.10823889
174	0x3dae9b7f	0.08525752
175	0xbde3bbe9	-0.111198254
176	0xbd2a0793	-0.04151113
177	0xbd079d49	-0.033108983
178	0xbd021daf	-0.03176659
179	0xbdc25c05	-0.094902076
180	0xbd863bbc	-0.06554362
181	0xbbb5d20a	-0.0055487202
182	0x3df31461	0.11869121
183	0x3d8c4cc2	0.06850578
184	0xbcf39ff9	-0.029739367
185	0xbdc0f09e	-0.09420894
186	0x3db4b42a	0.08823426
187	0xbd417690	-0.04723221
188	0x3ceab4dc	0.028650694
189	0xbdc559fc	-0.09636304
190	0xbd6b1a51	-0.057398144
191	0xbd215689	-0.039389167
192	0xbb65f96d	-0.0035091296
193	0xbd282825	-0.04105391
194	0x3dc59885	0.096482314
195	0xbcd64fb0	-0.026161045
196	0x3dc7a2b8	0.09747833
197	0x3dd81b02	0.10552026
198	0xbdeb10f8	-0.11477846
199	0xbcf24e16	-0.02957825
200	0x3dcce1f5	0.100040354
201	0x3c64f0b5	0.013973405
202	0x3ddcf81b	0.1078951
203	0xbc382395	-0.011238952
204	0x3dfeae2f	0.12435567
205	0xbd81e79d	-0.06343005
206	0xbdb7ce60	-0.0897491
207	0x3d1d7443	0.038440954
208	0xbd99b3bc	-0.07504985
209	0xbd76fe11	-0.06030089
210	0x3c859205	0.01630498
211	0xbdf275a2	-0.11838843
212	0x3d7fa659	0.0624145
213	0x3c00a506	0.007851845
214	0x3cd43f11	0.025908979
215	0x3a7bf67f	0.0009611621
216	0xbd36733f	-0.0445435
217	0xbdc6870e	-0.096937284
218	0x3d867f1a	0.065672114
219	0xbd88078a	-0.06642063
220	0x3da922d1	0.08258594
221	0x3dd80525	0.10547856
222	0x3da4b252	0.080418244
223	0x3d9497c6	0.07255511
224	0xbdaab106	-0.08334546
225	0xbd18a910	-0.037270606
226	0xbd2ebdc0	-0.04266143
227	0x3dfce251	0.12347854
228	0xbd9a5aeb	-0.075368725
229	0xbd897222	-0.06711222
230	0x3d0c878d	0.03430896
231	0x3c3fb0a3	0.011699828
232	0xbd01e2f9	-0.0317106
233	0xbdf9796b	-0.12181362
234	0x3db60744	0.088881046
235	0x3da71d2c	0.08159861
236	0xbdf09062	-0.11746289
237	0x3dacb26a	0.08432467
238	0xbaeb365a	-0.0017945275
239	0xbd3b2e05	-0.045698185
240	0xbcd7ac55	-0.026327292
241	0xbcd4a39b	-0.02595692
242	0xbdbc6e5d	-0.092007376
243	0xbdcaabe5	-0.098960675
244	0x3d99349c	0.074807376
245	0x3d68649c	0.056736574
246	0xbdfb63e9	-0.12274916
247	0x3d201dc7	0.039090898
248	0xbdc0229f	-0.093816034
249	0xbdbac52b	-0.09119638
250	0xbd900140	-0.070314884
251	0x3d532117	0.05154523
252	0xbd7260f4	-0.059174493
253	0x3dea0be7	0.114280514
254	0xbb0ab900	-0.0021167397
255	0x3d57d7f7	0.052696194

bias f4 [64]
0	0x3de26623	0.11054637
1	0xbd68584b	-0.056724828
2	0xbcaec6f3	-0.0213351
3	0x3dc1271c	0.09431288
4	0xbd78747e	-0.06065797
5	0xbdf18378	-0.11792654
6	0x3c026085	0.007957582
7	0x3c56aebd	0.013103184
8	0xbd9cb6af	-0.07652032
9	0x3df751df	0.120761625
10	0xbdc58a19	-0.09645481
11	0x3d173805	0.03691866
12	0xbccf6f51	-0.025321634
13	0x3ce94349	0.028474467
14	0xbd4bf97c	-0.049798474
15	0x3d8c90f0	0.06863582
16	0x3dd04dc2	0.10171081
17	0xbd01613d	-0.031586874
18	0xbb401d7e	-0.0029314454
19	0xbd86b56a	-0.06577571
20	0x3c76d91a	0.0150664095
21	0xbd9bf894	-0.07615772
22	0x3daa08e7	0.08302479
23	0x3de0d6d7	0.109784774
24	0x3d4e6bcf	0.050395783
25	0x3cbe438f	0.023225574
26	0x3d2d4879	0.042305443
27	0xbd9f0869	-0.07765276
28	0xba2ecca7	-0.0006668069
29	0x3d81a116	0.06329553
30	0xbb777cb4	-0.0037763538
31	0x3d050ff3	0.032485913
32	0x3d88cc8b	0.066796385
33	0xbde11a2f	-0.10991322
34	0xbcb6133f	-0.022225974
35	0xbd3a7830	-0.045524776
36	0x3d016d7f	0.031598564
37	0x3de46d28	0.111536324
38	0xbcbe3f46	-0.02322353
39	0x3b5baa8e	0.0033518407
40	0x3cc1b09e	0.023643788
41	0xbd4625fd	-0.048376072
42	0xbb2c8763	-0.0026325814
43	0x3bc4d553	0.0060068755
44	0xbd8b81b6	-0.0681185
45	0xbce61804	-0.028087623
46	0x3cfeb75e	0.031093296
47	0x3dc92bcb	0.09822806
48	0xbd0b14e3	-0.033955466
49	0x3d5c7873	0.053825807
50	0xbd4e353d	-0.05034374
51	0x3c352eaa	0.011058489
52	0x3dfb86b4	0.12281552
53	0xbda531a4	-0.08066109
54	0x3c036027	0.00801853
55	0x3d9c09fe	0.07619093
56	0x3d5b3640	0.053518534
57	0xbd8bc45e	-0.068245634
58	0xbddb7ce5	-0.10717181
59	0xbdc02395	-0.09381787
60	0xbdedc9be	-0.11610745
61	0xbd8a1579	-0.06742377
62	0x3ca6d4e8	0.020365193
63	0x3d9f90a0	0.07791257

weight f4 [7, 64]
0	0xbddd6557	-0.10810345
1	0xbd99c393	-0.07508006
2	0x3da8bdbf	0.08239316
3	0xbdbf61cb	-0.093448244
4	0x3bd6cc1c	0.0065550935
5	0xbd0df7a3	-0.034659993
6	0x3c2caa08	0.0105385855
7	0xbbd57205	-0.0065138363
8	0xbcefab3d	-0.029256457
9	0xbd9db152	-0.07699837
10	0x3d9a350f	0.075296514
11	0x3d6b26ee	0.057410173
12	0xbd3003ab	-0.042972248
13	0x3d8bd5fd	0.068279244
14	0x3dc5cd25	0.09658269
15	0x3c0a9eda	0.008460725
16	0xbca3ba17	-0.019986195
17	0x3dc4e660	0.09614253
18	0xbd82253d	-0.06354759
19	0x3dab8295	0.08374516
20	0x3dad3702	0.084577575
21	0x3d60f22b	0.05491845
22	0x3dfb5e43	0.12273838
23	0x3dc1e14f	0.09466802
24	0x3dd3361c	0.10313055
25	0x3da4685c	0.080277175
26	0xbd0733b3	-0.03300829
27	0x3d629b9e	0.05532419
28	0xbc4b00c1	-0.012390316
29	0xbd6ee6e3	-0.05832566
30	0xbdad1a44	-0.084522754
31	0xb82b4444	-4.0833154e-05
32	0xbdc764d2	-0.09736027
33	0x3ce96ffc	0.028495781
34	0x3d8073eb	0.062721096
35	0xbdb2bab3	-0.08727016
36	0x3d2be858	0.041969627
37	0x3d2538fb	0.040337544
38	0xbd864eae	-0.06557976
39	0xbdc6943f	-0.096962444
40	0xbca38d98	-0.019964978
41	0x3dd5b4e5	0.104348935
42	0xbd85d684	-0.06535056
43	0x3d78de86	0.06075909
44	0xbc996568	-0.018725112
45	0xbdcdfb97	-0.100577526
46	0x3dc01f80	0.09381008
47	0x3d11d939	0.03560755
48	0x3da1d28b	0.07901486
49	0x3da539f6	0.08067696
50	0xbdc0bfc2	-0.09411575
51	0xbc994a2d	-0.018712128
52	0xbd78c802	-0.060737617
53	0xbdd2e37e	-0.10297297
54	0x398fddd5	0.00027440363
55	0xbd1c43c2	-0.038150556
56	0xbde95ad4	-0.11394277
57	0xbd9d2506	-0.07673077
58	0x3caf1db2	0.021376465
59	0xbd347a2a	-0.044061817
60	0x3dfab9c2	0.12242462
61	0x3d8dce6d	0.06924138
62	0x3d402dd4	0.046918705
63	0x3dbda389	0.092597075
64	0x3df8acc1	0.12142325
65	0x3dc00c7b	0.093773805
66	0xbcd3d2d3	-0.025857365
67	0x3d58d689	0.05293897
68	0xbdc49d5a	-0.09600325
69	0x3d63917e	0.055558674
70	0xbd2ca08d	-0.0421453
71	0x3db78f00	0.08962822
72	0x3d926ab1	0.07149256
73	0x3d8b2826	0.06794767
74	0xbd70c6f3	-0.058783483
75	0x3d72692e	0.05918234
76	0xbd8a77f9	-0.06761164
77	0xbdc212c7	-0.09476238
78	0xbbe5214d	-0.006992495
79	0x3da1e406	0.0790482
80	0x3d8a447b	0.06751343
81	0xbd3b4619	-0.045721147
82	0xbd52c9b7	-0.0514619
83	0xbd57681f	-0.052589532
84	0xbc1dd6d0	-0.009633735
85	0x3d87935f	0.06619906
86	0x3daa3ce4	0.08312395
87	0x3db349e9	0.087543316
88	0xbc099330	-0.008396909
89	0xbda6712c	-0.081270546
90	0x3d876dec	0.06612763
91	0xbca53846	-0.020168435
92	0x3dd7a3aa	0.10529263
93	0x3ce52e75	0.027976254
94	0x3d9dd91b	0.07707425
95	0xbd573883	-0.05254413
96	0xbd31a105	-0.04336645
97	0x3d137454	0.03599961
98	0x3d5d4727	0.054022934
99	0xbc3ebc06	-0.011641508
100	0x3dd8eb28	0.105917275
101	0xbd6b82f4	-0.057497934
102	0xbdadab71	-0.084799655
103	0x3d7adada	0.06124387
104	0xbd2ab7a5	-0.041679043
105	0x3dbe7e45	0.09301428
106	0x3d67ef4c	0.056624696
107	0x3dedbdfb	0.116085015
108	0x3da6230a	0.08112152
109	0x3d1da0a8	0.038483292
110	0x3d082fae	0.033248596
111	0x3c5c3004	0.013439182
112	0x3d0f64e6	0.035008334
113	0xbd442414	-0.04788597
114	0x3d244059	0.04010043
115	0x3cb95822	0.022625033
116	0x3da1eac7	0.07906108
117	0x3c9b8fb8	0.018989429
118	0x3d7ff662	0.06249083
119	0xbbad1a47	-0.0052826735
120	0x3d93ffb7	0.07226508
121	0xbdb2dd50	-0.08733618
122	0xbd4045a4	-0.046941414
123	0x3d1921d2	0.03738577
124	0x3cb9f740	0.022700906
125	0xbc8a841b	-0.016908696
126	0xbdd5d1ba	-0.10440393
127	0xbde6d1d3	-0.112704895
128	0x3dbf7c04	0.09349826
129	0x3d3fae48	0.046797067
130	0xbc7da19e	-0.015480427
131	0x3d856a24	0.06514385
132	0xbda8a65f	-0.08234858
133	0x3dcf0a83	0.10109427
134	0xbdd09960	-0.10185504
135	0x3d2dcfc6	0.042434476
136	0x3bc71d8e	0.0060765212
137	0x3d2f02d9	0.042727325
138	0x3d5a6ef6	0.053328477
139	0x3d905fe7	0.07049542
140	0x3ddf31e1	0.108981855
141	0xbc83a42e	-0.016069498
142	0x3d80c3ff	0.06287383
143	0x3c09d8d6	0.008413514
144	0xbc05e449	-0.008172103
145	0xbdc3fee1	-0.09570099
146	0x3dbdc10a	0.09265335
147	0xbdaaa641	-0.08332492
148	0xba5ee3a2	-0.0008502548
149	0x3bb59b7e	0.0055422178
150	0xbda4dcf0	-0.08049953
151	0x3dd89dd0	0.10576975
152	0x3bd89280	0.006609261
153	0xbdaa976b	-0.08329662
154	0x3df271b1	0.11838091
155	0xbdee190d	-0.11625872
156	0xbde718fb	-0.112840615
157	0xbd8a2994	-0.06746212
158	0xbd6fa96f	-0.058511194
159	0xbd17eb17	-0.037089434
160	0x3d395c22	0.04525388
161	0x3bbef51a	0.005827558
162	0xbda0b77c	-0.07847497
163	0x3d9f0b3e	0.07765816
164	0xbd92c8e1	-0.07167221
165	0xbcdb9e5d	-0.026808912
166	0xbde65b23	-0.11247852
167	0x3cbbe80c	0.022937797
168	0x3ddc2947	0.107500605
169	0x3c027cb7	0.007964305
170	0x3daad46b	0.08341297
171	0xbd799026	-0.060928486
172	0x3c308ba5	0.010775481
173	0x3d5006ee	0.05078786
174	0x3dee84b7	0.11646407
175	0x3c6c67de	0.014429061
176	0xbba8054b	-0.005127584
177	0xbd3ded06	-0.04636862
178	0x3df34231	0.118778594
179	0xbca57334	-0.020196535
180	0x3dee322e	0.11630665
181	0xbdf225ea	-0.11823638
182	0x3c63c2ec	0.013901453
183	0x3d098ac4	0.033579603
184	0x3ddd9373	0.10819139
185	0x3da21d22	0.07915713
186	0x3da9c88e	0.08290206
187	0x3dc2f949	0.095202036
188	0x3d8e3d98	0.06945342
189	0x3d818696	0.06324498
190	0xbd9b891a	-0.075945094
191	0x3d403489	0.0469251
192	0x3d886c7a	0.06661315
193	0xbd033fe4	-0.032043353
194	0xbcd1a598	-0.025591657
195	0xbd84b368	-0.064795315
196	0xbdbf6e27	-0.09347182
197	0x3ce11c94	0.027479447
198	0x3db2a7fa	0.08723445
199	0xbd22d2ac	-0.039751694
200	0x3df1c4db	0.11805125
201	0x3d876e2d	0.06612811
202	0xbd626ce5	-0.05527963
203	0x3d5a01bc	0.05322431
204	0x3de85216	0.11343782
205	0xbdd0a4c1	-0.10187674
206	0xbdfcf94c	-0.12352237
207	0xbd800c02	-0.0625229
208	0x3d84bf57	0.06481808
209	0xbd2edd88	-0.042691737
210	0xbde81fc8	-0.11334187
211	0x3dace114	0.08441368
212	0xbd76a06a	-0.060211577
213	0xbcfa9772	-0.030589793
214	0xbdb8ab46	-0.09017043
215	0xbd4ff880	-0.050774097
216	0xbc674a90	-0.014116898
217	0x3d2bf9fe	0.041986458
218	0xbd6afa57	-0.05736765
219	0xbd656388	-0.056003124
220	0xbd3e64ba	-0.04648278
221	0x3d78ab95	0.06071051
222	0xbc0b5df4	-0.008506287
223	0x3da559a5	0.08073739
224	0x3d76a5e3	0.060216796
225	0xbcfdd2f8	-0.030984387
226	0x3c656b8a	0.01400269
227	0xbde91fe7	-0.11383038
228	0x3cb553f4	0.022134759
229	0x3a16514b	0.00057341595
230	0x3cc6f00f	0.02428439
231	0x3dd71a25	0.105030335
232	0xbdd3521e	-0.10318397
233	0xbb3fc750	-0.0029263087
234	0xbd60d598	-0.0548912
235	0x3dbb3f5a	0.09142943
236	0x3d9c0c32	0.076195136
237	0xbd60e766	-0.05490818
238	0xbd40b8da	-0.04705129
239	0xbdc2c871	-0.095108874
240	0x3d8f99f9	0.0701179
241	0xbb0a3009	-0.002108576
242	0x3dbbbe55	0.09167162
243	0xbc679faf	-0.014137193
244	0x3dbd27de	0.0923612
245	0x3deb4902	0.114885345
246	0xbde62abb	-0.11238619
247	0x3d78909f	0.060684796
248	0x3baa5a4d	0.005198753
249	0xbddb8794	-0.10719219
250	0xbdcf920f	-0.1013528
251	0x3d58b7a7	0.05290952
252	0xbde00120	-0.109377146
253	0x3db32422	0.08747126
254	0xbd56b3c4	-0.05241753
255	0xbdacb437	-0.08432811

bias f4 [7]
0	0xbc6873be	-0.014187751
1	0xbdaffc08	-0.08592993
2	0xbdc4a3db	-0.096015655
3	0xbdb4c358	-0.08826321
4	0xbd99cc2d	-0.075096466
5	0x3da9f89a	0.0829937
6	0x3d3b21f8	0.045686692

weight f4 [7, 7]
0	0xbe3c065b	-0.183618
1	0xbda52dfc	-0.080654114
2	0x3d9d34a4	0.07676056
3	0x3c89fc90	0.016844064
4	0x3e805297	0.2506301
5	0x3d0fbae0	0.035090327
6	0x3eaf0ef1	0.34191087
7	0xbe4eb2c1	-0.20185377
8	0x3e7a2f61	0.24432136
9	0xbe5fb9e7	-0.2184826
10	0xbea62926	-0.3245327
11	0xbe23560c	-0.15950793
12	0x3d1637de	0.036674373
13	0xbebbb4b1	-0.36661294
14	0xbdbab730	-0.091169715
15	0xbe5f3685	-0.21798141
16	0x3da86fc6	0.08224444
17	0x3e173d1a	0.14769402
18	0xbe297cd5	-0.16551526
19	0x3e452488	0.19252217
20	0xbe9726de	-0.2952184
21	0xbeb254d2	-0.34830338
22	0xbe376e5a	-0.1791319
23	0xbe59bbaf	-0.21263002
24	0x3ea77623	0.3270732
25	0x3e709b4e	0.23496744
26	0xbdb5e4f8	-0.08881563
27	0x3e0c6266	0.13709411
28	0x3ea98255	0.33107248
29	0xbe43b848	-0.19113266
30	0xbe7ea2e5	-0.24866827
31	0x3e0a94d2	0.13533333
32	0x3c76ce60	0.015063852
33	0xbe750218	-0.2392658
34	0x3ebf0b57	0.3731334
35	0xbea0317d	-0.31287757
36	0x3ea5e189	0.32398632
37	0xbeab3eed	-0.33446446
38	0x3e2bb8ea	0.16769758
39	0xbe87fb67	-0.26558992
40	0x3e8da2f2	0.2766338
41	0xbe0dad74	-0.13835698
42	0x3cdbcfc0	0.026832461
43	0x3e5bdbda	0.21470585
44	0x3e777e5e	0.24169299
45	0xbe2f8d19	-0.17143668
46	0xbebdcec5	-0.37071815
47	0xbe436b4e	-0.19083902
48	0xbeaafd9b	-0.3339661

bias f4 [7]
0	0xbe636325	-0.2220579
1	0x3c9ccb2f	0.019139854
2	0x3d6f9265	0.058489222
3	0xbe4034ff	-0.18770216
4	0xbe802d5d	-0.2503461
5	0x3e4ce019	0.20007361
6	0xbe4b2ca6	-0.19841251

weight f4 [64, 42]
0	0xbce918f8	-0.028454289
1	0x3d9374bd	0.072000004
2	0x3d57a21d	0.052644838
3	0x3e136f6f	0.14397977
4	0x3e128a14	0.14310485
5	0xbcdcc2b2	-0.026948307
6	0x3c1876a2	0.009305628
7	0x3e146220	0.14490557
8	0x3d382a63	0.044962298
9	0x3c9f809a	0.019470502
10	0xbdd68870	-0.10475242
11	0xbd8023d8	-0.06256837
12	0x3d0a1ff3	0.033721875
13	0xbdb88080	-0.090088844
14	0x3cd99404	0.026559837
15	0xbcd30330	-0.025758356
16	0xbe1ddb21	-0.15415622
17	0x3ca26b3b	0.019826522
18	0x3dac497d	0.08412454
19	0x3d57fb4b	0.052729886
20	0x3c8ee10c	0.017441295
21	0x3e05022a	0.12989107
22	0x3dbaf4c5	0.09128717
23	0x3d25e2ae	0.04049938
24	0xbde6407f	-0.112427704
25	0x3d0ea83b	0.034828406
26	0x3dac59fb	0.084156
27	0x3e1086a5	0.14113863
28	0xbe06c69c	-0.13161701
29	0x3d90e9bc	0.07075831
30	0xbb997817	-0.0046835053
31	0xbb9bb9bd	-0.0047523663
32	0x3da7a4ab	0.08185705
33	0xbd743060	-0.059616446
34	0xbda9e6d9	-0.08295984
35	0x3d996624	0.07490185
36	0x3dd61633	0.10453453
37	0x3ca035c0	0.01955688
38	0x3df374d7	0.1188752
39	0x3cf1e7bc	0.029529445
40	0x3def4d87	0.11684709
41	0x3cdd7263	0.027032083
42	0xbd74e197	-0.05978545
43	0xbe197699	-0.14986648
44	0xbdfc600e	-0.123230085
45	0x3dfe025c	0.12402794
46	0x3d930b12	0.07179846
47	0xbe0a4e27	-0.13506375
48	0x3d1d414f	0.03839236
49	0xbe097e70	-0.13427138
50	0xbcc2813e	-0.023743268
51	0x3daba7a3	0.083815835
52	0xbe1097ff	-0.14120482
53	0x3d18e11b	0.037324052
54	0xbdc944cf	-0.09827577
55	0xbd03980c	-0.032127425
56	0x3e11838a	0.14210334
57	0x3da7ad8d	0.08187399
58	0x3e0f9e5e	0.14025256
59	0x3c80a805	0.015705118
60	0x3d87dd34	0.06633988
61	0xbdc1cd96	-0.094630405
62	0x3d22755f	0.039662715
63	0xbdf8040e	-0.12110148
64	0xbdcb197e	-0.099169716
65	0x3da28e72	0.079373255
66	0xbde7b22e	-0.11313282
67	0x3d7a4b60	0.06110704
68	0xbda13b75	-0.07872669
69	0x3d20e735	0.039282996
70	0xbd639fc4	-0.055572286
71	0x3e124e5c	0.14287704
72	0x3c82c559	0.015963243
73	0x3d552ed6	0.05204662
74	0xbc091195	-0.008366008
75	0x3c1b56bc	0.009481128
76	0xbdf260d1	-0.118348725
77	0x3d917a7d	0.07103441
78	0x3ce2ccb1	0.027685495
79	0x3c2730ad	0.010204476
80	0x3df3fe4d	0.119137384
81	0x3dd6ff44	0.10497907
82	0xbd89221c	-0.06695959
83	0x3dbfd401	0.093666084
84	0xbddcc2ba	-0.10779329
85	0x3db4b4cf	0.08823549
86	0x3d926092	0.071473256
87	0x3c465552	0.012105303
88	0xbe174865	-0.1477371
89	0xbdc7dff7	-0.09759515
90	0x3dbaf91a	0.091295436
91	0x3d1e1268	0.038591772
92	0xbc9173d3	-0.017755425
93	0xbca3870c	-0.019961856
94	0xbdbfd073	-0.093659304
95	0x3debb97f	0.1150999
96	0xbd86eb39	-0.06587834
97	0xbb2dc659	-0.002651593
98	0x3dfdee5c	0.12398979
99	0x3de7febb	0.11327883
100	0xbe14e454	-0.14540225
101	0xbddfcb4e	-0.10927449
102	0x3d879c50	0.06621611
103	0x3c808cad	0.01569208
104	0x3dc3d028	0.09561187
105	0x3dbb79c8	0.09154087
106	0xbd039996	-0.032128893
107	0x3c9acc14	0.01889614
108	0x3c70200f	0.014656081
109	0xbd759019	-0.059951875
110	0xbd6ea916	-0.05826672
111	0x3def14d1	0.11673892
112	0x3deb1b1d	0.11479781
113	0xbde4d0a1	-0.11172605
114	0xbc90b890	-0.017666131
115	0xbe13bf86	-0.14428529
116	0xbe17e401	-0.1483307
117	0xbce6ae91	-0.028159412
118	0x3d5b233a	0.05350039
119	0xbde5c559	-0.11219282
120	0x3dcb60e6	0.09930591
121	0x3beb968a	0.0071895765
122	0x3dc0ca8c	0.09413633
123	0x3db965a0	0.090525866
124	0xbb1a19ce	-0.0023513916
125	0x3d456ef6	0.048201524
126	0xbab1ede5	-0.0013574926
127	0x3d6a4db3	0.057203006
128	0xbcaf2857	-0.02138154
129	0xbd9562d5	-0.07294241
130	0xbe09736e	-0.13422939
131	0x3d5449a0	0.051828027
132	0x3d983091	0.07431138
133	0x3be50e66	0.006990242
134	0xbd649d4f	-0.055814084
135	0x3c123cb7	0.008925608
136	0x3e030967	0.12796555
137	0xbb67e91e	-0.0035386751
138	0xbd2e65c1	-0.04257751
139	0xbd8465b8	-0.06464714
140	0x3df2e0d2	0.11859287
141	0xbdcf7d42	-0.10131313
142	0xbdd84ef7	-0.10561936
143	0xbb7519f9	-0.0037399514
144	0x3db1403b	0.08654829
145	0xbcfebafe	-0.031095024
146	0xbdf7df9f	-0.12103199
147	0x3e192cb9	0.14958467
148	0x3ddf08e5	0.10890368
149	0xbd9a34fb	-0.075296365
150	0xbe17426f	-0.14771436
151	0xbd9e0c3d	-0.07717178
152	0xbcfdf35b	-0.03099983
153	0xbe0065e6	-0.12538871
154	0xbd83fa1a	-0.064441875
155	0xbdf7d4a8	-0.12101108
156	0x3d6132ab	0.05497996
157	0x3cec10a1	0.028816523
158	0xbcffee94	-0.031241693
159	0xbd8b0b29	-0.06789238
160	0xbd0b13c6	-0.033954404
161	0xbe12c91c	-0.1433453
162	0x3a805c18	0.0009793071
163	0xbac02b28	-0.0014661299
164	0x3db35ea9	0.08758289
165	0xbdc4e5cf	-0.09614145
166	0x3dbdb57c	0.09263131
167	0xbd75e1ca	-0.060029782
168	0xbbf20094	-0.007385323
169	0x3dd8d9cb	0.10588416
170	0x3d2e2bae	0.042522125
171	0xbe00b51f	-0.12569092
172	0xbd7a11c3	-0.061052095
173	0xbe0cff4b	-0.13769262
174	0x3de8ed51	0.113733895
175	0x3e1c87d8	0.15286195
176	0x3ce6c09f	0.02816802
177	0xbd960eb6	-0.07327025
178	0x3dd090c1	0.101838596
179	0xbe12a0aa	-0.14319101
180	0xbd8d28d5	-0.06892554
181	0x3d85873e	0.06519936
182	0xbd9cf94c	-0.07664737
183	0xbc8f9bc6	-0.017530333
184	0x3ded7260	0.11594081
185	0x3b136fb4	0.0022497
186	0xbd84fbf5	-0.064933695
187	0x3d33f99e	0.043939225
188	0x3da55810	0.08073437
189	0xbde68782	-0.11256315
190	0x3d98cc5b	0.07460853
191	0x3e1a79a9	0.15085472
192	0x3dd27f44	0.1027818
193	0xbc6b7677	-0.014371506
194	0xbe1d6f65	-0.15374525
195	0x3dc12640	0.09431124
196	0x3cf72b9b	0.03017216
197	0xbe026bc6	-0.12736425
198	0xbd276711	-0.040869776
199	0xbe08ea9f	-0.13370751
200	0xbdfa1a0f	-0.122120015
201	0x3db54c96	0.08852498
202	0xbe149b47	-0.14512359
203	0xbe18c4bd	-0.149188
204	0x3cfbf89f	0.0307582
205	0xbd98fd19	-0.074701495
206	0x3df563ff	0.11981963
207	0x3e0d0f44	0.13775355
208	0xbdcbf535	-0.09958879
209	0xbd65e6c4	-0.05612828
210	0x3dd5f33b	0.10446783
211	0xbd1faaba	-0.038981177
212	0x3ce5ac8a	0.028036375
213	0x3e0494df	0.12947415
214	0xbddcf10c	-0.107881635
215	0xbd723736	-0.059134685
216	0xbdb22fa4	-0.08700493
217	0xbd58b773	-0.052909326
218	0xbc040206	-0.008057123
219	0xbdcf444f	-0.10120451
220	0x3cb36c1e	0.02190214
221	0xbda91178	-0.08255285
222	0xbd4ec5ae	-0.05048149
223	0x3d27b5d8	0.040944904
224	0xbda30f5b	-0.07961913
225	0x3b7ba256	0.003839632
226	0x3de09cd3	0.10967412
227	0xbd5b1851	-0.053489987
228	0x3d89c56e	0.0672711
229	0x3ddcc657	0.10780018
230	0xbcec1494	-0.028818406
231	0xbdb1a964	-0.08674887
232	0x3dc7b923	0.09752109
233	0xbe17aaa6	-0.14811191
234	0x3e1bffeb	0.15234344
235	0x3e07d1f6	0.13263687
236	0xbd527c0b	-0.051387828
237	0x3dfe5437	0.124184065
238	0xbe074a4a	-0.13211933
239	0xbd451c5f	-0.04812276
240	0x3d69368a	0.056936778
241	0x3de536a5	0.11192063
242	0x3d07e691	0.03317887
243	0x3e0287c9	0.1274711
244	0xbcf1044a	-0.02942099
245	0xbc0e8d9c	-0.0087007545
246	0x3d70bdfb	0.05877493
247	0x3d8ecd37	0.069727354
248	0x3e116caf	0.14201616
249	0xbe0749d7	-0.13211761
250	0xbe145c03	-0.14488225
251	0x3d3b27cb	0.045692246
252	0x3e0c8293	0.13721685
253	0x3daeabc0	0.085288525
254	0xbd90adcc	-0.07064399
255	0x3e0db33d	0.13837905

bias f4 [64]
0	0x3df2b30a	0.11850555
1	0xbd3674a3	-0.044544827
2	0xbd76bfd5	-0.06024154
3	0xbc94db0f	-0.018170862
4	0xbd8f5b8c	-0.06999883
5	0x3c0c7ae7	0.008574224
6	0x3d4e81e9	0.05041686
7	0x3b652117	0.003496235
8	0x3cde0b9b	0.027105143
9	0xbdebfbcb	-0.11522635
10	0xbe0da7a0	-0.13833475
11	0xbdb00cd8	-0.085962
12	0xbe02af22	-0.1276212
13	0x3e1068ae	0.14102432
14	0xbe1b1a5a	-0.15146771
15	0xbda340e6	-0.07971363
16	0xbde282a5	-0.11060075
17	0xbccd4cd2	-0.025061045
18	0xbe128f57	-0.14312492
19	0xbe17034c	-0.14747351
20	0xbdc66aa0	-0.09688306
21	0x3dc632c8	0.096776545
22	0x3ddfb698	0.10923499
23	0x3cd65fbf	0.026168702
24	0x3c95de8d	0.018294597
25	0xbe046e3d	-0.12932678
26	0xbdae22d6	-0.08502738
27	0xbd93b333	-0.07211914
28	0xbd83c3e9	-0.06433851
29	0xbd3f4f90	-0.046706736
30	0xbd61c47e	-0.05511903
31	0x3dd8f015	0.10592667
32	0xbd5b6cde	-0.05357062
33	0xbdce482d	-0.1007236
34	0xbd6d77ea	-0.057975687
35	0xbb695da0	-0.0035608783
36	0xbd973ccd	-0.07384644
37	0xbe0d712f	-0.13812707
38	0x3b8401cf	0.004028536
39	0x3e019bf5	0.12657149
40	0xbdcc748b	-0.09983166
41	0xbd8681b7	-0.0656771
42	0x3de93619	0.113872714
43	0xba4b51e2	-0.0007756037
44	0x3daaa955	0.08333079
45	0xbd2e46da	-0.042548038
46	0x3ced2e54	0.028952755
47	0x3d28a00c	0.041168258
48	0x3d9d3077	0.076752596
49	0xbe1982ea	-0.14991346
50	0x3de2ebdb	0.11080142
51	0xbe0f2840	-0.13980198
52	0xbda9cebf	-0.08291387
53	0xbd0844d0	-0.03326875
54	0xbdd416d4	-0.103559166
55	0xbd991bd0	-0.07476008
56	0xbe1a0b8b	-0.15043466
57	0x3db77f64	0.08959845
58	0x3def868f	0.11695587
59	0xbce02a4a	-0.027363915
60	0x3dabd4fe	0.083902344
61	0xbe14bbb9	-0.14524736
62	0xbde0f36e	-0.109839305
63	0x3b8da137	0.004322197

weight f4 [64, 64]
0	0x3cdf6312	0.02726892
1	0xbde8f1d3	-0.11374249
2	0xbd79cf19	-0.06098852
3	0x3bba558b	0.005686467
4	0x3de0c76f	0.10975539
5	0x3d855e6b	0.065121494
6	0x3c0b8cc2	0.008517446
7	0xbca12899	-0.019672679
8	0x3dbfbf03	0.093626045
9	0xbdf3df05	-0.11907772
10	0x3a844883	0.0010092411
11	0x3a8277c4	0.0009953906
12	0xbc0b6909	-0.008508929
13	0xbdcf6a03	-0.10127642
14	0x3ded8fdd	0.11599705
15	0x3dc9ff57	0.09863155
16	0x3cc5d1d8	0.024147913
17	0x3d4030d4	0.046921566
18	0xbcbdaa0f	-0.02315238
19	0x3db89bf9	0.090141244
20	0xbd9aed5b	-0.07564803
21	0x3d5fc466	0.05463066
22	0xbd4ca449	-0.049961362
23	0x3d86fd2a	0.06591256
24	0x3d9a6e07	0.07540517
25	0xbc8d79f5	-0.017270068
26	0xbdfe035d	-0.12402985
27	0x3dda39a1	0.10655523
28	0xbcad9326	-0.02118833
29	0xbdaa7600	-0.08323288
30	0x3da2b495	0.079445995
31	0x3d862710	0.06550419
32	0xbd94dc5a	-0.07268591
33	0x3dbc9258	0.092076
34	0xbdc75e20	-0.0973475
35	0x3d963fa7	0.073363595
36	0x3d4da2be	0.05020403
37	0xbdebe325	-0.11517934
38	0xbd9aa857	-0.075516395
39	0xbdb76aec	-0.089559406
40	0xbd773e29	-0.060362015
41	0x3df79378	0.12088674
42	0x3dcda66e	0.100415096
43	0xba4897f5	-0.0007652038
44	0x3d7e462c	0.06207864
45	0xbda2e273	-0.07953348
46	0x3cd37292	0.025811467
47	0xbb989f5d	-0.0046576695
48	0xbda037df	-0.078231566
49	0x3c2086dc	0.009797778
50	0x3d89eca6	0.0673459
51	0x3dc7b041	0.09750415
52	0x3d248668	0.040167242
53	0xbd8f59cb	-0.069995485
54	0x3d7c5395	0.061603148
55	0x3d39b494	0.04533823
56	0xbd490ca9	-0.04908434
57	0x3c9f13cb	0.019418618
58	0x3de57eff	0.11205863
59	0xbdc98782	-0.09840299
60	0xbd7aa35a	-0.06119094
61	0xbd1ca9ea	-0.03824798
62	0xbb7e3a2e	-0.0038792002
63	0xbd667f00	-0.05627346
64	0x3d6f897d	0.05848073
65	0xbdeb1830	-0.11479223
66	0x3dc4efde	0.096160635
67	0xbdcabdc6	-0.09899478
68	0xbd45d854	-0.04830201
69	0xbc37f0c6	-0.011226838
70	0xbcc3a33e	-0.02388155
71	0x3d923d38	0.07140583
72	0xbc903a4b	-0.017605921
73	0x3de3f4f1	0.11130703
74	0xbd5e496a	-0.05426923
75	0x3ddeda65	0.10881499
76	0x3d3f75c9	0.046743188
77	0x3dce0a71	0.10060585
78	0x3ba50b14	0.005036721
79	0xbd78dd5b	-0.060757976
80	0x3d5ea340	0.054354906
81	0xbd6f907e	-0.058487408
82	0x3dc6e214	0.0971109
83	0xbdcd6f94	-0.100310475
84	0xbdd85588	-0.10563189
85	0xbd6f834c	-0.058474824
86	0xbc74956f	-0.014928206
87	0xbdab692f	-0.083696716
88	0x3a91bedf	0.0011119506
89	0xbdaa8b45	-0.08327345
90	0xbd70d771	-0.05879921
91	0xbde20fc9	-0.11038167
92	0x3db0dd3b	0.08635946
93	0x3d162fb6	0.036666594
94	0xbd9aed57	-0.075648
95	0x3de78834	0.113052756
96	0xbc81f793	-0.015865123
97	0xbd2ff6ea	-0.042960085
98	0x3cd002f4	0.025392033
99	0x3daf2e31	0.08553732
100	0x3d9e3dbe	0.0772662
101	0xbd9c4cc5	-0.0763183
102	0x3bcae3a2	0.0061916867
103	0xbd86f1c1	-0.0658908
104	0x3d0ef4a7	0.034901287
105	0x3bb950a7	0.0056553665
106	0x3d035139	0.03205988
107	0x3db303e0	0.087409735
108	0x3d1137fa	0.035453774
109	0x3d34bc8b	0.04412512
110	0xbdfd1035	-0.12356607
111	0x3daf5379	0.08560843
112	0x3da3330e	0.07968722
113	0x3dc20b0b	0.094747625
114	0x3beda309	0.0072521013
115	0x3df09d18	0.11748713
116	0xbd46127d	-0.048357476
117	0xbd0961de	-0.0335406
118	0x3cddf6ca	0.027095217
119	0x3d9d3dd4	0.076778084
120	0x3df1ccc4	0.11806634
121	0xbd8a506d	-0.06753621
122	0x3d90b099	0.07064933
123	0x3df3d3f4	0.11905661
124	0x3d8119a5	0.063037194
125	0xbdd347d7	-0.10316437
126	0x3d30d71c	0.043173894
127	0xbdc045d7	-0.09388321
128	0x3dd2f19a	0.10299988
129	0xbdf94453	-0.12171235
130	0x3d1c930a	0.038226165
131	0xbd490f60	-0.04908693
132	0xbd51a6b9	-0.05118439
133	0x3bb18cad	0.005418381
134	0x3ddac1a0	0.10681462
135	0x3d4cbc55	0.049984295
136	0xbdd07436	-0.101784155
137	0x3dbb10e7	0.09134083
138	0x3da7cc97	0.08193319
139	0x3c79a6d0	0.015237525
140	0x3cbdab1d	0.023152882
141	0x3db6eb5e	0.089316115
142	0x3bd28d6f	0.0064255516
143	0x3dcd8efd	0.100370385
144	0x3cd5f271	0.026116582
145	0x3d059a25	0.032617707
146	0xbde5975f	-0.11210512
147	0x3df99672	0.12186898
148	0xbd02cf11	-0.031935755
149	0xbdc17bc2	-0.09447433
150	0x3dbae925	0.091265
151	0x3c3c1bda	0.01148125
152	0xbd31f131	-0.04344291
153	0x3d3f5a44	0.046716943
154	0x3df24f31	0.11831511
155	0x3df31d5f	0.118708365
156	0x3d030214	0.031984404
157	0x3d815ba2	0.06316306
158	0xbcefec89	-0.029287593
159	0xbdc1675f	-0.094435446
160	0x3dcf189b	0.10112115
161	0xbd550902	-0.052010544
162	0x3dd993b1	0.10623873
163	0x3db8e5e3	0.090282224
164	0xbddf4fb2	-0.109038725
165	0xbd82d996	-0.063891575
166	0x3c6cbf3f	0.0144498935
167	0x3d813544	0.06308988
168	0x3d812dca	0.06307562
169	0xbd48994f	-0.04897433
170	0x3dced44c	0.10099086
171	0xbd864f00	-0.06558037
172	0x3dbeeae4	0.093221456
173	0xbd7b6715	-0.061377604
174	0x3c8f5b24	0.017499514
175	0x3d30e165	0.043183703
176	0xbd091220	-0.03346455
177	0xbdf0c508	-0.11756331
178	0x3d02406a	0.03179971
179	0xbc428017	-0.011871359
180	0xbd644982	-0.055734165
181	0xbd302ad7	-0.043009605
182	0xbdfeeb22	-0.12447192
183	0xbc6a9f4d	-0.014320207
184	0x3d98e8a9	0.074662514
185	0x3dcab601	0.09897996
186	0x3d257fbb	0.040405016
187	0xbdd56336	-0.104193136
188	0x3d7f36d3	0.062308144
189	0x3ba5c10c	0.0050584134
190	0xbd77b1f8	-0.06047246
191	0xbdb9a726	-0.09065084
192	0x3de748a5	0.11293153
193	0xbdb9357e	-0.09043406
194	0x3b35790a	0.0027690553
195	0xbdd37c23	-0.103264116
196	0xbdf6ecda	-0.120568946
197	0x3c891101	0.01673174
198	0x3ddfd0bc	0.10928485
199	0xbb978a25	-0.0046246224
200	0x3d1fe40d	0.039035846
201	0xbdc801c6	-0.09765963
202	0x3d18a326	0.037264965
203	0xbbbb1e11	-0.0057103713
204	0x3d140797	0.03614005
205	0xbdbe4c30	-0.09291875
206	0x3df4205e	0.11920236
207	0xbd864714	-0.06556526
208	0x3d46ec5e	0.04856526
209	0x3d49262a	0.04910866
210	0x3d72ec3e	0.05930733
211	0xbdb4c3cc	-0.08826408
212	0xbd8b2e03	-0.067958854
213	0x3de965b9	0.11396355
214	0x3c422dd4	0.011851747
215	0x3cf8885e	0.030338462
216	0x3c8b4913	0.017002618
217	0x3d512a46	0.051065706
218	0xbcb078ed	-0.021542037
219	0xbdbd367c	-0.09238908
220	0xbd65a595	-0.056066114
221	0x3dfc0b67	0.12306862
222	0x3ccea422	0.025224749
223	0x3cc07397	0.023492618
224	0x3d0e78c4	0.03478314
225	0xbc868604	-0.016421326
226	0xbdf45fa6	-0.11932306
227	0x3a8dd865	0.0010821937
228	0x3dba959c	0.09110567
229	0xbdc050d2	-0.09390415
230	0x3bfbdb91	0.0076860865
231	0xbde1484f	-0.1100012
232	0x3dda5be6	0.106620595
233	0xbd986e08	-0.07442862
234	0x3df7a8a6	0.12092714
235	0x3d4fd62c	0.05074136
236	0x3dd4bcaa	0.10387547
237	0xbcb719bd	-0.02235114
238	0xbb02430c	-0.0019876389
239	0xbd58c86b	-0.05292551
240	0x3d1a678e	0.037696414
241	0xbd02bb88	-0.031917125
242	0xbd6c1314	-0.05763538
243	0xbdc8b4a0	-0.098000765
244	0x3d2b5605	0.04183008
245	0xbdc28d73	-0.094996355
246	0x3cb2ce1b	0.021826794
247	0xbd700d98	-0.058606714
248	0xbd8e6535	-0.069528975
249	0xbdb560bf	-0.088563435
250	0xbd3f0a7b	-0.046640854
251	0x3b12a421	0.002237566
252	0x3cd7aa9e	0.026326474
253	0x3d51050c	0.051030204
254	0x3da197b5	0.07890264
255	0x3d003984	0.03130485

bias f4 [64]
0	0x3d9e5934	0.07731858
1	0x3ba26f9e	0.0049571535
2	0xbb20b3e5	-0.0024521288
3	0xbd8207d6	-0.06349151
4	0x3de956e4	0.11393526
5	0xbd49ad4b	-0.04923753
6	0xbd5bca1a	-0.053659536
7	0xbd5183e4	-0.05115117
8	0xbd8dfd81	-0.06933118
9	0x3dd0c981	0.10194684
10	0xbba185dc	-0.0049292874
11	0xbdce92e7	-0.10086613
12	0xbdd005e5	-0.10157374
13	0xbbaa7133	-0.0052014827
14	0x3dde9efc	0.108701676
15	0xbdebe70d	-0.11518679
16	0x3dd90988	0.10597521
17	0x3d9f847b	0.077889405
18	0x3d3517b3	0.044212054
19	0xbb5c9ae9	-0.003366167
20	0xbbb91412	-0.0056481445
21	0xbdf895b8	-0.121379316
22	0x3dfc57c2	0.12321426
23	0x3defcf5e	0.11709474
24	0xbdd3e784	-0.103468925
25	0x3dcec7e7	0.10096722
26	0xbdb29d89	-0.08721454
27	0xbdb1260c	-0.08649835
28	0xbd501ce6	-0.05080881
29	0x3b8b28f1	0.004246824
30	0xbdf8c01f	-0.12146019
31	0x3d4b2759	0.04959807
32	0xbc86b8cd	-0.016445542
33	0xbdf07bd4	-0.11742368
34	0x3da9bf87	0.08288484
35	0xbd0d387d	-0.0344777
36	0x3df21597	0.11820524
37	0x3db95d86	0.09051041
38	0xbdcd28f2	-0.10017575
39	0xbca8cab5	-0.02060447
40	0x3df81b0e	0.12114535
41	0x3d8a4c29	0.06752808
42	0xbddfb531	-0.109232314
43	0x3df7e944	0.12105039
44	0xbdd30cd8	-0.10305184
45	0x3dfa40af	0.12219369
46	0xbdcbea8f	-0.09956848
47	0xbdf4e4e9	-0.11957724
48	0xbd1a986d	-0.03774302
49	0x3d4c0350	0.049807847
50	0xbdec8a5d	-0.11549828
51	0xbd1b42d6	-0.037905537
52	0x3d038041	0.032104734
53	0xbcab8992	-0.020939622
54	0xbcc799dd	-0.02436536
55	0x3d24a81e	0.04019939
56	0x3de3d284	0.11124137
57	0x3c8c83d4	0.017152704
58	0xbdf1d888	-0.11808878
59	0x3d8ad361	0.067785986
60	0xbdccdde1	-0.100032575
61	0xbddf3a2f	-0.108997695
62	0xbdcbde2a	-0.09954484
63	0xbc0c20ad	-0.008552712

weight f4 [7, 64]
0	0xbd3cdd0a	-0.046109237
1	0xbdf8fbc8	-0.121573985
2	0xbbe09f3c	-0.0068549197
3	0xbda45424	-0.08023861
4	0x3d2bf4ce	0.04198151
5	0x3dd9252f	0.10602795
6	0xbd13425c	-0.035951957
7	0x3df067ab	0.11738523
8	0x3d70b878	0.058769673
9	0xbd36b584	-0.0446067
10	0xbc60c965	-0.013719891
11	0x37dc671c	2.6274058e-05
12	0xbdcf6cce	-0.10128175
13	0xbdff6d1f	-0.12471985
14	0x3ddcd464	0.10782698
15	0x3b7a2271	0.0038167501
16	0x3dc12a67	0.09431916
17	0xbc83f385	-0.01610733
18	0x3d55f255	0.05223306
19	0x3de34146	0.11096434
20	0x3d859625	0.065227784
21	0x3d4f7f71	0.050658647
22	0x3db3d38b	0.08780583
23	0x3bdd79ca	0.006758903
24	0x3de6569b	0.112469874
25	0xbda2846c	-0.07935414
26	0x3dcd586c	0.10026631
27	0x3dad4621	0.08460642
28	0xbd1c272e	-0.038123302
29	0xbda7a0cc	-0.081849664
30	0x3d4b78d4	0.049675778
31	0xbd474310	-0.04864794
32	0xbcda8aaa	-0.026677448
33	0x3cd9a186	0.026566278
34	0xbdae3f5d	-0.08508179
35	0xbcae54a8	-0.021280602
36	0x3cbda5dd	0.023150379
37	0xbd4a2168	-0.049348265
38	0x3d3ea236	0.046541415
39	0xbd846c82	-0.06466009
40	0xbd6ea8a1	-0.058266286
41	0xbdee85d9	-0.11646623
42	0x3cee751c	0.029108576
43	0xbcdba94b	-0.026814124
44	0xbdf287c2	-0.118423
45	0xbd7fc67c	-0.06244515
46	0x3ce5297b	0.027973881
47	0x3c6f5037	0.014606527
48	0xbcdefd90	-0.027220517
49	0x3d2c67f6	0.042091332
50	0x3de854f9	0.11344332
51	0x3df50ff1	0.11965931
52	0xbd9ce082	-0.07660009
53	0xbd466dfc	-0.048444733
54	0x3db5350d	0.08848009
55	0x3c73245f	0.0148402145
56	0x3da6330f	0.081152074
57	0xbdecc3ad	-0.1156076
58	0xbcf9df87	-0.030502094
59	0xbde6c0c4	-0.11267236
60	0xbd067265	-0.03282394
61	0xbde59f5e	-0.112120375
62	0x3cecb84a	0.02889647
63	0xbddab498	-0.10678977
64	0x3cdcb781	0.02694297
65	0xbd34db45	-0.044154424
66	0x3da08ef8	0.07839769
67	0xbd71d574	-0.059041455
68	0xbde6cf7e	-0.11270045
69	0xbd584265	-0.052797694
70	0xbdcad7ad	-0.09904418
71	0x3ded1d64	0.115778714
72	0xbd7c18c9	-0.061547074
73	0xbdcd1249	-0.10013253
74	0x3d49f791	0.049308363
75	0x3d0fe37e	0.035129063
76	0xbdcfda72	-0.10149087
77	0xbbc52666	-0.0060165403
78	0xbd0f9c15	-0.03506096
79	0xbcac6bf8	-0.021047577
80	0x3dbb2a74	0.09138957
81	0xbd903fad	-0.07043395
82	0xbdcd34a9	-0.1001981
83	0xbd286c27	-0.041118767
84	0x3de08a50	0.10963881
85	0xbdaa8730	-0.08326566
86	0x3a8b87a9	0.0010645288
87	0x3dfdc3a7	0.12390833
88	0xbd8c546e	-0.06852041
89	0x3c624133	0.01380949
90	0xbc924508	-0.017855182
91	0x3dc12c59	0.09432287
92	0x3bcc6baf	0.006238423
93	0x3df33b2a	0.11876519
94	0x3d56df59	0.052459095
95	0x3da0bed1	0.07848895
96	0xbd939373	-0.07205858
97	0xbceeee50	-0.02916637
98	0xbd221cd1	-0.039578263
99	0x3d6a2b90	0.05717045
100	0xbd036cee	-0.032086305
101	0x3dd472c4	0.10373452
102	0xbddeea6e	-0.10884558
103	0x3db203c5	0.08692125
104	0x3df4e6e3	0.11958101
105	0xbc2f6fdf	-0.0107078245
106	0xbdd65d33	-0.10466995
107	0xbcb35558	-0.021891281
108	0xbdebf10d	-0.11520586
109	0xbd2b3a43	-0.04180361
110	0x3d379ea7	0.044829037
111	0xbdc28d88	-0.09499651
112	0x3d968cd4	0.073510796
113	0x3dee8095	0.11645619
114	0xbc3dbfa8	-0.011581339
115	0x3dcc35ed	0.09971223
116	0xbd9078a2	-0.07054259
117	0xbd528b8d	-0.051402617
118	0x3da1273e	0.07868813
119	0xbd1c83e4	-0.03821172
120	0x3d450df3	0.048109006
121	0x3d180c34	0.037121013
122	0x39e42f94	0.00043522997
123	0x3cd757bb	0.02628695
124	0xbc8aa588	-0.016924635
125	0x3d81376c	0.06309399
126	0x3d69cec0	0.057081938
127	0x3d15006e	0.036377363
128	0xbc088f0d	-0.008334887
129	0xbd8af238	-0.06784481
130	0xbd90a7f6	-0.07063286
131	0xbded84b6	-0.11597578
132	0x3d70ab66	0.05875721
133	0x3dde3ad7	0.108510666
134	0xbc4c18f7	-0.012457124
135	0x3dd7fd4f	0.10546362
136	0xbd714698	-0.058905214
137	0x3d95856e	0.0730084
138	0x3d9e6d1c	0.07735655
139	0x3d856244	0.06512883
140	0x3db81f77	0.089903764
141	0xbcf149b1	-0.029454084
142	0xbd79895d	-0.060922015
143	0x3dffd16c	0.12491116
144	0x3d2bc607	0.0419369
145	0xbc97622a	-0.018479425
146	0xbc5e0b51	-0.013552503
147	0xbda2f036	-0.07955973
148	0x3d98cc50	0.074608445
149	0xbcd0e088	-0.02549769
150	0xbde493fd	-0.11161039
151	0xbdc01937	-0.09379809
152	0xbd8a2e58	-0.067471206
153	0xbd6fdaf8	-0.058558434
154	0xbdf737fe	-0.120712265
155	0x3ca65328	0.020303324
156	0xbde79068	-0.1130684
157	0x3c47aca0	0.012187153
158	0x3d2bbd8d	0.041928817
159	0xbd44a68d	-0.048010398
160	0xbd06bccc	-0.032894894
161	0x3dbe9eba	0.093076184
162	0x3ca925d0	0.020647913
163	0xbdeb4fd8	-0.11489838
164	0xbd8d19e1	-0.06889702
165	0x3da857b0	0.0821985
166	0xbd90d3d4	-0.07071653
167	0xbdb4f106	-0.08835034
168	0x3de714e2	0.1128328
169	0x3de57e78	0.112057626
170	0xbd810ab1	-0.06300867
171	0xbdaa8c28	-0.08327514
172	0xbdf30722	-0.11866595
173	0xbd3a87b9	-0.04553959
174	0xbc9a3340	-0.018823266
175	0xbdd33174	-0.10312167
176	0x3dd2811e	0.102785334
177	0x3d9a545c	0.075356215
178	0x3d663c74	0.056209996
179	0xbc402fdf	-0.011730163
180	0xbdfbebfc	-0.1230087
181	0x3cf733b0	0.030176014
182	0x3cd1cb10	0.025609523
183	0xbd68a9d6	-0.056802593
184	0xbbbac8ff	-0.00570023
185	0xbc8ec7da	-0.017429281
186	0x3dfe9014	0.124298245
187	0x3dabd89a	0.08390923
188	0xbdd7e516	-0.105417415
189	0xbdf14a14	-0.117817074
190	0x3d7e64fb	0.06210802
191	0x3da414aa	0.08011754
192	0x3be5c777	0.0070123035
193	0x3be98797	0.0071267593
194	0x3dee9954	0.11650339
195	0xbd149b94	-0.036281183
196	0xbdbacb5e	-0.091208205
197	0xbd6f3734	-0.058402255
198	0xbdce5c74	-0.10076228
199	0xbdc55982	-0.09636213
200	0xbcdb546e	-0.026773658
201	0x3dec7270	0.11545265
202	0x3d89ae11	0.06722654
203	0xbd3ac416	-0.04559716
204	0xbbf09fbe	-0.0073432615
205	0xbddf28e1	-0.10896469
206	0xbbbb625f	-0.005718514
207	0x3d50665e	0.050878875
208	0x3dd097bd	0.10185192
209	0xbdac64a3	-0.084176324
210	0xbda5d44b	-0.08097132
211	0x3d8e1106	0.06936841
212	0x3cc713e7	0.024301482
213	0x3dd2e698	0.102978885
214	0xbdc15109	-0.09439284
215	0xbd28a58e	-0.04117351
216	0xbdbc55d9	-0.09196062
217	0xbda48c7b	-0.08034607
218	0xbd449682	-0.047995098
219	0x3d854565	0.065073766
220	0xbd96a1a4	-0.07355049
221	0x3d864c44	0.06557515
222	0xbdf12737	-0.11775058
223	0x3d9621b0	0.07330644
224	0x3d1b9870	0.037987173
225	0x3d92861b	0.07154485
226	0x3d92f520	0.0717566
227	0x3c0b90a5	0.008518373
228	0xbca8cae9	-0.020604568
229	0xbc8f6e44	-0.017508633
230	0x3d28feba	0.04125855
231	0xbc502e61	-0.01270637
232	0xbd5ceab4	-0.053934768
233	0xbde0799b	-0.109606944
234	0xbda90d26	-0.08254461
235	0xbd855e41	-0.06512118
236	0xbdb1d021	-0.086822756
237	0xbd6c87b9	-0.057746623
238	0x3dd3ee99	0.10348243
239	0x3decac0e	0.11556254
240	0xbcbfbfa7	-0.023406817
241	0xbca85cad	-0.020552004
242	0xbd491c34	-0.049099162
243	0x3dd0c124	0.10193089
244	0x3da504db	0.08057567
245	0xbd65a8b1	-0.05606908
246	0xbcc00b44	-0.023442872
247	0xbdf424ed	-0.119211055
248	0x3de0f249	0.10983712
249	0x3d2df695	0.042471487
250	0xbddda6d0	-0.108228326
251	0x3c062fdf	0.008190124
252	0xbdc52a46	-0.09627204
253	0xbb5e3b40	-0.0033909827
254	0x3ddb5f77	0.10711568
255	0xbd01d40d	-0.031696368

bias f4 [7]
0	0xbcb78d45	-0.02240623
1	0xbd5086bf	-0.050909754
2	0xbd85cfa1	-0.06533743
3	0x3cc867de	0.02446359
4	0x3cc9ef30	0.024650186
5	0xbdf1b0c2	-0.11801292
6	0x3cde2041	0.02711499
