logs/cp1_agent0_050924-034433.pth (torch, 67322 bytes, 16 tensors)

weight f4 [64, 42]
0	0xbc395188	-0.0113109425
1	0xbd8dbcb4	-0.06920758
2	0xbc378800	-0.0112018585
3	0x3d8053de	0.062659964
4	0xbca859e5	-0.020550678
5	0xbde8544b	-0.113442026
6	0x3db1e5f8	0.08686441
7	0x3d2a829a	0.041628458
8	0xbd8960fa	-0.0670795
9	0xbe0878a9	-0.13327278
10	0xbcaf7bf0	-0.021421403
11	0xbe075744	-0.13216883
12	0x3d80fac3	0.06297829
13	0x3e168571	0.14699341
14	0xbcc578bc	-0.024105422
15	0xbd7aebc5	-0.061260004
16	0xbdf80364	-0.12110022
17	0x3db3d54d	0.08780918
18	0xbca1f2bf	-0.01976907
19	0xbdf60364	-0.120123655
20	0x3dd5c787	0.104384474
21	0x3d23a63b	0.03995345
22	0x3cb7c7c3	0.022434121
23	0xbd94e0c3	-0.072694324
24	0xbe03eb1b	-0.12882654
25	0x39748fe3	0.00023323255
26	0xb81b5558	-3.7034362e-05
27	0x3ded878d	0.1159812
28	0xbd730082	-0.059326656
29	0xbd88ec27	-0.066856675
30	0xbcd59540	-0.026072145
31	0xbd847b91	-0.06468881
32	0x3de04f95	0.10952679
33	0x3ce8118c	0.02832868
34	0x3d149a84	0.03628017
35	0x3dd16d60	0.1022594
36	0x3e0253e0	0.12727308
37	0x3dab8408	0.08374792
38	0x3bed9dff	0.0072515006
39	0xbe10ac25	-0.14128168
40	0x3d8e25a5	0.06940774
41	0xbd97f94f	-0.07420599
42	0x3e13775e	0.14401004
43	0x3d862109	0.0654927
44	0x3e0c301b	0.13690226
45	0xbdf452b4	-0.11929837
46	0x3e06448d	0.13112088
47	0x3e05ad38	0.13054359
48	0xbd0c7c98	-0.03429851
49	0xbdf7a73a	-0.12092443
50	0x3dd3c620	0.10340524
51	0x3df17b79	0.11791129
52	0xbc7259b4	-0.014791895
53	0xbd49f27c	-0.049303517
54	0x3e172660	0.14760733
55	0xbd8012d7	-0.062535934
56	0xbe0dc5c4	-0.13844973
57	0xbe06951c	-0.13142818
58	0xbd1559d6	-0.036462627
59	0x3e04e1fc	0.12976831
60	0xbe165fb5	-0.14684947
61	0xbd89fda2	-0.0673783
62	0x3db71dbf	0.089412205
63	0x3bf18af2	0.0073713
64	0xbd1b5f63	-0.037932765
65	0x3d073578	0.033009976
66	0xbdb7f871	-0.08982933
67	0x3cedfb27	0.029050423
68	0xbd15db83	-0.036586296
69	0xbe1ac5a7	-0.15114461
70	0xbd854e31	-0.065090545
71	0xbdf04ec2	-0.11733772
72	0xbcbaa9ff	-0.022786139
73	0x3e00776a	0.12545553
74	0x3ce07346	0.027398717
75	0x3dfca732	0.123365775
76	0xbcfa2ec0	-0.03053987
77	0xbd9ad079	-0.07559294
78	0xbd8b5ea4	-0.06805161
79	0xbded446e	-0.115853176
80	0xbddd31d3	-0.10800519
81	0x3d2eda2d	0.042688537
82	0xbd9c4dec	-0.0763205
83	0x3e0efc28	0.13963377
84	0x3de6e14c	0.11273441
85	0xbd4090a4	-0.04701294
86	0xbdb74f24	-0.08950642
87	0x3dfe0412	0.1240312
88	0xbd8d4d21	-0.06899477
89	0x3de26ce7	0.11055928
90	0x3e00446b	0.125261
91	0x3cd5f9fc	0.026120178
92	0x3d352c9f	0.044232007
93	0xbde24b1c	-0.11049482
94	0x3e19285c	0.14956802
95	0x3da6ef0f	0.081510656
96	0x3d4b7ac0	0.04967761
97	0x3cbc05e8	0.022952035
98	0xbda6760c	-0.081279844
99	0x3daee0cf	0.085389726
100	0x3c44495d	0.011980382
101	0x3d05bd0f	0.032651003
102	0xbce23a9d	-0.02761584
103	0x3d55b9df	0.052179214
104	0xbd7a7936	-0.061150752
105	0x3d782eb7	0.060591426
106	0x3df33d45	0.118769206
107	0xbe0e3b84	-0.13889891
108	0xbd2b5148	-0.041825563
109	0xbbdec529	-0.0067984057
110	0xbe168351	-0.1469853
111	0xbd4a8c89	-0.04945043
112	0x3b7ee7c3	0.0038895465
113	0x3c46bc8e	0.012129916
114	0xbde3f69d	-0.11131022
115	0x3cdc3cc6	0.026884448
116	0xbe142119	-0.14465751
117	0xbe166306	-0.14686212
118	0xbd5f4622	-0.054510243
119	0x3d3e733a	0.046496607
120	0xbcd73f65	-0.026275346
121	0x3d3b7ac1	0.045771364
122	0x3d1e8e63	0.03871001
123	0x3dd1c949	0.1024347
124	0xbe051cf4	-0.12999326
125	0x3ddcb3f3	0.1077651
126	0x3dfc46cb	0.1231819
127	0xbd34bc60	-0.04412496
128	0x3d1f5cd4	0.038906887
129	0x3dc7feb2	0.09765376
130	0xbdccca3d	-0.099995114
131	0x3d58533b	0.05281375
132	0xbdcda74e	-0.100416765
133	0x3d9c24c0	0.07624197
134	0x3d134c2b	0.03596131
135	0xbe0cc09c	-0.1374535
136	0x3e1b8d33	0.15190582
137	0x3de7d58b	0.11320027
138	0xbc821e8d	-0.015883708
139	0x3c98556a	0.018595416
140	0xbdc040ea	-0.093873814
141	0xbc913a58	-0.017728016
142	0x3d4c38d0	0.049858868
143	0xbde9f4d0	-0.114236474
144	0x3d50cf11	0.050978724
145	0xbc1e2e44	-0.009654585
146	0xbddee8fa	-0.108842805
147	0x3d59472f	0.0530464
148	0x3d439691	0.047751013
149	0x3dd3b457	0.103371315
150	0xbd7a78a3	-0.061150204
151	0xbdd8d4d1	-0.105874665
152	0xbe1b9012	-0.15191677
153	0x3d5578ff	0.052117344
154	0x3d819e61	0.063290365
155	0x3dc02a4b	0.09383067
156	0x3e1ba127	0.15198193
157	0xbdb43b0d	-0.088003255
158	0xbd1dcee2	-0.038527377
159	0xbdbe9484	-0.09305671
160	0x3d5cc99b	0.053903203
161	0xbc57b424	-0.013165507
162	0xbdbf2904	-0.09333995
163	0xbc980c67	-0.018560601
164	0xbdb6c53f	-0.089243405
165	0xbd9a723f	-0.07541322
166	0xbd048d34	-0.032361224
167	0x3e166053	0.14685182
168	0x3dc9b67e	0.09849261
169	0x3dbda698	0.09260291
170	0xbe1cc5d6	-0.15309843
171	0xbd4da184	-0.05020286
172	0xbcdf44e3	-0.027254527
173	0xbe03f630	-0.12886882
174	0xbc9fd246	-0.019509446
175	0xbd8ec3fd	-0.069709755
176	0x3df0cf3c	0.11758277
177	0xbbfa9363	-0.0076469644
178	0x3d979771	0.07401932
179	0xbdbe472a	-0.09290917
180	0x3dce1072	0.100617304
181	0xbdcff3ff	-0.101539604
182	0xbdc4c8a1	-0.096085794
183	0xbd487f13	-0.048949312
184	0xbc3cc2fd	-0.011521098
185	0xbd7eaa72	-0.062174268
186	0xbcbbde2d	-0.02293309
187	0xbde86003	-0.11346438
188	0x3d88b152	0.06674446
189	0xbda41660	-0.0801208
190	0xbddc8110	-0.10766804
191	0xbd199f0c	-0.037505195
192	0xbe0abb58	-0.13548028
193	0x3db2ce8e	0.087308034
194	0xbddf9762	-0.10917546
195	0x3d511bcd	0.051051904
196	0x3d0442d8	0.03229031
197	0x3e186630	0.14882731
198	0x3d5e6942	0.0542996
199	0x3dc6b5f3	0.09702673
200	0x3d1f7947	0.03893402
201	0x3ca6dc7e	0.02036881
202	0x3db3c4cf	0.08777773
203	0xbd905d26	-0.07049017
204	0x3e1c97f8	0.15292346
205	0x3d0d3c45	0.034481306
206	0xbe17d8e6	-0.14828834
207	0x3df98d9a	0.121852115
208	0x3ded3b22	0.11583544
209	0x3e18cace	0.14921114
210	0xbc82d76b	-0.01597186
211	0x3cd68ffe	0.026191708
212	0x3c931fe8	0.01795955
213	0xbdad0b7b	-0.08449455
214	0x3d6e3b1d	0.058161844
215	0xbe1c04f3	-0.15236263
216	0xbcfb92f0	-0.030709714
217	0xbd9f233a	-0.07770391
218	0xbd19a200	-0.03750801
219	0xbba2af5f	-0.0049647535
220	0xbd2ec583	-0.04266883
221	0xbc763c91	-0.015029089
222	0x3de922e0	0.11383605
223	0xbd54e039	-0.051971648
224	0x3da00d46	0.07815032
225	0xbdc81529	-0.09769661
226	0x3d1f0568	0.038823515
227	0xbc6aae93	-0.014323848
228	0xbdbaf353	-0.09128442
229	0x3e07b6c9	0.13253321
230	0x3d9e3c62	0.07726361
231	0x3e05b06b	0.1305558
232	0xbc25b9d0	-0.010115102
233	0x3c20b21f	0.009808092
234	0xbd9e1630	-0.07719076
235	0x3e18111e	0.1485028
236	0xbd6aed7a	-0.05735538
237	0xbe105421	-0.14094593
238	0x3b7df90b	0.0038753178
239	0xbdc9eb24	-0.09859303
240	0x3e01e4e1	0.12684967
241	0xbc02948c	-0.007969987
242	0x3acb51b8	0.0015512025
243	0xbd205928	-0.039147526
244	0xbd672b62	-0.056437857
245	0x3e156e28	0.14592803
246	0xbcab3c6c	-0.020902835
247	0xbd84365a	-0.06455679
248	0xbc1191fe	-0.008884905
249	0x3c3998b1	0.011327908
250	0x3db37a36	0.08763544
251	0xbde9b668	-0.11411744
252	0xbe1b53af	-0.15168642
253	0x3c04cf09	0.008106002
254	0x3e02cc9f	0.12773369
255	0x3de8d8e6	0.11369495

bias f4 [64]
0	0x3d969e00	0.07354355
1	0x3da6c6a3	0.08143356
2	0xbd034379	-0.03204677
3	0x3d139a96	0.036036097
4	0x3e14d307	0.14533626
5	0xbdec3c12	-0.11534895
6	0xbdc6d654	-0.097088486
7	0xbe1c3e45	-0.15258129
8	0x3dd58620	0.10425973
9	0x3cf79fe4	0.030227609
10	0xbc263807	-0.010145194
11	0x3d773c87	0.060360458
12	0xbcd5dd86	-0.026106607
13	0xbe02a38f	-0.12757705
14	0xbd508c58	-0.050915092
15	0xbdcc165e	-0.09965204
16	0xbd71f188	-0.059068233
17	0x3d9c7376	0.0763921
18	0x3e040fa7	0.12896596
19	0x3d597b27	0.053095963
20	0xbe00a64e	-0.1256344
21	0xbcdafe6f	-0.026732652
22	0x3d7842ff	0.060610767
23	0x3c8fcf2d	0.017554844
24	0x3dce0b72	0.10060777
25	0x3df596fc	0.119916886
26	0x3c066a59	0.008204066
27	0x3e0e2914	0.13882858
28	0xbdd9d68d	-0.106366254
29	0x3e191a41	0.14951421
30	0x3d9bf579	0.076151796
31	0x3e011c83	0.12608533
32	0xbd6c5ecf	-0.057707604
33	0xbd8d378c	-0.0689536
34	0x3e0297f7	0.12753282
35	0xbddace95	-0.10683934
36	0x3d86e05a	0.065857604
37	0xbdfedceb	-0.124444805
38	0xbdaec92b	-0.085344635
39	0xbd94fac7	-0.072743945
40	0xbdc028b1	-0.09382761
41	0xbd43f688	-0.047842532
42	0xbde46f5d	-0.11154053
43	0x3b995d05	0.0046802782
44	0x3d0b3063	0.033981692
45	0x3c35a194	0.0110858865
46	0xbe1c68ce	-0.15274355
47	0xbdb01491	-0.08597673
48	0xbbf4021a	-0.0074465396
49	0x3d5dfaa1	0.054194096
50	0x3e190c47	0.1494609
51	0x3d926b02	0.07149316
52	0xbda28bcb	-0.0793682
53	0xbd697f75	-0.057006318
54	0xbdd5fa49	-0.10448129
55	0x3b45060c	0.0030063419
56	0x3d2d18d8	0.04226002
57	0x3e061467	0.1309372
58	0xbd10ba90	-0.03533417
59	0xbca69565	-0.020334909
60	0x3b8e5525	0.004343646
61	0xbc81e0ff	-0.015854357
62	0xbdb4265a	-0.087963775
63	0xbc037cb5	-0.008025338

weight f4 [64, 64]
0	0xbc4eeaa2	-0.012629183
1	0xbdc9be05	-0.098506965
2	0xbcc56a3f	-0.024098514
3	0xb9a747bb	-0.00031906166
4	0x3df15169	0.11783106
5	0xbb650d0f	-0.003495041
6	0x3d368c81	0.04456759
7	0x3df4c91e	0.119524226
8	0x3c96115b	0.018318823
9	0xbd482cbf	-0.0488708
10	0xbd936988	-0.07197863
11	0x3da5de6f	0.080990665
12	0x3da95b31	0.082693465
13	0x3d29d1c6	0.04145982
14	0xbd6c5e82	-0.057707317
15	0xbd5beb57	-0.053691234
16	0xbd9052e6	-0.070470616
17	0xbdd1c48a	-0.10242565
18	0x3dee9aaf	0.11650597
19	0xbb51bfa0	-0.0032005087
20	0xbd61665e	-0.055029266
21	0xbde32eb9	-0.11092896
22	0xbdbe07eb	-0.09278854
23	0x3dbf5b5f	0.093435995
24	0x3d9408ed	0.07228265
25	0x3d29b56e	0.04143279
26	0xbcf114dd	-0.029428894
27	0x3d276389	0.04086641
28	0xbd7e101e	-0.06202709
29	0x3d8d717b	0.0690641
30	0x3db46735	0.08808748
31	0x3a87b54f	0.0010353717
32	0xbd8d34bd	-0.06894825
33	0x3de78ada	0.11305781
34	0xbcbe29a7	-0.02321322
35	0x3baf0c5c	0.0053420495
36	0xbde25d38	-0.11052936
37	0xbd423866	-0.047417067
38	0x3c6bce87	0.014392502
39	0x3dd6703c	0.10470626
40	0x3bf7f359	0.007566851
41	0xbdb257b6	-0.08708136
42	0xbd618005	-0.05505373
43	0xbcac3288	-0.021020189
44	0xbd2ea385	-0.042636413
45	0x3ddd97e1	0.10819984
46	0xbdb5c57d	-0.088755585
47	0xbcba0d3e	-0.022711392
48	0x3cc0aa56	0.023518723
49	0xbcf5ce8d	-0.030005718
50	0x3bbf3f75	0.005836422
51	0x3d3b1afc	0.04568003
52	0x3d7787d3	0.060432266
53	0x3dc2eb81	0.09517575
54	0x3daf9668	0.085736096
55	0x3d523512	0.051320143
56	0x3ddec66d	0.108776905
57	0xbda222a4	-0.079167634
58	0x3dd7965f	0.10526728
59	0xbdd819f2	-0.10551824
60	0x3de7d774	0.11320391
61	0x3df7a940	0.12092829
62	0x3dc269b8	0.094928205
63	0xbd914f7c	-0.070952386
64	0x3d1c6aac	0.038187668
65	0xbdc408b1	-0.0957197
66	0x3dd04ad6	0.10170524
67	0x3ddee80b	0.108841024
68	0xbdee1acf	-0.11626207
69	0xbd520b5b	-0.05128036
70	0x3d0607a4	0.03272213
71	0xbcf6609d	-0.030075366
72	0xbcd36cef	-0.02580878
73	0xbdc9dc73	-0.098565005
74	0x3cc7212b	0.024307808
75	0xbd509f39	-0.050933097
76	0xbd8505b9	-0.06495232
77	0xbdd74e9d	-0.10513041
78	0x3d900bc4	0.07033494
79	0xbba4c146	-0.005027923
80	0x3d972d42	0.07381679
81	0x3df741e9	0.12073118
82	0xbd1812ab	-0.03712718
83	0x3d4e9b31	0.05044097
84	0x3d8e32f3	0.069433115
85	0x3dca8f00	0.09890556
86	0x3d82ffd4	0.063964516
87	0x3de499e3	0.11162164
88	0x3dfa1c63	0.122124456
89	0xbd21d176	-0.0395064
90	0x3df695cc	0.1204029
91	0xbd2830b8	-0.041062087
92	0xbce79e3a	-0.02827369
93	0xbd491efa	-0.049101807
94	0x3d82d0f6	0.063875124
95	0xbdf8e46b	-0.12152942
96	0xbd14552e	-0.036214046
97	0x3d49e625	0.04929175
98	0xbd949709	-0.0725537
99	0x39f1aada	0.00046094396
100	0xbad91992	-0.0016563407
101	0xbdc514c5	-0.09623102
102	0xbddd43d8	-0.10803956
103	0xbdc8121b	-0.09769078
104	0xbd6a1b7b	-0.057155114
105	0xbbeeaa63	-0.0072834953
106	0xbcc93ea7	-0.024566008
107	0xbbc55a89	-0.0060227555
108	0xbca218f0	-0.019787282
109	0xbdf204fc	-0.11817357
110	0x3c14727c	0.009060498
111	0x3d22ee4d	0.039778043
112	0xbddddd75	-0.10833255
113	0x3d9d1963	0.07670858
114	0x3da9255e	0.0825908
115	0x3df32e84	0.118741065
116	0x3dc40afd	0.09572408
117	0xbdb738a3	-0.089463495
118	0xbdc08974	-0.09401217
119	0x3cc42b2e	0.02394637
120	0x3c0d59f4	0.0086274035
121	0x3de5bb31	0.112173446
122	0xbd38bc7e	-0.045101635
123	0xbd22a789	-0.039710555
124	0xbd9d86db	-0.07691737
125	0xbde29bf2	-0.110649005
126	0xbd873a49	-0.06602914
127	0x3db941c5	0.09045748
128	0x3d1b087e	0.037849896
129	0xbb0f8edd	-0.0021905222
130	0x3d97dd5c	0.07415268
131	0xbceeabe8	-0.029134706
132	0x3d1c2aa2	0.038126595
133	0x3df8c690	0.12147248
134	0x3de99bea	0.11406691
135	0xbc15b035	-0.009136249
136	0xbd15cdbe	-0.036573164
137	0x3de0aa7a	0.10970016
138	0x3c67b132	0.014141368
139	0xbd12f4db	-0.035878044
140	0x3d12252d	0.035679985
141	0x3d33b14c	0.043870255
142	0x3dfa2340	0.12213755
143	0x3d95cad2	0.073140755
144	0xbccf84ab	-0.025331816
145	0xbddde0bf	-0.108338825
146	0xbc21fe08	-0.009887226
147	0x3c8a4f16	0.016883414
148	0xbd55df91	-0.052215163
149	0xbcc9593d	-0.024578685
150	0xbd8b993e	-0.06816338
151	0x3dbc1f90	0.091857076
152	0x3c2a9e22	0.010413678
153	0xbda4201f	-0.08013939
154	0x3d834bbd	0.0641093
155	0xbd920ab2	-0.07130946
156	0x3ddcae49	0.1077543
157	0xbd1e393f	-0.038628813
158	0x3d2dd4ac	0.042439148
159	0xbdac5e86	-0.084164664
160	0x3d2ff46a	0.0429577
161	0xbdcf0758	-0.101088226
162	0x3c9053e8	0.017618135
163	0x3d99ff86	0.0751944
164	0xbd6c4475	-0.057682473
165	0x3c4cb0cd	0.0124933245
166	0x3c75793f	0.014982521
167	0x3d3b92af	0.045794185
168	0x3d7f8f3c	0.06239246
169	0x3df59bff	0.119926445
170	0xbdaba2d2	-0.08380665
171	0xbd41cb0f	-0.047312792
172	0x3d45e37a	0.04831264
173	0xbda9299b	-0.08259889
174	0x3c9283c8	0.017885104
175	0xbd54aab8	-0.051920623
176	0xbdb621f2	-0.08893193
177	0xbdf11d46	-0.117731616
178	0x3d0b5099	0.03401241
179	0x3d976a98	0.07393378
180	0xbdd9bf1c	-0.10632154
181	0x3dd903bb	0.10596415
182	0xbddd0af0	-0.10793102
183	0x3db99535	0.09061662
184	0x3cccbdd5	0.024992863
185	0x3c7d2631	0.015451
186	0x3d810fa9	0.06301815
187	0xbdd0d471	-0.1019677
188	0x3d38bb00	0.045100212
189	0x3d84aca5	0.06478242
190	0xbdd0d481	-0.10196782
191	0x3dcafd5f	0.09911608
192	0xbdfa57a8	-0.1222375
193	0xbc89e966	-0.016834926
194	0x3d8bae2e	0.068203315
195	0x3d668bcd	0.05628567
196	0x3d5fe500	0.05466175
197	0xbdb1e92f	-0.08687054
198	0x3d915066	0.07095413
199	0xbd483098	-0.048874468
200	0x3db13355	0.08652369
201	0x3cf5b69e	0.029994305
202	0xbdc11d8e	-0.09429465
203	0xbd527220	-0.05137837
204	0x3d5c39e0	0.05376613
205	0x3d9c68e0	0.07637191
206	0xbdd1cad2	-0.10243763
207	0x3bea69d9	0.0071537313
208	0xbdb974d4	-0.09055486
209	0xbd9291f6	-0.07156746
210	0x3c8914ac	0.01673349
211	0xbd80f1b7	-0.062961034
212	0xbd7dea8d	-0.061991263
213	0xbc7320cc	-0.014839362
214	0xbda3dd67	-0.080012135
215	0x3c5d2037	0.01349645
216	0x3d4fa428	0.05069366
217	0x3daa2fa8	0.08309871
218	0x3d3442ea	0.044009127
219	0x3de2ec79	0.1108026
220	0xbcade363	-0.02122659
221	0x3d09fc52	0.033687897
222	0x3de5c059	0.11218328
223	0xbcc2680f	-0.02373126
224	0x3daf668d	0.08564482
225	0xbb7341f5	-0.003711817
226	0xbc97d381	-0.01853347
227	0xbdbf5f2c	-0.093443245
228	0x3cf91efb	0.03041028
229	0xbccc2283	-0.0249188
230	0x3d9a08e4	0.07521227
231	0xbce1b496	-0.02755193
232	0x3ce4273b	0.027850738
233	0x3bb2f9ae	0.005461893
234	0xbda37e84	-0.07983115
235	0x3d90c6e4	0.070691854
236	0xbd350256	-0.04419168
237	0xbc97601b	-0.018478444
238	0xbd99b5b3	-0.075053595
239	0xbdd10e22	-0.10207774
240	0x3de01ee6	0.109433934
241	0x3d95705f	0.07296824
242	0x3db87be0	0.09008002
243	0xbdeaba6a	-0.11461337
244	0x3d816f71	0.06320084
245	0x3d713e29	0.05889717
246	0x3ae64d4e	0.0017570646
247	0xbdfd19d1	-0.1235844
248	0x3d523b77	0.05132624
249	0x3d1dda8a	0.038538493
250	0xbdd9f0f0	-0.10641658
251	0x3da30bda	0.07961245
252	0x3d1f40e1	0.038880233
253	0xbd8055cd	-0.06266365
254	0x3d5a6756	0.053321205
255	0xbd3cbef1	-0.046080533

bias f4 [64]
0	0xbd419eb8	-0.047270507
1	0x3dbf452b	0.093393646
2	0x3c62ecaf	0.013850375
3	0x3d54bd75	0.051938493
4	0x3d01d58b	0.03169779
5	0xbdfcadfa	-0.12337871
6	0x3d528a15	0.051401217
7	0x3c9380f9	0.018005835
8	0x3df44cde	0.11928724
9	0x3d177ce2	0.036984332
10	0xbd0ffad0	-0.035151303
11	0xbc4c2e86	-0.012462264
12	0x3a2d10c8	0.0006601927
13	0xbddd7d8f	-0.10814964
14	0xbcbb6cf8	-0.022879109
15	0xbd4c4a9d	-0.049875844
16	0x391996dd	0.00014647418
17	0x3d4dd3b4	0.050250724
18	0x3dc5e800	0.09663391
19	0x3de3a5df	0.11115622
20	0xbdd99b56	-0.10625331
21	0x3dc042b5	0.09387723
22	0x3d0af725	0.0339271
23	0xbdb3c135	-0.08777086
24	0xbd36c881	-0.04462481
25	0x3d985889	0.07438762
26	0xbc7b2c8b	-0.015330444
27	0x3dd00b62	0.10158421
28	0xbddd9095	-0.108185925
29	0xbc9469bc	-0.018116824
30	0xbd606067	-0.054779436
31	0xbd70d6cf	-0.058798607
32	0x3d053bda	0.032527782
33	0xbdbe7f88	-0.093016684
34	0xbd9b9510	-0.07596791
35	0xbddd2a5a	-0.107990935
36	0xbcd7a322	-0.026322905
37	0xbd4da524	-0.05020632
38	0xbdeabb66	-0.11461525
39	0x3de46772	0.11152543
40	0x3db0d559	0.08634443
41	0x3cd20f72	0.02564213
42	0xbd4704ee	-0.048588686
43	0xbd57ebe0	-0.052715182
44	0xbdad36fd	-0.08457754
45	0x3d955e6f	0.072934024
46	0xbc347548	-0.01101429
47	0xbd92bbd2	-0.0716473
48	0x3de15757	0.11002987
49	0x3dc6a65c	0.09699699
50	0xbdf3c2f7	-0.11902421
51	0x3d8e7414	0.06955734
52	0xbdd972d6	-0.10617606
53	0xbc69b08e	-0.014263285
54	0x3c2e4c2b	0.010638277
55	0xbddea8fa	-0.108720735
56	0x3c16f925	0.009214674
57	0x3daee851	0.085404046
58	0x3db06242	0.08612491
59	0xbdd084b7	-0.10181563
60	0xbdae3929	-0.08506996
61	0x3dc7f29a	0.097630695
62	0xbdb4ba3f	-0.08824586
63	0x3dabdf2e	0.083921775

weight f4 [7, 64]
0	0x3df6fe94	0.12060276
1	0x3de0389e	0.10948299
2	0x3dcea53e	0.10090111
3	0x3d903098	0.070405185
4	0xbdebcdcc	-0.11513862
5	0x3de3f100	0.111299515
6	0x3d9b6c83	0.07589056
7	0x3bd9f81f	0.006651893
8	0x3da03b65	0.078238286
9	0x3dc50bd3	0.09621396
10	0xbda46b77	-0.0802831
11	0x3ca3ec79	0.02001022
12	0xbd73eddc	-0.059553012
13	0xbd599861	-0.053123835
14	0xbde42764	-0.11140326
15	0x3d49fd5e	0.049313895
16	0x3dceb3c1	0.10092879
17	0xbd966c78	-0.073449075
18	0xbd00c3a3	-0.031436574
19	0xbd60cb99	-0.054881666
20	0xbc7a57df	-0.015279739
21	0xbddeb44b	-0.10874232
22	0x3b3442ee	0.0027505714
23	0x3ba3bfde	0.0049972376
24	0xbdb9da76	-0.09074871
25	0x3c3145a9	0.010819831
26	0xbcb93008	-0.02260591
27	0xbd7b66b6	-0.06137725
28	0x3c8e7052	0.017387543
29	0x3d60bd06	0.054867767
30	0xbdc57116	-0.0964071
31	0x3d311f6e	0.043242864
32	0x3d60d132	0.054887004
33	0x3d282713	0.04105289
34	0xbd654936	-0.055978023
35	0xbda112ad	-0.0786489
36	0xbdbff750	-0.09373343
37	0xbc2a5cca	-0.010398099
38	0xbd865038	-0.06558269
39	0xbd05bde0	-0.032651782
40	0x3d370eae	0.044691734
41	0xbd8b72e0	-0.0680902
42	0x3d77497c	0.060372815
43	0x3d2a3bf0	0.041561067
44	0xbdac8f77	-0.08425801
45	0xbbe0cf6d	-0.0068606646
46	0x3c19c8da	0.009386266
47	0x3d3c1602	0.045919426
48	0x3dfa4c44	0.12221578
49	0x3db8d831	0.0902561
50	0x3d7c8398	0.061648935
51	0x3c578005	0.013153081
52	0x3d94918e	0.07254325
53	0x3dd3a969	0.10335047
54	0xbd74f6da	-0.05980573
55	0xbd74e226	-0.059785984
56	0x3d6c6390	0.057712138
57	0x3dacd87e	0.0843973
58	0xbd47a126	-0.048737668
59	0xbdcf5efb	-0.10125538
60	0xbd1ba59b	-0.03799973
61	0xbd90f8b8	-0.07078689
62	0xbd430d39	-0.047620032
63	0x3ccf96c8	0.025340453
64	0xbdabf8b8	-0.08397049
65	0xbdef49ca	-0.11683996
66	0xbd175a1f	-0.03695118
67	0xbd305b1e	-0.043055646
68	0xbdb7797d	-0.08958719
69	0xbc042590	-0.008065596
70	0xbdb8fb50	-0.09032309
71	0xbcd1def3	-0.025619006
72	0xbca02b52	-0.019551907
73	0xbd9389b8	-0.07204002
74	0x3dc14d4b	0.094385706
75	0x3dc56b60	0.09639621
76	0xbda703ea	-0.081550434
77	0x3db3259e	0.08747409
78	0xbdf753b1	-0.1207651
79	0x3dace43d	0.084419705
80	0x3d0da9af	0.03458565
81	0xbd128c05	-0.035778064
82	0x3d4bea17	0.049783792
83	0x3dbd4be4	0.092429906
84	0x3dc34f7c	0.09536645
85	0x3d3c1ac1	0.045923952
86	0xbdb644e5	-0.08899859
87	0xbdba38b6	-0.09092848
88	0xbc8a3769	-0.016872125
89	0x3df16f94	0.1178886
90	0xbd89b831	-0.06724585
91	0x3cbd52b7	0.02311073
92	0xbd4bb0e3	-0.04972924
93	0x3db25da1	0.087092645
94	0x3da653a1	0.0812142
95	0x3da2295a	0.079180434
96	0xbcb54e5d	-0.022132093
97	0xbde78f9e	-0.1130669
98	0xbcf3c6c5	-0.029757867
99	0x3dedd90e	0.116136655
100	0xbd809974	-0.06279269
101	0xbd777acb	-0.06041984
102	0x3db3449d	0.08753321
103	0xbdebe94b	-0.115191065
104	0xbc369226	-0.011143243
105	0x3dc92095	0.09820668
106	0xbda77be8	-0.0817793
107	0x3d873b50	0.0660311
108	0x3c0a3b67	0.008437014
109	0x3c800410	0.015626937
110	0xbbaa1689	-0.0051906747
111	0x3ccf9e73	0.02534411
112	0x3d92ede3	0.071742795
113	0x3deafe9e	0.114743456
114	0xbdd91c62	-0.10601117
115	0x3cbb23f2	0.022844288
116	0xbdf39c9d	-0.11895106
117	0xbdf5d25a	-0.12003012
118	0xbddfd904	-0.10930064
119	0xbdb77591	-0.08957971
120	0xbd483caa	-0.04888598
121	0x3db47a09	0.08812339
122	0x3db688f6	0.08912842
123	0x3da0e006	0.07855229
124	0x3ce7c5c1	0.028292539
125	0x3d902f60	0.07040286
126	0x3d428599	0.04749069
127	0x3cb6bcfb	0.02230691
128	0xbdff1268	-0.124546826
129	0x3d957ab9	0.07298798
130	0xbdb4235e	-0.08795808
131	0xbd7a8ce8	-0.061169535
132	0x3d3a4c70	0.045483053
133	0xbac82300	-0.001526922
134	0xbdfb11ed	-0.122592784
135	0xbd7b0fff	-0.061294552
136	0xbdc4dfe0	-0.09613013
137	0x3b16a263	0.0022984974
138	0x3d156f2f	0.036482986
139	0xbd00cfb8	-0.031448096
140	0xbdf6a491	-0.12043107
141	0xbd6bb478	-0.057545155
142	0x3db61c92	0.08892168
143	0xbd0022c2	-0.031283148
144	0x3d5ae52c	0.05344121
145	0x3dab5601	0.08366013
146	0x3db55b1f	0.088552706
147	0x3d732337	0.059359755
148	0x3d3d7000	0.04624939
149	0xbd6e3b06	-0.058161758
150	0x3d874eda	0.066068366
151	0x3d251a50	0.040308297
152	0xbd8dc6e4	-0.06922701
153	0xbda18588	-0.07886797
154	0x3d208290	0.039187014
155	0xbda6946a	-0.081337765
156	0x3dfa4dd6	0.12221877
157	0xbd0852f8	-0.03328225
158	0xbda33b2a	-0.07970269
159	0xbda2e111	-0.07953084
160	0xbd8a75da	-0.0676076
161	0x3c3960aa	0.01131455
162	0x3da98378	0.08277029
163	0xbded2344	-0.11578992
164	0xbdf9b1ec	-0.12192139
165	0x3d190dca	0.037366666
166	0xbd777fc3	-0.060424577
167	0x3dad8f2a	0.08474572
168	0x3d80a643	0.06281712
169	0x3d3621d4	0.044465855
170	0xbdac3cc2	-0.08410026
171	0x3c2ae3c0	0.010430276
172	0x3ddf9c5e	0.109184965
173	0xbde3b5b9	-0.11118645
174	0xbd89bd3a	-0.06725545
175	0xbda96b42	-0.08272411
176	0xbc890527	-0.01672609
177	0xbdf15275	-0.117833056
178	0x3c6ce610	0.014459148
179	0xbd4395cf	-0.04775029
180	0x3d88c5d0	0.06678355
181	0xbd836f00	-0.06417656
182	0xbd3621a0	-0.04446566
183	0xbda75826	-0.0817111
184	0xbdfe12f7	-0.12405961
185	0xbdeffbf4	-0.11717978
186	0x3c746423	0.014916453
187	0x3d6e02bc	0.058108076
188	0xbdbb60c8	-0.09149319
189	0x3d9ac3e2	0.07556893
190	0x3cf80c60	0.030279338
191	0x3de49713	0.111616276
192	0x3dc65203	0.09683611
193	0xbd266e8a	-0.040632762
194	0xbdb08f03	-0.08621027
195	0xbd838e41	-0.06423617
196	0x3d82b4ce	0.06382142
197	0x3db115a0	0.08646703
198	0x3dad2b1b	0.08455487
199	0xbd285bdf	-0.04110324
200	0x3db6f666	0.089337155
201	0x3cb37d67	0.021910382
202	0x3de3bbee	0.11119829
203	0xbdbf7bec	-0.09349808
204	0xbc11c517	-0.008897088
205	0x3d18be14	0.037290648
206	0xbdc6670e	-0.09687625
207	0xbdf36e47	-0.11886268
208	0xbcc77e8c	-0.024352334
209	0x3d168caa	0.03675524
210	0x3d8fa218	0.07013339
211	0xbc6418c7	-0.013921923
212	0xbda4a7c8	-0.08039814
213	0xbdc9c3e1	-0.09851814
214	0xbdfcf7e4	-0.12351969
215	0x3da10852	0.07862915
216	0x3d572db5	0.052533824
217	0xbdc5022f	-0.09619557
218	0xbd13f8c4	-0.036125913
219	0x3d3e30ac	0.046433136
220	0x3db1bc4f	0.08678495
221	0xbdf41eff	-0.119199745
222	0xbd28ca9f	-0.04120886
223	0xbcc1c3a4	-0.023652859
224	0x3cfdcd79	0.030981766
225	0xbd31946a	-0.04335443
226	0xbcc910d9	-0.024544166
227	0x3d1d7fde	0.03845202
228	0xbda3664d	-0.07978497
229	0xbd4d7cb6	-0.05016776
230	0xbdb5e518	-0.08881587
231	0xbccfa213	-0.025345838
232	0x3d866b06	0.06563382
233	0x3cd28981	0.025700333
234	0x3ce5f447	0.028070582
235	0xbdcb0f50	-0.0991503
236	0xbdbb0cd5	-0.09133307
237	0x3dff4cfc	0.124658555
238	0x3debae56	0.11507861
239	0x3ba62ea7	0.0050714794
240	0x3dfc63d9	0.12323732
241	0x3d0a04e7	0.03369608
242	0xbdb9b88a	-0.09068401
243	0xbdb49d1d	-0.088190295
244	0x3cd3f06f	0.025871484
245	0xbd368a1a	-0.044565298
246	0x3d1d267a	0.038366772
247	0xbbb9fc72	-0.005675846
248	0x3c4388ba	0.011934454
249	0x3cf23a1c	0.029568724
250	0x3dfd5f23	0.123716615
251	0x3c752391	0.014962093
252	0xbdaffa32	-0.08592643
253	0x3da20d5d	0.07912705
254	0x3d11ca75	0.03559347
255	0x3d153be6	0.036434077

bias f4 [7]
0	0xbd2303c2	-0.039798506
1	0x3dc595a0	0.09647679
2	0xbd43afe4	-0.047775164
3	0xbddcc649	-0.107800074
4	0xbcd0b36f	-0.025476186
5	0xbd00cf07	-0.031447437
6	0x3dc2b2e1	0.09506775

weight f4 [7, 7]
0	0xbeb355ed	-0.35026494
1	0xbe29d6d9	-0.16585864
2	0xbe10050a	-0.14064422
3	0x3ea277eb	0.31732115
4	0x3d819b9c	0.06328508
5	0xbdba03f0	-0.09082782
6	0x3eb11abd	0.34590712
7	0xbd4681d8	-0.048463672
8	0xbe1d4a51	-0.1536038
9	0x3e127412	0.1430209
10	0xbe171c61	-0.1475692
11	0xbc4ebc80	-0.012618184
12	0x3d7d98a8	0.061913162
13	0xbdd3f278	-0.103489816
14	0x3e9a15ed	0.30094853
15	0x3df1d5a4	0.11808327
16	0xbda16200	-0.0788002
17	0xbbbc6000	-0.005748749
18	0xbe3322aa	-0.17493692
19	0xbdd44c4c	-0.10366115
20	0xbeb1dd98	-0.34739375
21	0x3d8609e4	0.06544855
22	0xbdee3cd6	-0.11632697
23	0xbdb7c29c	-0.08972666
24	0xbe611a96	-0.21982798
25	0x3da31f71	0.07964981
26	0xbe63199d	-0.2217774
27	0xbe88c90b	-0.26715884
28	0xbd2ac1a0	-0.04168856
29	0x3acd0900	0.0015642941
30	0xbc68aae0	-0.014200896
31	0xbd9becec	-0.07613549
32	0x3e0b7fae	0.13622925
33	0x3e6acd82	0.22929958
34	0x3d852094	0.065003544
35	0xbe5e0a3b	-0.2168359
36	0x3ea1a2e7	0.31569597
37	0x3e6bdca6	0.2303339
38	0xbe865c70	-0.262424
39	0x3eac04e1	0.33597472
40	0xbe058bf0	-0.13041663
41	0xbde977b4	-0.11399785
42	0xbd8953a2	-0.06705405
43	0x3d186b42	0.037211664
44	0x3deb0cc4	0.11477044
45	0x3e25bc46	0.16185102
46	0x3d8a3878	0.06749052
47	0x3eb36c32	0.35043484
48	0x3e8a7a0f	0.27046248

bias f4 [7]
0	0xbea4985d	-0.32147494
1	0xbeaf28d9	-0.34210852
2	0xbea99f22	-0.3312922
3	0x3ec0cd70	0.37656736
4	0xbdd97cd4	-0.10619512
5	0xbde5d114	-0.11221519
6	0x3ebe3800	0.371521

weight f4 [64, 42]
0	0x3dda9c31	0.106743224
1	0xbdab0785	-0.083510436
2	0xbde5e6fa	-0.11225696
3	0x3cf24174	0.029572226
4	0xbdcebd83	-0.1009474
5	0xbe066695	-0.1312507
6	0xbdc806bb	-0.09766909
7	0xbe0c28ee	-0.13687488
8	0x3d40a412	0.04703147
9	0xbd89f100	-0.0673542
10	0xbd9679ee	-0.07347475
11	0x3d037f1e	0.03210365
12	0x3ceeb495	0.029138843
13	0xbd6573b8	-0.05601856
14	0xbdcb5609	-0.09928519
15	0xbdd6404b	-0.10461482
16	0xb8cc0a90	-9.7294454e-05
17	0x3c310797	0.010805032
18	0x3d95ad0b	0.07308396
19	0xbe19e073	-0.15027027
20	0x3da9fc2c	0.08300051
21	0x3c912adb	0.01772063
22	0x3d57fd98	0.05273208
23	0x3dbcb77e	0.09214686
24	0xbe04bd18	-0.12962759
25	0xbe03d38b	-0.12873666
26	0xbd827105	-0.06369213
27	0xbcf2351a	-0.029566336
28	0xbe0b9637	-0.13631521
29	0x3d89fc27	0.06737547
30	0xbb9d8331	-0.004806899
31	0x3deae2a3	0.11469009
32	0x3dbe2fbb	0.092864476
33	0xbe09d1a1	-0.13458873
34	0xbe155091	-0.14581515
35	0x3d2a4751	0.04157192
36	0xbdd4ce0a	-0.10390861
37	0x3db04c91	0.08608354
38	0x3ceecc5e	0.029150184
39	0xbd00c031	-0.031433288
40	0xbdc007dc	-0.09376499
41	0x3e068199	0.13135375
42	0xbdf3f09f	-0.11911129
43	0xbd878839	-0.06617779
44	0xbdd3345a	-0.1031272
45	0x3cd9a1f6	0.026566487
46	0xbcdce62d	-0.026965225
47	0x3e0d8694	0.13820869
48	0x3d3269e7	0.043558028
49	0xbe1265ee	-0.14296696
50	0x3d84bc06	0.06481175
51	0xbcfe3376	-0.031030398
52	0x3da8deee	0.082456455
53	0xbd84fa8b	-0.064931
54	0xbd2991a5	-0.041398663
55	0xbd8a7b4e	-0.067618
56	0xbdbb9e23	-0.091610216
57	0xbe1435e5	-0.14473684
58	0x3db2eac6	0.08736186
59	0x3e0b79cd	0.13620682
60	0xbd51fcad	-0.05126636
61	0x3e183b6a	0.14866415
62	0x3de5373e	0.11192177
63	0x3e0557b0	0.13021731
64	0x3da4ee28	0.08053237
65	0x3e18b9da	0.14914647
66	0x3df9dd55	0.12200419
67	0x3d172122	0.036896832
68	0xbdb9a287	-0.09064203
69	0x3da08b96	0.07839124
70	0xbdbd52c4	-0.09244302
71	0x3da2f73e	0.07957314
72	0x3e0f9057	0.14019905
73	0xbd46a3be	-0.048496
74	0x3bfbbdd7	0.007682543
75	0xbbc58ee8	-0.0060289986
76	0xbd51b934	-0.051202014
77	0xbd97c9c0	-0.07411528
78	0x3d1349b5	0.035958964
79	0xbc9c2043	-0.019058352
80	0xbc4c7be2	-0.012480708
81	0x3d8edfbc	0.06976268
82	0xbd2c78b4	-0.0421073
83	0x3dc6787f	0.096909516
84	0xbd9ea701	-0.07746697
85	0x3e0f1fbe	0.13976952
86	0x3ccf2b73	0.025289273
87	0xbd484832	-0.048896976
88	0xbdbaaacb	-0.091146074
89	0x3cff81b5	0.031189779
90	0x3e10f6db	0.14156668
91	0xbdba4c90	-0.090966344
92	0xbd9cce7a	-0.0765657
93	0xbd68505e	-0.05671727
94	0xbe1b3fdd	-0.1516108
95	0xbe0ca95c	-0.1373648
96	0xbd9e6a65	-0.07735137
97	0x3c65ab3f	0.014017879
98	0xbceed56a	-0.029154498
99	0xbd24ba01	-0.04021645
100	0x3d6150f8	0.05500886
101	0x3d182e26	0.037153386
102	0xbd975127	-0.073885255
103	0x3da49d50	0.080378175
104	0x3dc51035	0.09622232
105	0xbd6a6c9e	-0.05723249
106	0xbe10dd6c	-0.14146966
107	0xbc70606e	-0.014671428
108	0xbdd6de0b	-0.1049157
109	0x3d78d1b6	0.06074687
110	0xbd2dddb9	-0.04244778
111	0xbe113542	-0.14180472
112	0xbd8da2b5	-0.069157995
113	0xbd78591c	-0.060631856
114	0x3d90deb7	0.070737295
115	0x3cfa343f	0.030542491
116	0x3e192194	0.14954215
117	0xbdf6b411	-0.12046064
118	0x3d98aa38	0.07454342
119	0xbdc7771b	-0.097395144
120	0xbc9bc6c3	-0.019015675
121	0xbd72b569	-0.059255037
122	0xbcf3b091	-0.02974728
123	0x3ce075a8	0.027399853
124	0x3d381251	0.044939343
125	0xbdbb4ae4	-0.09145144
126	0xbd9688e8	-0.073503315
127	0xbe091454	-0.13386661
128	0x3dfc3c28	0.123161614
129	0xbe13e590	-0.1444304
130	0x3e169102	0.14703754
131	0xbcaf4679	-0.021395909
132	0xbe099316	-0.13435015
133	0xbd8f794a	-0.07005556
134	0xbd9d01ae	-0.07666336
135	0x3c1c6e3b	0.009547765
136	0xbe1bca85	-0.15213974
137	0x3e0f8694	0.14016181
138	0xbd9b8246	-0.07593207
139	0x3d9763eb	0.07392105
140	0xbc9535c1	-0.018214108
141	0x3e03212d	0.12805624
142	0x3dcd2a48	0.1001783
143	0x3cdc406b	0.026886186
144	0x3d8531d4	0.065036446
145	0x3e0e3ad3	0.13889627
146	0x3e009efa	0.12560645
147	0x3ce4b1ce	0.027916815
148	0xbd7e2dce	-0.0620554
149	0xbdde9421	-0.10868097
150	0xbe07f099	-0.13275374
151	0x3dedd5f5	0.11613075
152	0xbd9ff24c	-0.07809886
153	0x3e130eef	0.14361165
154	0x3d9ab03d	0.07553146
155	0xbcf5a7e7	-0.029987289
156	0x3e0d4667	0.13796388
157	0xbe00be37	-0.12572561
158	0xbddad1d8	-0.10684556
159	0xbe08da63	-0.13364558
160	0xbd7c3709	-0.061575923
161	0x3e0b2fd0	0.13592458
162	0x3e056969	0.13028492
163	0x3db6e3df	0.08930182
164	0x3d420458	0.047367424
165	0xbac4c036	-0.0015010897
166	0x3cb46641	0.022021415
167	0xbce42965	-0.02785177
168	0xbd13de14	-0.036100462
169	0x3c84b616	0.016200107
170	0xbd4da6c4	-0.05020787
171	0x3ddb61fb	0.10712048
172	0x3d7784c0	0.060429335
173	0xbd713531	-0.058888618
174	0xbd4906b4	-0.04907866
175	0xbd853b33	-0.06505432
176	0xbde71da7	-0.112849526
177	0x3e15e64e	0.14638636
178	0x3da6f16a	0.08151515
179	0xbcfa668d	-0.030566478
180	0x3de97913	0.11400046
181	0x3d81845f	0.06324076
182	0x3b0bcf02	0.0021333103
183	0xbe11e8b5	-0.14248927
184	0xbdde46ee	-0.108533725
185	0x3d5a5c9e	0.053310983
186	0x3ca11c8d	0.019666934
187	0xbe0375bf	-0.12837885
188	0xbd9ace6a	-0.075589016
189	0xbd9bd32d	-0.07608638
190	0x3db19cc1	0.086724766
191	0xbdfce343	-0.12348034
192	0xbd74fb9a	-0.05981026
193	0x3d043019	0.032272432
194	0x3da9812d	0.082765914
195	0x3d41d379	0.047320817
196	0x3e1ae75b	0.15127318
197	0x3d933bf4	0.071891695
198	0xbe1ba954	-0.15201312
199	0xbd4813fa	-0.048847176
200	0x3dea7aee	0.11449228
201	0xbd8e1b26	-0.06938772
202	0x3dc5e8d0	0.09663546
203	0x3d98e1fe	0.074649796
204	0x3cb4b1d4	0.022057451
205	0xbdc93d3a	-0.09826131
206	0xbd65bd53	-0.056088757
207	0xbdcf105a	-0.10110541
208	0x3db952aa	0.0904897
209	0xbcb5e547	-0.022204055
210	0x3c9825d0	0.018572718
211	0x3c0f0240	0.008728564
212	0x3d195ad7	0.037440147
213	0x3e0472bf	0.12934397
214	0x3d4bb980	0.049737453
215	0x3d58e1fb	0.052949887
216	0x3e0398ce	0.12851259
217	0xbd505801	-0.050865177
218	0xbc62a5ef	-0.013833507
219	0x3d64dd8e	0.055875354
220	0x3dca35a3	0.09873512
221	0x3e162600	0.14662933
222	0xbd5d4d64	-0.054028884
223	0xbde2ed7e	-0.11080454
224	0xbe150272	-0.14551714
225	0xbe07e0f9	-0.13269414
226	0x3daf5228	0.08560592
227	0xbdaf10b9	-0.085481115
228	0xbbf4c8cf	-0.0074702273
229	0xbdb9989a	-0.090623096
230	0xbdd0a3ac	-0.10187468
231	0xbd5fa6cc	-0.05460243
232	0xbe0735ed	-0.13204165
233	0xbdc19e2a	-0.094539955
234	0xbde3a56a	-0.111155346
235	0xbd175112	-0.03694255
236	0xbd48f198	-0.049058527
237	0x3d1a8be9	0.037731085
238	0x3c96569c	0.018351845
239	0xbd23f7a9	-0.04003111
240	0xbd88577d	-0.06657312
241	0xbcd3a1cc	-0.025833987
242	0x3d45f376	0.048327886
243	0x3e188e39	0.14898004
244	0x3d898ff1	0.06716908
245	0x3d7065ef	0.05869096
246	0x3d41b9d9	0.04729638
247	0x3dca1da0	0.09868932
248	0xbd90a634	-0.07062951
249	0xbcd51dba	-0.026015151
250	0x3e0650cc	0.13116759
251	0xbd384394	-0.044986323
252	0x3b5b49b1	0.0033460672
253	0xbdfabcc0	-0.122430325
254	0x3db7f5f9	0.089824624
255	0x3e08a569	0.13344349

bias f4 [64]
0	0xbe09df6b	-0.13464133
1	0x3dd722b6	0.105046675
2	0xbcacf527	-0.021112991
3	0x3daca8f5	0.084306635
4	0xbda8ae94	-0.08236423
5	0x3e10fe74	0.14159566
6	0xbc174a1b	-0.009233977
7	0x3be5622b	0.007000228
8	0x3c32499e	0.0108818095
9	0x3d13ed7e	0.036115162
10	0x3d621228	0.055193096
11	0x3c8cd31d	0.01719051
12	0xbd93c3de	-0.07215093
13	0x3d56a239	0.0524008
14	0xbcca958a	-0.024729509
15	0x3daca9ec	0.084308475
16	0xbd884a3e	-0.066547856
17	0xbd8627bd	-0.06550548
18	0xbd08517b	-0.03328083
19	0x3dfc3360	0.123144865
20	0x3d3c82c9	0.046023164
21	0xbc4bc664	-0.012437437
22	0xbe128890	-0.14309907
23	0x3ddcca0f	0.10780727
24	0x3e0f384c	0.1398632
25	0xbe183749	-0.1486484
26	0x3d06497f	0.032784935
27	0x3d6faedb	0.058516365
28	0xbe1d5b49	-0.15366854
29	0x3d830018	0.06396502
30	0xbd966210	-0.07342923
31	0xbd819339	-0.063269086
32	0xbbd24039	-0.0064163473
33	0x3e1add26	0.15123424
34	0xbda0ad91	-0.07845605
35	0xbb8ebf87	-0.004356328
36	0x3d4a3154	0.04936345
37	0xbe1c402c	-0.15258855
38	0x3e0684ab	0.13136546
39	0x3e14d95f	0.14536045
40	0x3da83f79	0.082152314
41	0xbdba4cbd	-0.09096668
42	0x3d74d361	0.0597719
43	0xbd8363fb	-0.06415554
44	0xbddbe00d	-0.10736094
45	0x3e0198b2	0.12655905
46	0xbe1d9516	-0.15388903
47	0xbe1b97a0	-0.15194559
48	0xbd7e287f	-0.06205034
49	0xbd5ba1e3	-0.053621184
50	0x3c3bece2	0.0114700515
51	0xbddb871a	-0.10719128
52	0x3e14e80e	0.14541647
53	0xbde34651	-0.11097396
54	0x3c9ceb11	0.019155057
55	0xbd452211	-0.04812819
56	0xbd83caf5	-0.06435195
57	0xbda938f4	-0.08262816
58	0xbd430445	-0.047611494
59	0xbd551e52	-0.05203087
60	0xbd953946	-0.07286315
61	0xbca64839	-0.02029811
62	0x3df9b8ac	0.121934265
63	0x3dc28833	0.09498634

weight f4 [64, 64]
0	0x3dffdb6e	0.12493025
1	0xbd682e75	-0.05668493
2	0xbd311bde	-0.043239467
3	0xbd9f1d00	-0.07769203
4	0xbbc58ebd	-0.0060289786
5	0x3cffae3e	0.031211015
6	0x3dea7eae	0.114499435
7	0xbd3ec83e	-0.046577685
8	0xbd080bbf	-0.033214327
9	0x3d1cf302	0.038317688
10	0xbd148098	-0.03625545
11	0x3d30a9cd	0.043130685
12	0xbca2bf84	-0.019866712
13	0xbdf24aab	-0.11830648
14	0xbabdbb4c	-0.0014475374
15	0x3df2935b	0.11844512
16	0xbd56a5b3	-0.052404117
17	0xbda60fa4	-0.08108452
18	0x3de3787c	0.11106965
19	0x3db044d3	0.08606877
20	0xbd69061b	-0.05689059
21	0x3d9d85c6	0.07691531
22	0xbd1b250b	-0.037877124
23	0xbbf7858a	-0.007553761
24	0xbaa782e9	-0.0012780103
25	0xbd86e38e	-0.06586371
26	0x3de96d0f	0.113977544
27	0x3db92008	0.090393126
28	0xbd8c7e86	-0.0686007
29	0x3c0e5187	0.00868643
30	0x3dd42820	0.10359216
31	0x3db10ffa	0.086456254
32	0xbdb2ab9f	-0.087241404
33	0x3ddec6f9	0.10877795
34	0x3d2f225c	0.042757377
35	0xbdbf11fd	-0.09329603
36	0x3d0071ff	0.031358715
37	0x3d5b8b39	0.05359957
38	0x3d6da19f	0.058015462
39	0xbde6e561	-0.11274219
40	0xbce891a2	-0.028389756
41	0xbb6c1d69	-0.0036028272
42	0x3da10113	0.07861533
43	0x3d3456fe	0.044028275
44	0xbde424cb	-0.1113983
45	0xbdff5496	-0.12467305
46	0x3d9de8d4	0.07710424
47	0x3d4ffef0	0.050780237
48	0x3db2ecc5	0.087365665
49	0xbc5f98d2	-0.013647275
50	0x3d9bdbf8	0.07610315
51	0xbdb910bb	-0.09036394
52	0xbc1946d9	-0.00935527
53	0x3ba4e28e	0.0050318902
54	0x3de2e465	0.11078719
55	0xbd8bc5c5	-0.06824831
56	0x3c30b5f9	0.010785573
57	0x3d2521e5	0.040315527
58	0x3c863c0c	0.016386054
59	0xbd8a01fe	-0.06738661
60	0xbc25de73	-0.010123837
61	0xbda9db01	-0.08293725
62	0xbdc2751a	-0.094949916
63	0x3da478b9	0.080308385
64	0x3dac9f5f	0.08428835
65	0xbc5324f5	-0.012887229
66	0x3dd066c2	0.101758495
67	0x3d408fcc	0.047012135
68	0xbd11ae8f	-0.035566863
69	0x3c35d122	0.011097224
70	0xbb7197f5	-0.0036864255
71	0xbbc8e40d	-0.0061307014
72	0xbdd9421c	-0.106083125
73	0x3d6fd710	0.05855471
74	0x3df12927	0.11775427
75	0x3d9d3a12	0.07677092
76	0xbd58fabe	-0.0529735
77	0xbdff6ccf	-0.124719255
78	0xbcc01db4	-0.023451664
79	0x3d9be0c3	0.07611229
80	0x3de4800d	0.11157236
81	0x3dcf7570	0.10129821
82	0x3d246e5f	0.04014432
83	0x3c512ed5	0.012767513
84	0xbd8f5270	-0.069981456
85	0xbdb5ef05	-0.0888348
86	0xbd206509	-0.039158855
87	0xbdf4557a	-0.11930366
88	0xbda0e2a0	-0.07855725
89	0x3da4c27e	0.08044909
90	0x3d6144e9	0.05499736
91	0x3cef1586	0.029185068
92	0xbd4779fb	-0.048700314
93	0xbb56db3a	-0.0032784478
94	0xbdc1fe49	-0.09472329
95	0x3d20bdf5	0.039243657
96	0x3d8338f1	0.06407345
97	0x3dbc9b0b	0.092092596
98	0xbd098afd	-0.033579815
99	0x3d9206ed	0.07130227
100	0x3dbd0b07	0.09230619
101	0xbdaa384a	-0.083115175
102	0xbdb2b0b5	-0.087251104
103	0x3c0a4049	0.008438178
104	0x3d463564	0.04839076
105	0x3d06fc9e	0.03295576
106	0x3d45d8ce	0.048302464
107	0xbdac185c	-0.08403084
108	0x3cfd2a0c	0.030903839
109	0x3ddf70b9	0.10910172
110	0xbc9ffd4d	-0.019529963
111	0xbd63c5b8	-0.05560848
112	0xbd91341c	-0.07090017
113	0x3ca51cf8	0.020155415
114	0xbd812f06	-0.06307797
115	0xbd9b3e03	-0.07580187
116	0xbd458375	-0.04822107
117	0xbd93a4dc	-0.07209179
118	0x3ce68722	0.028140608
119	0x3da20877	0.07911771
120	0x3dabd55c	0.083903044
121	0x3bb85b88	0.0056261458
122	0xbdd43936	-0.103624746
123	0xbdef5438	-0.11685985
124	0x3cf572a9	0.0299619
125	0x3dca929f	0.09891247
126	0xbd180a60	-0.03711927
127	0x3d36fde2	0.044675715
128	0xbddc9da8	-0.10772258
129	0x3dcfa596	0.10139005
130	0xbc60c1fe	-0.013718126
131	0x3d78c462	0.06073416
132	0xbcfc1d00	-0.030775547
133	0x3c377731	0.011197851
134	0x3d40439e	0.046939485
135	0x3deda193	0.116030835
136	0x3df9ecd8	0.122033775
137	0x3dca52db	0.09879085
138	0xbd346fdf	-0.044052
139	0xbd047780	-0.032340527
140	0xbde18fbc	-0.11013743
141	0xbc69a1ca	-0.014259765
142	0xbdd9d1d1	-0.106357224
143	0x3ba671d5	0.005079488
144	0x3d9974f8	0.07493013
145	0xbd61201d	-0.054962266
146	0x3dba1197	0.09085386
147	0x3dd2b0db	0.10287639
148	0xbde720bc	-0.112855405
149	0x3deba990	0.11506951
150	0xbdeff9ea	-0.11717589
151	0x3dbdd5dd	0.09269307
152	0xbddada41	-0.1068616
153	0xbd86e788	-0.0658713
154	0xbdcc2ca5	-0.09969453
155	0xbd7c1264	-0.061540976
156	0xbcf0c803	-0.029392248
157	0xbdbfb005	-0.09359745
158	0xbdcd9ee0	-0.100400686
159	0xbbef533a	-0.0073036226
160	0x3dc3b18e	0.0955535
161	0xbd92ee57	-0.07174366
162	0x3df211b6	0.11819784
163	0x3dd615d2	0.10453381
164	0x3d2193d8	0.039447635
165	0xbcb59601	-0.022166254
166	0xbcd4439b	-0.025911143
167	0x3c0f4589	0.008744606
168	0xbd9279a8	-0.0715211
169	0xbd63d0ec	-0.055619165
170	0x3de67600	0.112529755
171	0xbcd498f1	-0.025951834
172	0xbb9cf539	-0.004789975
173	0x3c75773f	0.014982044
174	0xbcd4d696	-0.025981229
175	0xbd017cdd	-0.03161322
176	0xbdced7c2	-0.10099746
177	0xbd194f54	-0.03742917
178	0x3df934c4	0.12168267
179	0xbde3649f	-0.11103176
180	0x3d2eb65a	0.042654373
181	0xbdf6439d	-0.12024615
182	0xbdb7f539	-0.089823194
183	0xbc93ec2e	-0.018056955
184	0xbcc1edae	-0.023672905
185	0x3dc21831	0.094772704
186	0xbc61bb55	-0.013777574
187	0xbc9a8aad	-0.018864954
188	0xbd34d407	-0.044147518
189	0x3db27aa1	0.08714796
190	0xbdd677d9	-0.10472078
191	0x3d95b8fb	0.07310673
192	0xbd8cc2e2	-0.068731084
193	0xbd984e52	-0.074368134
194	0x3d0e2313	0.034701418
195	0xbdeaf3be	-0.114722714
196	0xbdc3d41c	-0.09561941
197	0xbdeb4e4b	-0.114895426
198	0x3ccc5f35	0.024947742
199	0x3dc0b3f5	0.09409324
200	0xbde8c08c	-0.113648504
201	0x3d9ed90d	0.07756243
202	0x3df4b67b	0.11948868
203	0xbc925eea	-0.017867524
204	0xbd49ed6d	-0.049298692
205	0xbc55703d	-0.013027248
206	0x3dd7d3f0	0.10538471
207	0xbd342dba	-0.04398892
208	0x3c725f2c	0.014793199
209	0xbc7d39ae	-0.015455646
210	0xbdcc5254	-0.0997664
211	0xbcab9c3c	-0.020948522
212	0x3d848bcf	0.06471979
213	0x3d875733	0.06608429
214	0x3df99883	0.121872924
215	0x3deb7b6c	0.1149815
216	0x3a583e2c	0.00082490104
217	0x3dc13d50	0.094355226
218	0xbd82d409	-0.06388099
219	0xbce9cb6f	-0.028539388
220	0x3d841f9a	0.0645134
221	0x3d9e6c61	0.077355154
222	0x3d64c9c7	0.055856492
223	0x3d055610	0.03255278
224	0x3cdf07e6	0.027225446
225	0x3d3dc157	0.04632696
226	0xbdf0a6ac	-0.1175054
227	0xbd8e9ce7	-0.069635205
228	0xbca92204	-0.020646103
229	0x3c448b3a	0.011996085
230	0x3dc924aa	0.09821446
231	0x3d9100f7	0.07080262
232	0x3d64d774	0.055869535
233	0x3c9de33e	0.019273397
234	0x3c88462a	0.01663502
235	0x3d1a1f2b	0.03762738
236	0xbdc03ea9	-0.093869515
237	0xbdbeb10d	-0.093111135
238	0xbc0bcbe3	-0.008532497
239	0x3d4c2235	0.04983731
240	0x3ddc1c6c	0.107476085
241	0x3d9814fe	0.07425879
242	0x3d9fba2f	0.077991836
243	0x3dff003e	0.12451218
244	0x3daadf38	0.08343357
245	0xbdb19616	-0.08671205
246	0xbbffea7d	-0.0078099356
247	0xbd964c69	-0.07338793
248	0xbcf389e7	-0.029728843
249	0x3c986411	0.018602403
250	0xbd6a6007	-0.057220485
251	0x3defd07a	0.117096856
252	0xbd9e85d6	-0.07740371
253	0xbcaaa088	-0.0208285
254	0xbdb6d0e5	-0.08926562
255	0xbdc15ec0	-0.094419

bias f4 [64]
0	0xbdb65a46	-0.08903937
1	0xbdce9bb1	-0.100882895
2	0xbddc298d	-0.10750113
3	0xbd6b14f7	-0.05739304
4	0x3cc295c7	0.02375306
5	0xbd6827a5	-0.056678433
6	0x3da095db	0.07841083
7	0x3c82b3db	0.015954902
8	0xbd8e081e	-0.06935142
9	0x3d90745f	0.07053446
10	0x3dbc87ba	0.09205575
11	0x3bf1aa41	0.007375032
12	0xbcfbdf67	-0.030746175
13	0x3d82cb3e	0.063864216
14	0xbcb8a17d	-0.022537941
15	0x3cc3463c	0.023837201
16	0x3d13769d	0.03600179
17	0x3d88c139	0.06677479
18	0xbd2151a6	-0.039384507
19	0xbd9f6dfa	-0.07784648
20	0x3d8c1e5a	0.068417266
21	0xbd2eda92	-0.042688914
22	0xbdfe8dc4	-0.124293834
23	0x3dff2239	0.12457699
24	0x3dbdb4e1	0.092630155
25	0xbd4ae8d7	-0.04953846
26	0xbba9e2c2	-0.0051845023
27	0x3dc35631	0.09537924
28	0x3d9371a4	0.071994096
29	0xbcd6412d	-0.026154125
30	0xbd8fb932	-0.07017745
31	0x3de77916	0.11302392
32	0x3c776ee4	0.015102122
33	0xbdcb9b44	-0.09941724
34	0x3d6e0ac6	0.058115743
35	0x3d9ed920	0.07756257
36	0xbdf99146	-0.12185912
37	0x3df410bb	0.119172536
38	0x3b6757e8	0.00353002
39	0x3dce61ca	0.100772455
40	0xbda95b3b	-0.08269354
41	0x3de2bc80	0.1107111
42	0x3dec7c93	0.11547198
43	0x3c369d5b	0.011145915
44	0x3d1568c7	0.036476877
45	0x3ddc4ece	0.10757218
46	0x3da001cd	0.078128435
47	0x3d7445cc	0.059636876
48	0xbd7ef8a0	-0.062248826
49	0x3d82fc54	0.06395784
50	0x3d93a649	0.07209451
51	0x3daf2f1a	0.08553906
52	0xbd3a4566	-0.04547634
53	0x3da6cca0	0.08144498
54	0xbd4017a8	-0.04689756
55	0x3d4c0e12	0.049818106
56	0xbca903e1	-0.020631732
57	0x3d11f3f5	0.035633046
58	0xbd8a265c	-0.06745598
59	0xbd97bb6a	-0.07408793
60	0x3d92b755	0.07163874
61	0xbd7b6b0f	-0.061381396
62	0xbc6e4b0f	-0.014544263
63	0x3dea8aa5	0.114522256

weight f4 [7, 64]
0	0xbdfb0237	-0.12256282
1	0x3dfe3b13	0.12413611
2	0x3dfd28a6	0.12361269
3	0xbdd2a93b	-0.102861844
4	0xbdf3eb79	-0.11910147
5	0x3d9abba3	0.0755532
6	0x3de1c531	0.110239394
7	0x3dcc0b25	0.09963063
8	0x3ddff0dd	0.10934613
9	0x3df3fd0b	0.119134985
10	0xbcd00179	-0.025391327
11	0x3c478746	0.012178248
12	0xbd84a1bb	-0.0647616
13	0xbda49f9c	-0.080382556
14	0xbddc9b3a	-0.107717946
15	0xbd4103f3	-0.047122907
16	0x3def81f2	0.11694707
17	0xbd7c7b7c	-0.0616412
18	0x3de7a9c9	0.11311681
19	0x3dfaedf0	0.12252414
20	0xbd1b0623	-0.03784765
21	0x3de703a3	0.112799905
22	0xbda6c09a	-0.081422046
23	0xbddfc596	-0.109263584
24	0x3d2352ba	0.039873816
25	0xbd6b50f3	-0.057450246
26	0xbd5cab01	-0.05387402
27	0x3cacf00b	0.021110555
28	0xbdd729c1	-0.10506011
29	0x3d21d06e	0.039505415
30	0x3d859f18	0.06524485
31	0x3dcd774c	0.1003252
32	0xbd994ac5	-0.07484964
33	0xbd8c9110	-0.06863606
34	0xbdfb2732	-0.12263335
35	0xbb7c1c09	-0.0038468859
36	0xbd1759d6	-0.03695091
37	0x3df274a7	0.11838656
38	0x3bdddc85	0.0067706727
39	0xbd616d4b	-0.05503587
40	0x3d71d60b	0.059042018
41	0x3d755e77	0.05990454
42	0xbb88527a	-0.0041602226
43	0xbdb96a41	-0.090534694
44	0x3dc910b2	0.098176375
45	0xbd7fb5ff	-0.062429424
46	0x3d608d1c	0.054822072
47	0x3dc3be78	0.095578134
48	0xbd7df80c	-0.062004134
49	0xbb4311bb	-0.0029765207
50	0x3d820ba9	0.0634988
51	0x3b141f41	0.0022601637
52	0x3caf4a94	0.021397866
53	0x3d448cbf	0.04798579
54	0x3cfb0bb9	0.030645238
55	0x3de59943	0.11210873
56	0x3d28c366	0.04120197
57	0x3b22ed86	0.0024860813
58	0xbb444652	-0.002994914
59	0xbd48812e	-0.04895132
60	0x3d88276b	0.066481434
61	0x3d37766e	0.044790678
62	0x3dba6643	0.09101536
63	0x3de8ce03	0.113674186
64	0x3cdeae0a	0.027182598
65	0x3d5b6bb3	0.053569507
66	0xbd772fa9	-0.060348187
67	0x3deba96e	0.115069255
68	0x3d1d1da4	0.038358346
69	0x3d5f8ee7	0.05457964
70	0xbd243fcd	-0.040099908
71	0xbcaaf39d	-0.020868117
72	0xbd2ae970	-0.04172653
73	0xbdcf6eec	-0.101285785
74	0xbbbfbea9	-0.005851586
75	0x3d5eb670	0.054373205
76	0x3cff1ec0	0.031142592
77	0x3dd9d450	0.106361985
78	0xbda0df66	-0.0785511
79	0xbc66239e	-0.014046578
80	0xbdd9ab00	-0.10628319
81	0xbd57992b	-0.052636307
82	0x3d2ca1bc	0.04214643
83	0xbdfadfd2	-0.122497216
84	0xbda70daf	-0.08156907
85	0xbd969b70	-0.07353866
86	0x3dea0d6a	0.1142834
87	0xbddca907	-0.10774427
88	0x3d0a2ffa	0.03373716
89	0xbd5c1151	-0.05372745
90	0xbda8557f	-0.08219432
91	0xbdec4e86	-0.11538415
92	0xbcbb7526	-0.02288301
93	0x3c3b2c56	0.011424145
94	0x3d4e5578	0.050374478
95	0xbdd22a35	-0.102619566
96	0x3d9d8c75	0.07692806
97	0xbd4e78c8	-0.050408155
98	0xbd95fc15	-0.073234715
99	0x3cc93076	0.02455924
100	0x3d424dfa	0.047437645
101	0x3b84e1f6	0.004055257
102	0x3da339a8	0.079699814
103	0xbc508050	-0.012725905
104	0xbd3b0705	-0.04566099
105	0xbd11b2b7	-0.035570826
106	0x3d57a7e4	0.052650347
107	0x3dbb0a2e	0.09132801
108	0x3cd2ef5b	0.0257489
109	0x3df53e88	0.119748175
110	0xbde811b4	-0.113315016
111	0xbd03b824	-0.032158032
112	0x3cb93b88	0.022611395
113	0xbd311015	-0.043228228
114	0xbd5ed8b8	-0.054405898
115	0xbd8bcbee	-0.06826006
116	0xbde7326d	-0.11288915
117	0x3d6a67f9	0.057228062
118	0xbdc3900c	-0.09548959
119	0xbdb3ab8d	-0.08772955
120	0xbcc48797	-0.023990436
121	0x3d75ffbc	0.06005834
122	0x3db7a610	0.08967221
123	0x3c8735d3	0.016505158
124	0xbbfe6648	-0.0077636577
125	0x3d4dfae7	0.050288107
126	0x3bbcfe9c	0.0057676565
127	0x3d3cbff2	0.04608149
128	0x3dab8d88	0.08376604
129	0x3ca06860	0.01958102
130	0x3d833376	0.064063
131	0x3dc14d54	0.09438577
132	0x3c2d9d40	0.010596573
133	0xbdd84c64	-0.10561445
134	0xbd638a8c	-0.05555205
135	0x3b127a80	0.0022350848
136	0xbc9f23c0	-0.019426227
137	0xbd1e1a90	-0.03859955
138	0x3d42abe8	0.047527224
139	0xbd4f41f8	-0.050600022
140	0xbde47b50	-0.111563325
141	0x3de1c0f0	0.11023128
142	0x3cbbc9e0	0.02292341
143	0x3babc4e0	0.005241975
144	0xbcec65b8	-0.028857097
145	0x3dbe32e0	0.092870474
146	0x3dfd0386	0.12354188
147	0xbd81ac80	-0.0633173
148	0x3de510be	0.11184834
149	0xbda387ea	-0.07984908
150	0xbd9c729e	-0.07639049
151	0xbdcd24a6	-0.10016756
152	0xbb5fe4c0	-0.0034163445
153	0xbdec24c0	-0.11530447
154	0xbda7a8c6	-0.08186488
155	0x3d8df700	0.06931877
156	0xbd8b3d98	-0.067988575
157	0xbde11ffc	-0.10992429
158	0xbc553770	-0.013013706
159	0xbd05d270	-0.032671392
160	0x3dcb525c	0.09927818
161	0xbd6472c0	-0.055773497
162	0x3dc604e6	0.09668903
163	0xbccbdd10	-0.024885684
164	0xbd8c6c2a	-0.06856568
165	0xbda644a4	-0.08118561
166	0xbd4eaae4	-0.050455943
167	0xbc51af30	-0.012798116
168	0x3d9414c4	0.07230523
169	0xbdfbfe66	-0.12304382
170	0xbb06e9c0	-0.0020586103
171	0x3d064118	0.032776922
172	0x3d506788	0.050879985
173	0x3d6045cc	0.054754063
174	0x3d920260	0.07129359
175	0x3d939e76	0.072079584
176	0xbda3f370	-0.080054164
177	0xbc0f6570	-0.008752212
178	0xbdae061a	-0.084972575
179	0xbccf39d8	-0.025296137
180	0xbdf68ab8	-0.12038177
181	0x3da52736	0.080641195
182	0xbd00ed64	-0.031476393
183	0x3dc99cf8	0.098443925
184	0xbcd785f0	-0.026308984
185	0xbc6fc210	-0.01463367
186	0x3d84feca	0.0649391
187	0x3d11c5ac	0.035588905
188	0x3d87062c	0.06592974
189	0x3ddc3ae6	0.107534215
190	0xbd884fde	-0.066558585
191	0x3c65b590	0.014020339
192	0x3d759544	0.059956804
193	0xbd6d1da8	-0.05788961
194	0x3bb6a340	0.00557366
195	0xbc908919	-0.017643498
196	0x3d9c96c3	0.07645943
197	0xbdcb53fb	-0.099281274
198	0x3dca05e4	0.09864405
199	0xbd29d55c	-0.04146324
200	0x3db5e57f	0.088816635
201	0xbd1a30c9	-0.03764418
202	0xbde21a5e	-0.110401854
203	0x3df859d0	0.121265054
204	0xbd755574	-0.059895948
205	0xbcbf962e	-0.023387041
206	0x3ca56e23	0.020194119
207	0xbd7f7fb9	-0.062377665
208	0x3d1bd32c	0.038043186
209	0xbc8ae62b	-0.016955456
210	0x3d4c26a5	0.04984154
211	0x3cb1f723	0.02172429
212	0x3b951f90	0.0045508817
213	0x3db2f7d6	0.08738677
214	0xbd95f8a5	-0.07322816
215	0x3da6f683	0.08152487
216	0xbd93b3bd	-0.07212017
217	0x3d997b4c	0.0749422
218	0x3dc63100	0.09677315
219	0x3cc6a8c0	0.024250388
220	0x3dc555da	0.096355155
221	0x3cec43a0	0.02884084
222	0x3d101524	0.03517641
223	0x3d9ac67a	0.07557388
224	0xbd4ef811	-0.050529543
225	0x3db52364	0.08844641
226	0x3d90d317	0.07071512
227	0x3d9ee05e	0.077576384
228	0x3d116f2d	0.035506416
229	0xbdf4231a	-0.119207576
230	0x3dd40bcd	0.10353813
231	0x3d628d2e	0.05531042
232	0xbb5f6f85	-0.003409357
233	0xbddadcbe	-0.106866345
234	0x3ce86147	0.028366698
235	0xbc66e3e4	-0.014092419
236	0x3c399a56	0.0113283
237	0xbdf53812	-0.11973585
238	0x3db25d83	0.08709242
239	0xbde01fae	-0.109435424
240	0x3dc9e02e	0.09857212
241	0x3dd4dfa5	0.10394219
242	0xbd4a1f8d	-0.049346495
243	0xbdf1685b	-0.11787482
244	0x3da628ea	0.081132725
245	0x3c303767	0.010755396
246	0xbca6cb08	-0.020360485
247	0x3db865d9	0.09003801
248	0xbc6f25c0	-0.014596403
249	0x3db156cd	0.08659134
250	0xb8f1b12b	-0.000115247756
251	0xbc332c79	-0.010935896
252	0x3da47eee	0.080320224
253	0xbdef29c8	-0.11677891
254	0xbca8b472	-0.020593856
255	0xbd8eb173	-0.069674395

bias f4 [7]
0	0x3db37488	0.08762461
1	0x3cf91633	0.030406093
2	0xbdac7444	-0.084206134
3	0xbdb5eaf9	-0.08882708
4	0x3d046fdf	0.03233325
5	0x3db1b37c	0.08676812
6	0x3de6be51	0.11266769
