logs/cp1_agent0_050924-034213.pth (torch, 67322 bytes, 16 tensors)

weight f4 [64, 42]
00000000: c1d7 ee3d 3de4 a9bd 0bd8 81bd 170d ce3c
00000010: babf dfbd ce14 00be 3cae 04be 5230 1abe
00000020: 10a2 9c3c 42fc 00bd 4ee8 3bbd 9ab3 0fbe
00000030: 02ff e6bd 71d6 ae3d 0390 fb3d e7fd 64bc
00000040: 1c4b ea3d 7923 8dbc b8d5 f0bd 5692 a6bc
00000050: 16f7 7a3d a5d1 0c3d f8ae b63d eec6 c7bc
00000060: 7d97 2abc 3cb3 a73d 4ac7 03be c873 ce3d
00000070: 2a6e 1b3e 6632 ea3d 5da1 9f3d 4ed2 9d3d
00000080: 9908 b9bd 9ed8 083e c97e 90bc f289 2bbc
00000090: 3b88 dd3d d3f6 1a3e 918a b7bb a8b7 ea3d
000000a0: c92d af3d b53f 78bd 60f9 82bb 143a d83a
000000b0: bdab d33d a4bd eebd bc18 28bd 523f dd3d
000000c0: 11b2 0ebe 0116 c1bd 247f 5ebd c4b0 f43c
000000d0: f4c5 cf3d 6956 113e 32ff d53d aba0 efbc
000000e0: 3ca5 8e3d 01e7 083e 8cb2 193d 6249 3d3d
000000f0: 2289 703c 32de fabb 3d19 24bc 9611 cb3d
00000100: 51dd cabd 0214 a33d f586 76bd d3d6 b93d
00000110: cc99 4a3c 0010 99bd 4a5a a4bc c3af e9bd
00000120: 83ff 143e 8c11 ef3c cc2c 9bbc e866 e03c
00000130: 90f4 0dbe 5bea c8bd 3713 f43d 2e08 ca3b
00000140: 5729 773c 2266 3f3d b958 c7bd 52ee f0bd
00000150: 7270 10be 2e1e cb3d 33eb 96bd 48fd 29bd
00000160: ff73 ca3b a965 d2bb 0615 0c3e 92a8 103d
00000170: d82f a7bd 9e50 d93d c1d5 09be 00f6 63bd
00000180: 4b9d 1fbd b549 83bd 958e e63d ee88 823d
00000190: d141 983d aac2 07be 92a4 0a3c ff7f 06be
000001a0: a949 54bc 7059 06be 1283 073e cebf 11be
000001b0: d5cc 513d b075 093e 2a48 bf3d eee4 8f3d
000001c0: 6abb 01be 3bf7 77bd 6710 44bd 5917 553c
000001d0: a784 92bd dbd5 01bd de6a 47bd 6b4d d8bd
000001e0: 41a7 9cbd 9feb 9f3d a148 68bd 4665 053d
000001f0: a840 d43d f3d0 cb3d acc7 553b 04e3 953c
00000200: 1865 eb3c bdbf 013e b25d 15be 8df6 dabd
00000210: b86d 3bbb c9cb 123e ca65 da3c b4f5 1abe
00000220: 2b7e 50bc e2cc c83d b202 eebd f577 413d
00000230: d81a e43c 0da7 0d3e 4e0a 883d 0f0d f83d
00000240: 72ec 7cbd 7506 643d e794 e4bd 8756 59bd
00000250: 1952 c2ba 77c7 e7bc eca4 cd3d a4c8 35bb
00000260: 803b ce3c 2a91 503b e619 e53d c3f6 9ebc
00000270: abe4 843d c729 dabd dd75 683d 0291 d2bd
00000280: dfe8 8a3d c17b afbc 6b6e e23d ea12 df3d
00000290: 1d66 36bd 9cf2 043e bf22 e0bd fd75 2abd
000002a0: a892 ffbd 5f06 fc3d 0cee fc3d 73a2 75bd
000002b0: 9ca1 f53c 2da6 f03d ce98 00be 5524 463b
000002c0: e893 b9bc 308b c33d 8c08 8d3d f907 1f3d
000002d0: b520 a93d 0659 063d 2f5a d2bd b2af 1c3e
000002e0: 06c2 e0bd a8c0 05be 6a24 07bb f923 cf3d
000002f0: a91b 88bb 60ce cd3d f8cd c5bd a1f8 d23c
00000300: a03c ecbd dbc9 f83d 4f5b 923d 2960 a1bd
00000310: a3de 603c 481e 1bbe 711f c23b fec7 86bd
00000320: dd0a bb3d 4f8e c83d 0b7b 0c3e 4e47 afbd
00000330: 7f68 4b3d b9b7 5d3d cb33 67bc bbb2 ccbd
00000340: 1337 433d ad8e 1fbc 98ef 17be e5a0 dfbb
00000350: f0ae a3bd 78f7 d83c 918b 173e 1006 aa3c
00000360: 78fb 18be 85be 56bd 48a1 d83d c66e aa3c
00000370: 2cbe a03c dba0 803d 71f7 663b cc67 a3bd
00000380: 5b86 473d c7c5 8ebd 5a01 1abe c8bd 1dbe
00000390: 6e0f 153e 3fde cdbd 843b 97bd 3b0f 6a3d
000003a0: 25a3 873d e175 073e 819a 8b3c 3a2d 233d
000003b0: b007 073e 7f8d b4bd b546 2cbd 9e42 183e
000003c0: b80f a7bc 08e5 e73d 2deb e6bc eb1c f1bd
000003d0: 9089 dc3d dd9e 8e3d 0978 5e3c e947 02be
000003e0: a9af d3bd 5840 9fbd 109f 7e3d aac8 acbd
000003f0: da80 f4bd 3a6c da3d e37c 11be 80e7 7fbd
0.116622455 -0.08295486 -0.06340035 0.025152726 -0.10925241 -0.12507936 -0.1295709 -0.15057495
0.019120246 -0.03149057 -0.04587584 -0.14033356 -0.11279108 0.08536995 0.122833274 -0.013976551
0.11440107 -0.017228829 -0.117595136 -0.02033345 0.061270796 0.03437962 0.089200914 -0.02438685
-0.010412094 0.08188483 -0.12868991 0.10080677 0.15178743 0.11435394 0.077944495 0.07706128
-0.09034843 0.13363883 -0.01763858 -0.0104699 0.108169995 0.15133218 -0.005601235 0.11460811
0.08553655 -0.06060763 -0.003997013 0.0016496801 0.10335491 -0.11657265 -0.041039214 0.10803093
-0.13935114 -0.09428025 -0.05432047 0.029869445 0.101451784 0.14193119 0.10449065 -0.029251417
0.0696511 0.13369371 0.03752379 0.04621256 0.0146811325 -0.0076558823 -0.010015783 0.099154636
-0.09905494 0.079628006 -0.0601873 0.090741776 0.01236577 -0.07473755 -0.020062584 -0.11410477
0.14550595 0.029183172 -0.01894226 0.02739282 -0.13862824 -0.09810325 0.119177274 0.006165526
0.01508554 0.04672826 -0.097337194 -0.11764206 -0.14105394 0.09917866 -0.073690794 -0.041501313
0.0061783786 -0.0064208102 0.13679895 0.03531701 -0.08163422 0.1061108 -0.13460447 -0.055654526
-0.038968366 -0.06410543 0.11257664 0.063737735 0.074344285 -0.13257852 0.008462088 -0.13134764
-0.012957015 -0.13120055 0.13233593 -0.14233324 0.051220734 0.134238 0.09339936 0.07026087
-0.12669149 -0.06053851 -0.047867205 0.013006055 -0.07154208 -0.03169809 -0.0486859 -0.10561641
-0.07649089 0.07808613 -0.05670989 0.032567285 0.10363895 0.09951963 0.0032620234 0.018296726
0.028734729 0.12670799 -0.14586523 -0.10691557 -0.0028599333 0.1433555 0.026659865 -0.15132791
-0.012725393 0.09804703 -0.11621608 0.04723354 0.027844831 0.13833256 0.066425905 0.12111866
-0.06174893 0.05567022 -0.11161213 -0.053061035 -0.0014825492 -0.028293354 0.10041222 -0.0027738
0.025174856 0.0031824806 0.1118658 -0.019404775 0.064889275 -0.106525 0.05675303 -0.10281564
0.06782698 -0.021421315 0.11056217 0.108922794 -0.044530977 0.12983173 -0.10944127 -0.04161643
-0.12479144 0.12305903 0.12350091 -0.059969377 0.029984288 0.117504455 -0.1255829 0.0030234058
-0.022653535 0.09548032 0.06886396 0.038825963 0.082581915 0.032799743 -0.102711074 0.15301397
-0.10974507 -0.13061774 -0.002062107 0.10114283 -0.004153688 0.100491285 -0.09658426 0.025753321
-0.11535001 0.12147876 0.07146322 -0.07879669 0.013724956 -0.1514827 0.0059241583 -0.06581114
0.091329314 0.09792768 0.13718812 -0.08558522 0.049660202 0.05413029 -0.0141114695 -0.09995028
0.047659945 -0.009738606 -0.14837492 -0.0068246 -0.07992351 0.02648519 0.14799334 0.020754844
-0.14939678 -0.052427787 0.10577637 0.020804774 0.019621931 0.06280681 0.0035242701 -0.07978782
0.048712116 -0.06971317 -0.15039578 -0.15404427 0.14556667 -0.10052156 -0.073843986 0.05714343
0.06622914 0.13228561 0.017041447 0.039838053 0.13186526 -0.08816051 -0.04205962 0.14869162
-0.020393237 0.11322981 -0.028188312 -0.11773094 0.107684255 0.069638945 0.013578423 -0.12722744
-0.10336239 -0.077759445 0.062163413 -0.08436711 -0.11938639 0.10665174 -0.14207797 -0.062476635

bias f4 [64]
00000000: dd30 8e3c 9538 aebc 1595 d53d a6a7 dabd
00000010: f5cf 07be c392 77bd 49a9 b0bd 61d3 11be
00000020: cbba 02be 3255 023d 6295 7fbd 5f68 5e3d
00000030: 4d88 b83d b54e 133d fe60 0e3e a581 05be
00000040: 0601 8d3c 2090 c3bd bcb6 ff3d f9dd f1bd
00000050: a054 42bc 0e28 463d 6e47 cdbd 1185 fa3d
00000060: 4fc0 3abc d518 853d a175 8fbd 7716 00bd
00000070: 1255 1dbe e7f4 89bd 17f3 493d 6e11 c93d
00000080: 9cfc d13d 9a45 d3bd 7ca1 f13d 8528 003e
00000090: 46fb d5bd e024 c1bd f3c9 b43d 71ef d9bc
000000a0: 53f9 adbc f371 173e 9cdf 193d 5bd0 0b3e
000000b0: 55b1 9a3d 542a 023d 9109 673d 5fdb 0d3e
000000c0: 1457 c4bd 8c9e 19bd 0d49 c43d 6669 c7bd
000000d0: ff61 143e 4b85 213d 8b2b 8d3d 0021 8ebd
000000e0: 80ab 463d 712e 4bbd 6ad8 1c3e a66f fe3a
000000f0: 5b8b ae3d 8aa1 3c3d 177e 79bd bd50 1ebc
0.017357284 -0.021267215 0.10428826 -0.10676508 -0.13262923 -0.060442697 -0.086260386 -0.14240791
-0.12766568 0.03181953 -0.062398322 0.054298755 0.09010372 0.035963733 0.13904187 -0.13037737
0.017212402 -0.09548974 0.12486026 -0.11809916 -0.0118609965 0.048378043 -0.1002339 0.12232412
-0.011398389 0.06498877 -0.07004858 -0.031271424 -0.15364483 -0.067361645 0.049304094 0.098177776
0.102532595 -0.1031601 0.11798379 0.12515457 -0.10448317 -0.094308615 0.08827581 -0.026603432
-0.021237051 0.14789562 0.037566766 0.136537 0.07553355 0.03177865 0.056405608 0.13853215
-0.09586921 -0.037504718 0.09584246 -0.097369 0.14490508 0.03943376 0.06893071 -0.06939888
0.0485034 -0.049604837 0.1531693 0.0019411936 0.08522674 0.046052493 -0.060911264 -0.009662804

weight f4 [64, 64]
00000000: 4546 e0bd 53ce 02bd f073 ffbd 0b5c 833d
00000010: de68 55bc f572 a43d f9cc f43c 1db9 253c
00000020: c659 6ebd 36f2 9bbd 61ca d43d a37b 8e3d
00000030: 41dc 7ebd 79f0 89bc f090 87bd 7d2c 2cbd
00000040: 5180 1d3d e883 d4bb 25cf 633d 141b a7bd
00000050: 6757 d4bb e012 f3bc 464c 39bb 938c d3bd
00000060: d21b e03d 293c 5cbd bcf6 adbd 2b73 ddbc
00000070: 0f5e a43d 56c5 693d e5a5 acbc bf96 abbd
00000080: 2e6c c43b faed dfbd ea59 8fbd ccc4 16bd
00000090: 649b c53d 258d febd 9f6b 70bc c6f1 ff3d
000000a0: 3bb7 a73d ed27 453d 7d40 22bd b114 e03d
000000b0: 27fc d9bd 0424 dd3c d473 6dbd def5 88bd
000000c0: 6858 babd da49 b93d 19e4 c43c a6be b4bd
000000d0: 754f b93c f05d ea3d 7049 ca3d dcda a93c
000000e0: d0a8 a83d 9f2b d23c 9853 fcbd b1f7 33bd
000000f0: 4c30 ce3d 49d9 edbd ea1a c03d 2cc7 6dbd
00000100: 4fa5 723c 9847 0c3d 8888 30bd 2707 43bd
00000110: b228 e3bd 115d ef3c 699a 193d b314 38bd
00000120: 1bda c3bd ddeb f13d 87e9 45bd a28a a03d
00000130: e962 0ebd db79 d83d 02c8 863d 8164 753d
00000140: fdb8 66bd c932 2cbd 4573 dfbd f982 253d
00000150: a2d3 34bd 7a99 fcbd 8589 26bd fb70 d4bd
00000160: 1fba 953d e126 bfbc 713e ad3c 0bfb 0abd
00000170: 4f26 cc3d c0d9 d63c 843a 83bd 940d ee3d
00000180: bece eb3d 51dd ce3d 5df1 9d3b b6b8 d4bd
00000190: b790 b93d 341b b8bb e5b5 033c 791d 64bd
000001a0: 4e64 a13b a9aa 083d 5578 abbc ec6c b43c
000001b0: ff43 a23d ee2b efbd 85cb f4bd 978a e2bd
000001c0: 3d4c 813d c735 5c3c 52e4 8c3d a2fb e2bd
000001d0: 49c8 f8bc f08c dfbb a804 973d f931 e2bd
000001e0: 93b1 9fbd 4071 debd f3e5 73bd 1c70 76bc
000001f0: 10e4 1b3d 519b 1b3d f8a4 1ebd f09b 3f3d
00000200: 9e9d dfbd 5039 7cbc 47b6 fcbd c8b0 68bd
00000210: f87d d53c b0d2 39bc 7053 bbbc 08e5 f2bd
00000220: 087f c8bc 4f34 cfbc 383f 99bc da70 b63d
00000230: a2a1 883d 1eb4 cdbd 3023 f1bd 3e26 eb3d
00000240: e0c6 93bd 6071 c03d 05c7 f8bc f88b cebc
00000250: 20e7 cbbb 70d9 ddbc 7aad 983d 2b12 c2bd
00000260: 2475 653d 9035 733d 5a05 c83c 791b d93d
00000270: 2f99 973c 30f1 5ebd f4a7 35bd 8a1e e1bd
00000280: 5ea2 e5bd 80ca aa3d 6357 033d d1a1 c1bd
00000290: 90e8 e33c a09b db3d 84a0 7c3d 70ec d8bd
000002a0: d072 ddbc 520b fdbd ef7c dabd b267 b5bd
000002b0: 2ec8 86bd faf8 a83d ea3e b4bd dc2a df3d
000002c0: b51b d9bc 72f3 ef3d 5cab adbc 80cb b53b
000002d0: 104f e73c edbc d13d b0aa 37bd 2c4a f03d
000002e0: 9c77 4ebd f81a 473c 809c be3c d83c 1b3d
000002f0: 6330 67bd 2619 d33d 20c9 10bc 5b11 82bd
00000300: 72f5 77bd 6047 f3bd 6ac9 cabc 45ee 94bb
00000310: 76e1 a4bd 6f47 c9bd 0457 5a3a 4e72 a2bd
00000320: e6cb 673d fd31 9a3c f398 b7bd 11ad 4bbd
00000330: 2d03 ca3d 7860 033a 9a9e 67bd 2603 29bd
00000340: 5d3a bbbd 7c19 d7bd af45 393d 49ed 2cbd
00000350: 5bdb f4bb 26da ae3d 110b b8bc 0dc5 2e3d
00000360: 763d 773d 24b4 6bbc 1658 92bd af3a 1ebd
00000370: 7b61 12bc ad9c 84bd fed3 653d 44b4 0bbd
00000380: d1f9 813d dbc9 9cbd 4bbb a03d e9d7 cc3d
00000390: 44b7 f73d 91e9 febd 26f3 2b3d 167d 5bbc
000003a0: 74e3 6d3d 4e54 8a3c 6a6a 02bc 9eda 62bd
000003b0: 60f0 78bd 78e5 8dbd c17f ecbd b19e 8dbc
000003c0: 6aec 993c 4174 213d 89ae ad3d 7029 ac3c
000003d0: 618c 7a3d 5581 e0bd c1d3 033c 3f43 f4bc
000003e0: abd0 6ebd 05ea 713c 3578 cebd 9b4f 873d
000003f0: 2a7c 683d a65d dcbc c53b 1abb 9352 933d
-0.10950903 -0.031935047 -0.12473285 0.0641404 -0.013025491 0.08029739 0.029882895 0.010114935
-0.058191083 -0.076145574 0.10390163 0.069571756 -0.06222177 -0.0168383 -0.066194415 -0.042034615
0.03845245 -0.006485451 0.05561747 -0.081594616 -0.0064801457 -0.029672086 -0.0028274222 -0.10329547
0.10942806 -0.05376831 -0.084943265 -0.027032455 0.08025753 0.05707296 -0.021075198 -0.08378362
0.0059943413 -0.10934062 -0.069995716 -0.036808774 0.09648779 -0.12429265 -0.014674096 0.124972865
0.08189245 0.04813378 -0.039612282 0.109414466 -0.10643797 0.026994713 -0.05797179 -0.066875204
-0.090988934 0.09047289 0.024034547 -0.08825426 0.022620896 0.114436984 0.09877288 0.020734243
0.082353234 0.025655566 -0.12320632 -0.04393739 0.10067806 -0.116137095 0.093801335 -0.058051273
0.01480992 0.034247965 -0.043098956 -0.047614243 -0.110917464 0.029219182 0.037500773 -0.044941615
-0.09563085 0.118125655 -0.048318412 0.07838942 -0.034762297 0.10570117 0.06581117 0.0599103
-0.056328762 -0.04204062 -0.10910658 0.04040811 -0.04414714 -0.12333961 -0.040658493 -0.10373112
0.073108904 -0.023333969 0.021147938 -0.03393082 0.09968244 0.026226878 -0.06407645 0.116236836
0.11514042 0.101008065 0.0048200325 -0.10386793 0.09060805 -0.0056184772 0.0080389725 -0.05569217
0.0049252873 0.03336588 -0.020931402 0.022024594 0.079231255 -0.11678301 -0.11952881 -0.1106159
0.063133694 0.013440556 0.06879486 -0.110831514 -0.03036894 -0.006822221 0.07373935 -0.11044688
-0.077975415 -0.108614445 -0.05954547 -0.015041377 0.038059294 0.03798992 -0.038731545 0.046779573
-0.10918735 -0.015394524 -0.12339454 -0.056809217 0.026061043 -0.011341736 -0.022866935 -0.118600905
-0.024474636 -0.025293497 -0.018706903 0.089082435 0.06671454 -0.1004412 -0.117742896 0.114819035
-0.07215667 0.093966246 -0.030368337 -0.025213227 -0.0062226206 -0.027081221 0.07454963 -0.094761215
0.056019917 0.059377253 0.024416614 0.10600943 0.01850566 -0.054429233 -0.044349626 -0.10992153
-0.1121261 0.08339405 0.03206576 -0.09454692 0.027820855 0.107230425 0.061676517 -0.10591972
-0.027032286 -0.12355675 -0.106683604 -0.08857669 -0.0658115 0.082506135 -0.088010624 0.10896847
-0.02650247 0.117163554 -0.021199875 0.0055479407 0.028235942 0.10241113 -0.044840515 0.11732897
-0.050407037 0.012152426 0.023267984 0.037899822 -0.05644263 0.10307531 -0.008837014 -0.063509665
-0.06053681 -0.11878848 -0.024754245 -0.0045450055 -0.08050816 -0.09828078 0.00083290064 -0.07931958
0.056590937 0.018822664 -0.089647196 -0.049725596 0.09863887 0.00050116284 -0.05654774 -0.04126277
-0.09141991 -0.10502908 0.04523247 -0.04221848 -0.0074724383 0.08537702 -0.022466214 0.04266839
0.060361348 -0.014386211 -0.07145707 -0.038630184 -0.008934374 -0.06475196 0.056110375 -0.03410746
0.06346477 -0.076556884 0.07848223 0.10002119 0.12095502 -0.12446893 0.04197993 -0.013396522
0.058078244 0.016885903 -0.007959941 -0.05538427 -0.060776114 -0.06928533 -0.115478046 -0.017287584
0.018789489 0.03941751 0.084805556 0.021015853 0.061169032 -0.10962168 0.0080460915 -0.029817222
-0.05830447 0.014765267 -0.100815214 0.066069804 0.056759037 -0.026900124 -0.002353416 0.07193484

bias f4 [64]
00000000: b6f0 b83d 2923 3e3c 90ae c2bd 08d7 7abb
00000010: cf45 62bd 5dee f9bd 4214 923d a292 a53d
00000020: 3b9e 46bd f8bc e93b 09f5 813c 6a03 a5b7
00000030: 9aaf 123a 8d54 9e3c 8fa3 b2bc a831 15bd
00000040: 0b80 d9bd 1648 e4bd b18a c8bd 1e16 88bd
00000050: 93b5 673d e833 1fbd 19bf d0bd 3330 543b
00000060: a248 89bd 4935 54bd f627 b63d 7258 89bd
00000070: 125e 22bd 7a07 66bd 87a9 1cbd d985 ebbc
00000080: b759 16bd f765 b23d 5a9b 493d 07ee 3f3d
00000090: bc5a fc3d d3aa fabc 0611 f03d f7b3 cc3c
000000a0: cbdb 84bd 24a8 b33d 0628 45bd d7eb cebd
000000b0: e73c c6bd b6bc a5bb 59ee e73d 06ec 8abd
000000c0: 0f3b 853d adc8 993d 7030 0abb 51ff b33c
000000d0: 08c8 37bd b7a3 b23c c7ac 9ebd ad28 a03d
000000e0: 8322 55bd 4cb4 143d 4c41 7f3d 6447 aa3d
000000f0: 7210 bfbd b67a d33d e556 d8bc 3b1a 1cbd
0.09030287 0.0116050625 -0.095059514 -0.0038275141 -0.055242356 -0.12203667 0.0713277 0.080846086
-0.048490744 0.0071331225 0.015863912 -1.9671123e-05 0.00055956247 0.019327426 -0.021806506 -0.03642431
-0.106201254 -0.11146562 -0.09792078 -0.066448435 0.056569647 -0.03886786 -0.10192699 0.0032377362
-0.06703307 -0.05180863 0.08894341 -0.06706323 -0.039640494 -0.056159474 -0.03824761 -0.028750347
-0.036706652 0.087108545 0.04922042 0.04685786 0.12321994 -0.030599033 0.11721997 0.024988158
-0.06487235 0.08772305 -0.048133872 -0.10103577 -0.09679585 -0.0050578965 0.11324758 -0.06783299
0.06505405 0.07508979 -0.0021086 0.02197233 -0.0448685 0.021806581 -0.077477984 0.07820258
-0.052034866 0.036304757 0.06231813 0.08314398 -0.093293086 0.1032614 -0.026408622 -0.038110953

weight f4 [7, 64]
00000000: 0274 91bd fab0 aabd ecd9 803d 90c7 f2bc
00000010: 4021 f23c e076 afbc 762a a6bd 800c 233d
00000020: ec31 873d b84a d6bd 7086 4fbd 841c b4bd
00000030: 70c3 443d 200a c43c d23a b33d 9a82 d9bd
00000040: eac3 b2bd 56ae edbd 8eb3 abbd b02e 373c
00000050: 9021 4ebd b44f 8dbd ec8a 9a3d f4b5 bc3d
00000060: e0e1 39bc 08cf 873c 8450 f23d 3078 d73c
00000070: 500d 7b3c 7ea0 df3d 7417 2fbd f0e8 d13d
00000080: d23d 82bd 6e09 c8bd 4042 87bb e047 b03b
00000090: 4094 013d 522c d03d ae98 853d c862 013d
000000a0: 5094 ecbd a8ee 9d3c 72de f8bd d415 843d
000000b0: 9021 973c 80cd fd3d 3c05 38bd 68b1 343d
000000c0: 98fe ccbc 623c 82bd f429 40bd 786e 613d
000000d0: d068 5c3c a057 9cbc 9e39 e3bd 7862 f7bd
000000e0: 80ec 75bc 1c91 7f3d 5c54 58bd 3008 d73c
000000f0: 3a22 c53d 0006 b139 24d5 f0bd 506d be3c
00000100: 9988 7b3d 3555 e0bd 418b b43c 69e9 e53d
00000110: 0af1 7e3d b509 c13c 5bb0 1f3d a1df 2ebd
00000120: 4f51 84bd 6637 38bd 8292 ba3c 41cd 15bd
00000130: 5821 b7bd 8b82 633d 828f 353d 75a5 823d
00000140: 9405 e83d dd92 f03d 9014 e63d cd7c f8bc
00000150: 86d1 b33c 0137 8d3d f790 b3bb 34ab 553d
00000160: edac 0d3d a307 083d 6fa7 d83d d73c dcbd
00000170: 7450 0c3c dd37 aabd 8d22 a43c 416e 603d
00000180: 88f1 dc3c 7472 c53d 9e12 8f3d 3312 82bd
00000190: 7cc3 f9bd 35b5 4abc ea3e d43d e8bc a1bd
000001a0: 8622 c13d 2937 97bd a95b d8bb 5dc7 8ebd
000001b0: 5749 8abd e5ae edbd b341 a83d c077 993d
000001c0: 7bc3 7f3c 9ca7 683d d862 b43d 6298 8a3d
000001d0: 3650 0f3d 7012 d33d 1355 81bd 4cdc cabd
000001e0: ff8f f03d 5e00 b43c 9d1c fa3d 3de0 243d
000001f0: f756 e1bd f994 5e3b 09c8 423d f6a5 ea3c
00000200: 3bae 9b3d a1fc e1bd 4662 a93d 30e6 6bbc
00000210: e4ee 1cbd 8b60 c63c bf52 dabc 64eb d2bb
00000220: 41cb e93d 292b cabd 706c d3bb 31de 2bbc
00000230: 8e09 c5bd 9ed5 ab3d 9043 483d edb4 8ebd
00000240: bd2c 223d 3b02 48bc 4628 a3bd 0548 f3bd
00000250: 54cf 7dbd c45e 003d a27c 82bd de34 b13d
00000260: fe77 bfbd 05db 49bc 46ea 72bd 5583 c53d
00000270: 9309 ba3c b5a8 393b dd95 823d ce7f ec3c
00000280: d385 afbb f0c0 b83c 6954 aa3c 5cc4 b83d
00000290: 4ca1 6cbd b868 c33d 8f63 43bb 4a26 13bd
000002a0: 5e36 07bc 6108 a73c ffa8 d53d 6b4d 8e3c
000002b0: bb9d 99bc e837 e1bd b1fb 973d 5771 9bbd
000002c0: 29d3 8a3d 2816 893c 7e6e 923d b39f df3d
000002d0: 6250 903d 42b3 c03d adb6 f23d ec20 fd3d
000002e0: eb70 83bd 6e92 003d f55e 16bd 696b 583d
000002f0: 089b 433b 593f a43d 25e6 a1bd 4e06 4bbd
00000300: f8c9 973d 3710 ed3c 88c8 a5bd bf28 2c3d
00000310: 93ac 5b3d d4cf 8a3d 5ab7 9fbc 7ae9 3d3d
00000320: fbc4 ca3d 504c dbbd aea9 2b3d 3812 843d
00000330: 4edf 3d3d 095f debb 513e 463d 316e 23bd
00000340: e874 35bc 7580 9c3d e062 373d 75c3 3abc
00000350: 7fd3 d2bd bebd ffbc 92a7 26bd 5642 bfbd
00000360: b99c a73d 4139 acbd a73f 533d 2f4d b83c
00000370: 9ac3 9abc f2c2 91bc 3345 aebd e5a2 b53c
00000380: 0745 ba3d f78c 21bc bf73 0f3d ea02 fb3d
00000390: 8841 46bd 1939 f63d 9b2b a83c 8cb1 0ebd
000003a0: 8f5c babd a7d4 a3bc 4849 c8bd 0996 8d3d
000003b0: a0ce 8a3d 09be a43d caa0 323d db7e b9bd
000003c0: c09d c5bd d41b 583d 9ef8 80bd b3bc 973d
000003d0: 7aff f3bd 2b29 b43d a9b0 ed3b 8bac 963c
000003e0: 7785 673d f831 edbb c625 4a3d 6646 e7bd
000003f0: de34 8abd 713a 103d 3698 d63d 90d3 813d
-0.07102205 -0.08334537 0.06291565 -0.029636174 0.02955687 -0.021418989 -0.081135675 0.039806843
0.06601319 -0.1046347 -0.05066532 -0.087945014 0.048037946 0.02393061 0.087514535 -0.106206134
-0.08728774 -0.116055176 -0.08383857 0.011180565 -0.050324976 -0.06899968 0.075460285 0.09214392
-0.011345357 0.016578212 0.118317634 0.026302427 0.015322998 0.10919283 -0.042746976 0.102495074
-0.063594475 -0.097674236 -0.0041277707 0.005379662 0.031635523 0.101647034 0.06523262 0.031588346
-0.11551726 0.01927884 -0.12151803 0.06449476 0.018448621 0.12392712 -0.044926867 0.0441145
-0.025023744 -0.06359173 -0.04691501 0.05503699 0.013452724 -0.019084752 -0.11094974 -0.12079328
-0.015009999 0.062394246 -0.052814826 0.026249021 0.09625669 0.0003376454 -0.11759403 0.023245484
0.061409567 -0.10953752 0.022039058 0.1122616 0.06224159 0.023564199 0.038986545 -0.042693738
-0.06460821 -0.044974707 0.022774938 -0.0365727 -0.08941907 0.055544417 0.044326313 0.06379215
0.11329189 0.11746762 0.11234391 -0.030332947 0.021950494 0.06895257 -0.0054799276 0.052165225
0.034588743 0.033210408 0.105788104 -0.10753792 0.008564103 -0.08311436 0.020036006 0.054792646
0.02697064 0.09640971 0.06985973 -0.063511275 -0.12195489 -0.012372305 0.103635624 -0.07897359
0.09430413 -0.07383568 -0.0066027236 -0.06971619 -0.0675227 -0.11605624 0.08215656 0.074935436
0.015610571 0.05680047 0.088079154 0.06767346 0.034988604 0.10306251 -0.06315055 -0.099052995
0.11746215 0.021972831 0.12212489 0.040252913 -0.11002915 0.0033963306 0.04755405 0.02864359
0.07601591 -0.11034513 0.08270697 -0.014398143 -0.03831376 0.024215957 -0.026650785 -0.006436752
0.11415721 -0.098715134 -0.0064521357 -0.010489986 -0.09620963 0.083903536 0.048892558 -0.069681026
0.039593447 -0.012207563 -0.07966666 -0.11878971 -0.0619653 0.031340376 -0.06371428 0.08652662
-0.093490586 -0.012320285 -0.05930545 0.0964419 0.022709643 0.0028329317 0.063762404 0.028869536
-0.0053565293 0.022552937 0.020792203 0.090218276 -0.057771012 0.09541458 -0.002981398 -0.035925187
-0.008252708 0.020389738 0.10432624 0.0173709 -0.01875197 -0.109969914 0.07421053 -0.07589977
0.06778557 0.016734198 0.07149981 0.10919132 0.07046582 0.09409191 0.11851249 0.12359795
-0.06418022 0.031389646 -0.03671165 0.05283681 0.0029847044 0.08019895 -0.07905225 -0.04956656
0.07411569 0.028938396 -0.08094889 0.042031046 0.053631376 0.06777921 -0.019496609 0.04636524
0.09900852 -0.10707915 0.041909866 0.064487875 0.046355538 -0.0067862314 0.048399273 -0.03990001
-0.011075236 0.07641689 0.04477203 -0.01139914 -0.10294246 -0.031218406 -0.04068715 -0.093388245
0.08184189 -0.08409358 0.051574375 0.022497742 -0.018892098 -0.017793152 -0.085092925 0.0221724
0.09095197 -0.009860269 0.035022493 0.12256415 -0.04840234 0.12022609 0.020528605 -0.03483729
-0.090996854 -0.019998861 -0.09779602 0.069133826 0.06777692 0.08044059 0.04361037 -0.09057399
-0.09649229 0.052760914 -0.0629742 0.074090384 -0.11913963 0.08796915 0.0072537255 0.018392822
0.056523766 -0.0072386228 0.04935243 -0.11292724 -0.06748365 0.035211984 0.10478251 0.063391805

bias f4 [7]
00000000: d4f1 ecbd 3a43 b83c 6e0f 353d d1ae 363c
00000010: 346c 77bd da90 eebd dd55 adbb
-0.115695626 0.022492994 0.044204168 0.011150078 -0.060405925 -0.11648722 -0.0052897767

weight f4 [7, 7]
00000000: e4d9 f23d 6658 76be ecdc 8abd 064d 753e
00000010: f835 9abe 4d55 a43e 64b2 83bd 203e 4e3d
00000020: c0c8 31bc 6ef4 7dbe 5b86 ad3e c270 2e3e
00000030: 02ef 513e 0098 e23d 9928 89be b9bc 2c3d
00000040: fd1d 533e c343 1cbe cbe4 1dbe 9808 89be
00000050: 8f75 b0be b7c0 42be 122b 133d c7a5 b4be
00000060: 5dfb 243e 0f14 663e c504 16be fd10 fd3d
00000070: e8df 9c3d 7710 a9be b87b 493e a324 0c3e
00000080: 1b01 1c3e 08e4 823d 2e04 c3bd 389a 983d
00000090: 2380 ce3c 29c2 b2bd d688 b1be 25cd 9f3e
000000a0: 1e8a 133e baf2 9b3e 6e91 6d3e 2517 993e
000000b0: c0ad bdbb be26 51be 2ae0 043e 48f0 25bd
000000c0: 850f 27be
0.118579656 -0.24057159 -0.06780419 0.23955163 -0.301193 0.3209633 -0.0643051 0.050352216
-0.010851085 -0.24800274 0.33891568 0.17035201 0.2050133 0.11064148 -0.26788786 0.042172167
0.20616908 -0.15260224 -0.15419309 -0.2676437 -0.3446469 -0.19018827 0.035929747 -0.35282728
0.16111512 0.22468589 -0.14650257 0.12356756 0.07659894 -0.33020374 0.19676101 0.13685851
0.15234797 0.0639115 -0.095222816 0.0745129 0.025207585 -0.08728439 -0.3467471 0.312112
0.14408156 0.30458623 0.23200008 0.2990047 -0.005788535 -0.20424935 0.12976137 -0.040512353
-0.16314514

bias f4 [7]
00000000: 0f3f 98be e466 e3bd 87a8 a93d a8a5 ae3e
00000010: 710b a53e 58a4 b33e 6bb3 85be
-0.2973561 -0.11103609 0.08284097 0.3411076 0.32235292 0.35086322 -0.26113448

weight f4 [64, 42]
00000000: 9a1a 07bd 3de1 d1bd 9892 ed3d 7a22 823d
00000010: dcec 20bd 6371 a6bc 6385 0bbe 5512 93bb
00000020: 9007 f1bb d487 123c 7dfe 6e3d 6668 47bd
00000030: 520c dd3c c54b e73d 339d 0d3e b1bc 013d
00000040: 0724 a23d 87e2 a6bc 1205 d53b 3520 853d
00000050: 3132 2f3d 4d73 d8bd 3cca a0bd 302f 0e3e
00000060: 374e 42bd cb27 1cbd 5a1d babd 2ff1 f6bd
00000070: d4eb bc3d 57e5 c93d ddaa 883d 4f4d 87bd
00000080: 9c12 04be 356d 043d 3a8b 063a 41ac 333d
00000090: b1a9 e33d a269 8e3d ccc0 0a3b 2262 fdbd
000000a0: 2a8a ea3d 6f7a a83d c2b7 6f3d 37e2 93bd
000000b0: a274 debc 3cb7 0cbe ba72 173e dae4 923d
000000c0: 32a8 5dbd cb7b 21bd c9e3 c23d 2fa2 bcbd
000000d0: ca1d fc3d a274 cbbd b5e6 063d 68b6 b1bd
000000e0: 20bd 0a3e 38e9 7f3c 2d8f 9ebd 4ecb 0cbe
000000f0: 91c5 e63c e1ce a7bd a5c1 1b3e 64d4 013e
00000100: 47d9 81bd 63ed 6fbd 7f57 bd3b f0dd 8fbd
00000110: 1128 e43d 1ba8 0cbe 2b03 cbbd 8930 1d3d
00000120: 055c e6bd 30d4 98bd 4c66 b8bd a34e cf3d
00000130: ffd3 edbd be4e ddbd f651 0b3e 997d 473d
00000140: 0c57 883d 0d98 e23c fc11 f33d b550 d1bd
00000150: 6ca8 8f3d 31b3 1a3e b889 cf3c 7545 04be
00000160: 9908 ccbc f125 daba cd31 5f3d aa90 b13d
00000170: a299 e33c 203c dbbd 2f2e e3bd 84da a4bd
00000180: bdeb 0dbe 04e5 d1bd 9b3a d339 3090 673d
00000190: cbf3 11be 5bf4 ad3d 8021 833d 469b 05be
000001a0: 9338 2ebd 26b7 efbd 1532 64bb 7e66 9dbc
000001b0: 05f2 0abe 36cc 86bd f768 aebb e0bc 0c3d
000001c0: 31a3 a1bd cbe8 82bd cfef 943d ef44 9d3d
000001d0: 562a b83c 3b37 98bd 6a35 063e 300a ac3d
000001e0: 3cc8 08bd b49d df3d dab3 913d ccff 7abd
000001f0: 0629 9c3d e020 b93d df79 c13c 6dd6 063d
00000200: afc2 03bd d076 8c3d 3ce5 b4bc ff3e 05be
00000210: 59c8 913c a6e0 883d bf04 19be 28b1 91bd
00000220: 5477 acbd b927 a73d f3f3 243d 18d4 153e
00000230: a109 da3d d537 a03d be13 aa3d fc32 113d
00000240: da00 c33b 1cc3 0e3e 05a2 5d3d c23e 853c
00000250: d9eb 963c 6d45 14be ea3f 9a3d 56f2 163e
00000260: 506a 753d 61ef 51bd f718 083e 79c0 0a3d
00000270: b891 123e 48c6 b43a 7a8b 4d3d ef82 c0bc
00000280: d2b7 e83d f975 323d 72f9 b13d 4127 ac3c
00000290: 390a ad3b 18a6 b4bc 55eb 1b3e 567b dfbd
000002a0: 1031 aa3d 846b c6bb 7cbb 443d ea3a a03d
000002b0: 8728 183e bf63 a93d 862c d5bd c6b0 723d
000002c0: 6300 c4bd bd36 843d acad 6d3d 4607 03be
000002d0: 8a8b 1a3d 2fd7 413d b860 bcbb 9410 f9ba
000002e0: 58e8 1b3e e7e8 803d 8936 363d 4bef 1c3e
000002f0: 0a4a f83d 2c88 eabd c5d7 e63d 71e3 1d3e
00000300: 32b9 b8bd 6a51 f0bd 6425 2b3d 620c 06be
00000310: 3807 19be 78b4 e1bd 0192 733c b9d9 013e
00000320: a209 f03d 44aa a3bc 86ab 67bc 1610 1bbd
00000330: 5044 c53d a56f 063e 8e29 1b3e ce6f 0dbe
00000340: ce23 e0bd a57f 873d 3fa1 18be 1abf 17be
00000350: b420 bc3d a2fb 96bc bffa 0abe fd64 253b
00000360: 80e8 1d3e 1f79 893d 94b6 6e3d 6faf 81bd
00000370: a446 a3bd 87c9 073d 6658 e93c 8354 493d
00000380: 6a6d 843c a80d 2a3d 51ad 15be e697 c2bd
00000390: d288 943c 8372 0dbe cb1a 41bd 5d52 d2bd
000003a0: 38e5 babd 19d9 02bc 2ebe a93d e618 0f3e
000003b0: b521 163e e7b2 1c3e e7a9 b23d dcf7 58bd
000003c0: 8599 0ebe 6cf7 613d 6cb3 0b3e bbbe 9b3b
000003d0: 09a3 e03d 187c 853d 0fb1 6cbc b3b1 163e
000003e0: c5d8 bc3d bf9f 02be 7ac0 9c3c 6b72 f43d
000003f0: 5be9 b1bd c06d 273c 8263 de3d 659e e53d
-0.032984354 -0.10248039 0.11600226 0.06354232 -0.039288387 -0.020317739 -0.13625102 -0.0044882693
-0.007355638 0.008943517 0.058348168 -0.048683546 0.026983414 0.11293749 0.13829498 0.03167409
0.07917028 -0.020371689 0.0065008486 0.06500284 0.042772476 -0.10568867 -0.07851073 0.13885188
-0.047437873 -0.038123887 -0.090876296 -0.12057721 0.09224668 0.09858196 0.066732146 -0.06606542
-0.12897724 0.03233071 0.0005132441 0.043865446 0.111163504 0.069537416 0.0021172045 -0.12372233
0.11452134 0.08226477 0.058524854 -0.072208814 -0.027155224 -0.13741773 0.14789858 0.07172556
-0.05411548 -0.0394247 0.09516103 -0.092106216 0.12310369 -0.09934355 0.032934863 -0.08677369
0.13548708 0.0156195685 -0.07742152 -0.1374943 0.028170379 -0.08193756 0.15210588 0.12678677
-0.063402705 -0.058576 0.0057782526 -0.07024753 0.111404546 -0.13736002 -0.099127136 0.038376365
-0.1124802 -0.074623466 -0.090038866 0.10122421 -0.11612701 -0.108060345 0.13605484 0.048703764
0.06657228 0.027660394 0.118686646 -0.10220472 0.07014546 0.15107419 0.025334224 -0.12917121
-0.024906443 -0.0016643387 0.054490853 0.086701706 0.027783219 -0.10704827 -0.11092793 -0.08049491
-0.13859458 -0.102487594 0.0004028872 0.056533992 -0.14253156 0.08493873 0.06402874 -0.13047513
-0.042534422 -0.11704855 -0.003481989 -0.019213911 -0.13568886 -0.06581919 -0.0053225714 0.034359813
-0.078924544 -0.06392058 0.07272302 0.07679164 0.022481125 -0.074324094 0.13106313 0.084003806
-0.033394083 0.10918751 0.07114382 -0.061279103 0.07625012 0.090394735 0.023617683 0.032919336
-0.032168087 0.06858599 -0.022081964 -0.13012312 0.017795729 0.06683473 -0.14943217 -0.07113868
-0.084211975 0.08161873 0.04027171 0.14631689 0.10646368 0.07823149 0.08304547 0.035449013
0.0059510292 0.13941616 0.054109592 0.016265277 0.018423008 -0.14479609 0.07531722 0.14740881
0.05991584 -0.05125368 0.13290773 0.033874962 0.143134 0.0013792003 0.050181843 -0.023499934
0.11363186 0.04356954 0.08690156 0.021014811 0.0052807597 -0.022051856 0.15226491 -0.10912196
0.08310139 -0.0060552973 0.04803036 0.07823737 0.1485921 0.08270978 -0.10408883 0.059250616
-0.09570386 0.06455753 0.058026955 -0.12795743 0.03773073 0.047324356 -0.0057488345 -0.0019002133
0.15225351 0.062944226 0.044485603 0.15325658 0.12123497 -0.11451754 0.112716235 0.15418793
-0.09019698 -0.117342785 0.041783705 -0.13090661 -0.1494416 -0.1102075 0.014866353 0.12680711
0.11720587 -0.01997865 -0.0141400155 -0.037857138 0.0963217 0.13128527 0.1515257 -0.13812181
-0.10944329 0.06616143 -0.1490526 -0.14818993 0.09185925 -0.018430535 -0.13572215 0.0025237196
0.15420723 0.06712555 0.05827959 -0.063322894 -0.07972458 0.033151176 0.028484534 0.049152862
0.016165454 0.04151693 -0.14616896 -0.095016286 0.018131647 -0.13813214 -0.047144692 -0.10269616
-0.09125751 -0.00798633 0.08288227 0.13974342 0.14661296 0.15302621 0.087238126 -0.052970752
-0.1392575 0.0551676 0.13642663 0.0047529615 0.109685965 0.0651781 -0.014446511 0.14716224
0.09221033 -0.12756251 0.019134749 0.11935886 -0.08687087 0.0102190375 0.10858823 0.11211852

bias f4 [64]
00000000: d97c 8bbd 68a6 a53c 0b5d d8bc 7a78 dc3d
00000010: 7285 2abd 5031 2cbd a499 17be 9b22 d53c
00000020: b716 51bd dba6 a2bb 6587 91bd 9276 b33c
00000030: a08a c03d c338 cb3d 6cd0 7dbd 3a00 0e3e
00000040: f718 a4bd 3e4d 04be 57f8 1abe 4c47 2bbc
00000050: 1e62 503c 956d ecbd 3a43 bcbd 6eed 4f3b
00000060: 9e49 ebbd 54f2 c0bd e7a9 a7bc 51e9 1bbd
00000070: 0dbd f83d afa7 fabd 6ba6 cbbc 93d8 d13d
00000080: 6d54 7fbd df21 903d c51a b1bd c37d fa3d
00000090: ebab ccbd 2384 9b3d ca15 0f3e 4ede f8bd
000000a0: ed14 b8bd 3e54 c43b d391 d03b 5f9e 10be
000000b0: af88 ccbc 42ac 90bd 696c f23d 4040 eebd
000000c0: 0062 d03d 54c9 12be d848 193e b02c 923c
000000d0: 8ffd 4e3d 74ee 083e 1e19 e7bd ac97 3c3d
000000e0: b33f 113e abae 1b3d af44 78bd 40c0 d93d
000000f0: c216 98bc 9190 0f3e 0f85 0cbd 5b66 543d
-0.06810922 0.02022095 -0.026411554 0.107651666 -0.04163117 -0.042039216 -0.14804703 0.026017478
-0.051047053 -0.0049637384 -0.071059026 0.021907125 0.094014406 0.09922936 -0.061966345 0.13867274
-0.08012574 -0.1292009 -0.15133797 -0.01045401 0.012718705 -0.115443386 -0.0919251 0.0031727212
-0.11488651 -0.094212204 -0.020466758 -0.038064305 0.121454336 -0.12239014 -0.024859628 0.102463864
-0.062336374 0.070377104 -0.08647684 0.122310184 -0.09993728 0.075935625 0.13973156 -0.12151776
-0.08988366 0.0059914878 0.00636504 -0.14122914 -0.02496752 -0.070641056 0.11837084 -0.116333485
0.10174942 -0.14334613 0.14969194 0.017843574 0.05053478 0.13372213 -0.112840876 0.046043083
0.14184456 0.038008373 -0.060612377 0.10632372 -0.01856554 0.14019991 -0.034306582 0.051855426

weight f4 [64, 64]
00000000: f158 5e3c 5843 f53d 8953 43bd e03d f43d
00000010: 8788 49bd 7de0 89bc 7fe3 983d 7374 0abd
00000020: c6f5 63bc 8b17 353c 8b84 913d 4921 803d
00000030: 1153 89bd 285d 51ba 9fca fe3d 0b95 93bd
00000040: 8f14 c93d 484b 8d3d be10 81bd 0978 77bc
00000050: 076b 8a3d 5e4a da3d da39 823c 08a5 b53d
00000060: 93dd b73d 092f 973c 2f64 efbd a84f 6ebd
00000070: 3912 f1bd ebe4 083d 8ba0 fbbd aedb 9abc
00000080: ec1c 233d 6dc6 bb3a 6506 e4bc 94ea c1bb
00000090: c71c ffbd e256 27bd 94f0 d8bd a76f 4bbd
000000a0: 7348 ae3c 0e24 e2bd 2da9 15bd 49a1 d63c
000000b0: 3a66 a23d 4871 ae3c f7b1 c33d 8c91 c53d
000000c0: 7e6c 33bd 95d7 623c e25b 97bd 477b 31bd
000000d0: ed25 73bc 69ae 363d cd5f f1bd fee2 cb3d
000000e0: 4e35 383d a74d 6ebd 4f16 c1bc 8df3 753d
000000f0: c11d 6abd 379a 763d c1c2 583c 23b4 18bd
00000100: f4e4 953d 3d7e 8a3d 7e27 e13d 53d4 cf3d
00000110: 3f93 a4bc 8da0 81bd 24bf d9bd 957e 4abc
00000120: e7b1 7c3d 5c95 bc3d ac11 cc3a 76cf ce3d
00000130: 6e13 463d 205b 7c3c 64d0 cabd 841a 60bd
00000140: b9ed 583d 8c77 d9bd fa45 e73d 93f6 cb3b
00000150: 10ae dd3d 650d 6dbc 7277 a03c ea48 8c3d
00000160: c324 63bb 32b2 573d f775 ba3d a294 43bd
00000170: 21db 503d 9239 d4bb b2d7 6c3d 3f5f ea3d
00000180: e6d4 c23d 146e 7fbc 2923 793c d0a8 8d3c
00000190: 9c39 683d 723b d4bd b996 9b3d 84bc 9e3d
000001a0: 06bc a8bd 5ef7 203d 48ee 1cb9 a580 6ebd
000001b0: 316b 4fbd 5deb 4fbd 719f d8bd fe91 52bc
000001c0: b9d9 843d 8593 5a3d 5a6e a33d 773b 3bbd
000001d0: 43ca aa3c f43b f6bc ad44 c1bc 76b8 663d
000001e0: 6497 2c3d cdce 13bd 29ac 02bb b40d b23d
000001f0: ea28 84bc 1120 b9bd 7039 453d 312c 3dbd
00000200: d391 073d a879 5dbc 1c88 6d3d bd23 d73d
00000210: 12d1 ad3d 60bb 693d 202f c3bc 79d4 1e3c
00000220: 29e0 a43d d3bc 533d 0065 dc3d 5dbb 193c
00000230: 1766 c7bc 5133 313d 3a98 e6bd 0c45 ce3c
00000240: df2d b2bb 80ec b53d 0ce1 bb3b 8556 af3d
00000250: c885 31bc 9540 003d a432 c93d 456c 85bd
00000260: dd10 c7bd 8b31 dd3d 4642 db3d 316d 61bc
00000270: 08e7 f23d 3beb 843d 5baa 873b 1217 bb3d
00000280: 1601 c13d 98e1 c9bd 8004 bc3d 4a5b 033d
00000290: f83e 393d 4871 27bc 8de7 ad3d f0e7 863b
000002a0: 64ed a2bd 5811 603c 358b 863d a7d7 b23d
000002b0: 9671 cf3d db17 813d 5c5a a83d 79ec c9bd
000002c0: aea1 8f3d f61e e03d a2da d5bc a33b 8d3d
000002d0: 169b cc3d 0a39 503c 0596 1d3d 0a9f c8bd
000002e0: 4e7c c23b 21ee 1bbd 6b51 d73d 91e0 cd3d
000002f0: 51a2 613d d7ba c83d d89e c7bd 5575 76bd
00000300: 06fc ecbc 26d3 b6bb ceff 61bc 4f5e 333d
00000310: 9926 363d 5ea8 1cbd c459 99bd 502e a53d
00000320: f757 cf3d 5959 ffbd 6ccd 91bd b3dc 003d
00000330: 89d5 abbd 6b32 133d 7db2 febc 1030 7a3d
00000340: 91c1 a5bd e440 2fbd 9317 8cbd 4910 fa3d
00000350: 5c14 b73d f2dd a83c 21c4 413d 2848 653c
00000360: 236f 673d 9187 ff3d 0645 963d 0c2b 483d
00000370: d33c eb3d f567 57bc c944 e93d b41d e43d
00000380: 2107 1abc 9277 9f3d 0ff5 9c3d 8c26 0e3d
00000390: 80d2 9c3d 1d61 ecbd 2373 eebd e72e 393b
000003a0: ff22 8e3d eded 7f3d ccf3 f73d b1b3 e0bc
000003b0: 3d3b 79bd 78e4 69bd baf2 99bd d8bb 1d3d
000003c0: 70f9 a1ba 196e 653d 5d89 21bc 53df c3bd
000003d0: 991e eb3b b5ec 83bd ff8b 2cbd dbca 983d
000003e0: 3574 46bd f44e 9abd 0b91 7fbc 4d47 18bd
000003f0: 611e f83d 6c87 c5bb 8b56 c33d c00a 81bd
0.01357101 0.119757354 -0.047687087 0.11925864 -0.04920247 -0.016830677 0.074652664 -0.03380246
-0.013913577 0.011052976 0.07105359 0.06256349 -0.06705297 -0.00079865986 0.12440991 -0.07206162
0.09818374 0.068991244 -0.063020214 -0.015104302 0.06758695 0.10658716 0.015896726 0.08869368
0.08977809 0.018455045 -0.116890304 -0.058181435 -0.11771054 0.03342144 -0.122864805 -0.01890358
0.039822504 0.0014326103 -0.02783508 -0.0059178565 -0.12456661 -0.040854342 -0.10592762 -0.049667027
0.02127478 -0.11042033 -0.03653829 0.026199954 0.079296544 0.021294251 0.095554285 0.096469015
-0.043804638 0.013845344 -0.07390572 -0.043330457 -0.014840585 0.044599924 -0.11785851 0.09955405
0.04497271 -0.058179524 -0.023570208 0.06004672 -0.05715728 0.060205664 0.013230027 -0.037281167
0.0731906 0.06762359 0.10993861 0.101479195 -0.020089744 -0.06329451 -0.1063216 -0.012359281
0.0616931 0.092081755 0.0015569231 0.10098164 0.048358373 0.015402585 -0.099030286 -0.054712787
0.052961085 -0.10618505 0.11292644 0.0062244623 0.108242154 -0.014468526 0.019588206 0.06849845
-0.0034659363 0.052660175 0.09104531 -0.04774917 0.050990228 -0.0064765895 0.05782289 0.11443948
0.095132634 -0.0155902095 0.015206137 0.01729241 0.056695566 -0.10362901 0.075971074 0.077508
-0.082389876 0.039298408 -0.00014966086 -0.058228154 -0.050639335 -0.05076157 -0.10577286 -0.01285219
0.0648684 0.05336334 0.07980032 -0.045711007 0.020848399 -0.030057885 -0.023592317 0.05632826
0.042136565 -0.036085892 -0.0019939041 0.0869402 -0.01613279 -0.09039319 0.04815048 -0.046184722
0.033098053 -0.013517775 0.057991132 0.105048634 0.084871426 0.05706346 -0.023826182 0.009694212
0.08050568 0.05169375 0.10761452 0.00938305 -0.024340672 0.04326183 -0.11259504 0.025179408
-0.005437597 0.088829994 0.005733615 0.08561424 -0.010835119 0.03131159 0.09824112 -0.065147914
-0.09720013 0.10800465 0.10706 -0.013758943 0.11860472 0.06490179 0.004140181 0.0913526
0.09424035 -0.09857482 0.09180546 0.032069482 0.045226067 -0.010219879 0.084914304 0.0041170046
-0.07955435 0.01367601 0.065695204 0.08732539 0.10129087 0.06303378 0.0822036 -0.09859557
0.0701326 0.10943405 -0.026105229 0.068961404 0.09990518 0.012708912 0.038473148 -0.09795959
0.0059352284 -0.038068894 0.10513576 0.10052598 0.055086438 0.09801262 -0.09747094 -0.06017049
-0.028928768 -0.00557937 -0.013793899 0.04379111 0.044470403 -0.038246505 -0.074878246 0.08065474
0.101242 -0.124682136 -0.07119259 0.031460475 -0.08390338 0.035936754 -0.03109097 0.061080992
-0.080935605 -0.042786494 -0.06840434 0.122101374 0.0893943 0.020613644 0.047306184 0.013994254
0.056502473 0.12477029 0.07337384 0.048869178 0.11486211 -0.013147344 0.11390073 0.11138478
-0.009401114 0.07786478 0.07663929 0.03470473 0.07657337 -0.115419604 -0.11643054 0.0028256716
0.06940269 0.062482763 0.121070474 -0.027429434 -0.06084751 -0.05710265 -0.075169995 0.03850922
-0.0012357663 0.0560132 -0.00985941 -0.0956408 0.0071752784 -0.06441633 -0.0421257 0.074605666
-0.048450667 -0.0753459 -0.015598546 -0.037177373 0.12115169 -0.0060281064 0.09537991 -0.063008785

bias f4 [64]
00000000: 42aa c53c d0e0 4fbd 9d28 d3bc 0a2e d73d
00000010: 6a0f 9bbd 1faa ed3a a900 8f3d 9cd5 edbd
00000020: 654d 4d3c 04e6 59bd 5a60 eb3d 336d fd3d
00000030: 6d9f a0bc a36b 9abd 855c a9bc 050c 9f3d
00000040: 3b72 f6bd d6e8 dbbd 8fd3 99bd e71d 99bb
00000050: 8535 a03d bd5f 6d3c 9912 653d f0a1 e93d
00000060: 0697 053d cec0 77bc 9b71 77bd 7b5e 9abc
00000070: 18c3 873c 5e55 c0bd 48e2 293d 908a e63d
00000080: 8dd2 c83d 3004 7cbd 7914 cb3d 8c9e d83d
00000090: b111 c13d 29fb 3cbd b9a7 b43d 0a83 d0bd
000000a0: 48ef f3bd 4c2b 943d 396a b83b 1e99 ddbd
000000b0: a5b7 aa3c 558e 8fbd 0b6f 833d eb55 a5bc
000000c0: f724 91bd 2367 fe3d debb 1b3c a245 1b3d
000000d0: 1154 c1bd 747d 403d 09de 4d3d e279 f9bd
000000e0: 2881 e63d 84f4 ec3c 6bbf 333d 67d1 9a3c
000000f0: 31ff 8dbd 6a1e 37bd 6eee 67bd 2d05 a9bd
0.024129037 -0.050751507 -0.025776202 0.10506828 -0.075712994 0.0018132365 0.06982548 -0.116130084
0.012530659 -0.053197876 0.11492987 0.12374344 -0.01960727 -0.07540061 -0.020674 0.077659644
-0.120335065 -0.10737769 -0.07511055 -0.004672754 0.07822708 0.014488158 0.05592594 0.1140784
0.03261473 -0.015121652 -0.060411077 -0.01884388 0.01657252 -0.093912825 0.041475564 0.112568974
0.098057844 -0.06152743 0.09916014 0.105771154 0.094272025 -0.046137962 0.08821053 -0.10181244
-0.11910874 0.07234821 0.005627897 -0.108202204 0.020839522 -0.070095696 0.06417664 -0.02018257
-0.070871286 0.124220155 0.00950524 0.037908204 -0.094398625 0.04699464 0.050260577 -0.121814504
0.11255103 0.028925188 0.043883722 0.018898679 -0.069334395 -0.04470674 -0.05662387 -0.0825294

weight f4 [7, 64]
00000000: 6400 f4bd d904 f93d 70f6 963d 4d94 93bd
00000010: ddf1 a2bc a174 cfbc 1342 d3bd e707 dbbc
00000020: 2236 6abd 0ea0 f93c 0102 703c 7dfe ddbd
00000030: 1a68 693c 7065 77bd ae14 ebbc f866 d73c
00000040: bd4a febc 0ed4 023c f290 5e3d b902 943d
00000050: 09c9 a83d 69d8 b23d f71b b7bd 7ee1 fb3c
00000060: fa2c c13d 95e2 d33d 059e e73c 28d2 f93d
00000070: e885 21bd e540 d63d f314 903d e126 8a3c
00000080: 3702 a1bd 273a 86bd 8f2b 36bd a88e d23d
00000090: 5eb5 793d 5a40 4e3c 7d54 71bc 3f96 47bc
000000a0: 919b 0e3d 4a64 93bd 63e0 c13d fa70 743d
000000b0: f5e0 94bc b266 5fbd 0ad7 6abc b10c 6fbd
000000c0: 438f dfbc b802 d7bd 1c28 cbbc b91b ee3d
000000d0: da66 8fbd aaec de3c 2c34 3abd 3818 953d
000000e0: 64cd e2bd a975 28bd 1cfd 77bd 47e9 2b3d
000000f0: df61 88bd fac2 c0bd 048d da3d 130c 983d
00000100: ea77 dcbd f0c4 8abd 70c1 a3bd 4a03 4dba
00000110: b054 253d a219 f7bd 1786 f93d 7ace be3c
00000120: 2336 90bd 57ff b63d 012e 77bc d256 8c3d
00000130: 56a4 f33d b32d e7bd bdd8 023b 3b3a 85bd
00000140: d2e0 d3bd a45d 47bd b326 783d 3891 9dbd
00000150: 81be debc 4dfe e63d d29d b3bd 43bc df3d
00000160: 699b fbbd aa27 d53d 21c2 a23d 3eb8 99bd
00000170: b02d f53d 1afc fbbd 2fdc a5bd 3cea bc3d
00000180: 3d59 6e3c 34c5 3ebc c27e 91bd 1efc dc3d
00000190: c54c b43d 1e8c 743c e286 e4bd 27bc 9abd
000001a0: f513 753d 22a1 d33d a457 f0bd c6e6 783d
000001b0: 5367 bb3d f948 713d 4a26 b33d 18ec 923c
000001c0: ef8b 6d3d 760f 433d 7473 2f3d 1a72 a7bd
000001d0: 80d9 03bd b724 7f3d 2243 c73d 87dd 9abc
000001e0: cc2d d23d 5064 8e3d 7364 0fbd bc17 17bd
000001f0: 9485 7abd 9346 f8bd 3fd3 483c b2df bb3d
00000200: ec0d 81bd e19f bb3d b4d1 a6bc 9417 143d
00000210: 3391 6fbd da53 83bd 12a0 d93d 1917 db3d
00000220: 2131 a6bd 1d0d a8bd d08f 153d 7d72 c83d
00000230: 57c4 6ebd a266 d43d 6119 1e3d 5099 2b3d
00000240: 8ed5 943d 2d45 fbbd bdc4 4f3c ea06 cabd
00000250: f722 87bd c27f 973c 7b15 80bc ecb0 79ba
00000260: cc27 7dbd 2c4d 05bd 56d4 e13d fe84 92bd
00000270: 1b25 743d 4206 fdbd e87f 59bd 5883 a5bc
00000280: 5ba9 053b 2544 41bd 109f 3fbc a9c4 6cbd
00000290: 9d7d eabd 4e39 7dbc 81b2 4b3d f427 49bd
000002a0: 831e 583d cc86 d13d aedf bd3d b720 913c
000002b0: 15e7 f23d fd1f ea3d 5c57 a73d 4b62 38bc
000002c0: 92bd e2bd d279 953d ba9f 823d 56b4 edbd
000002d0: cade 87bd 047b b03d 4426 683c 90c7 debd
000002e0: 4b73 fdbc 697c 1a3d fd55 aabd ad12 debd
000002f0: 95b0 99bc c37f a7bd 67e3 f43c 9f09 23bc
00000300: 1b97 b8bd 2408 bf3d c84c 08bd 2e6a a63d
00000310: b80b 9cbc 5194 fbbd 1881 21bb 503c 9bbc
00000320: 466c 323d bf0e 393c ece4 4ebd 342e 89bd
00000330: e2ba 9bbd 7976 5c3d 0982 be3d 1f15 5dbd
00000340: f2c1 91bd 16bc 48bd 0e8b 183c dfc1 b0bc
00000350: 6d4a 65bd 8323 47bc dfec 6a3d d6a7 fa3d
00000360: f222 953d 52d0 ce3d 44f0 803b 6208 7fbb
00000370: 47f9 fcbd 3b3b c23d ad9b df3d b0d6 a5bd
00000380: 83a4 f7bd 27a6 b93d ebe6 203d 1b2f 38bd
00000390: ebc9 ce3a 6ccb 173d 46a0 d8bc c105 bcbd
000003a0: a8c7 fcbc 166e 933d 6450 06bc dc2e c5bc
000003b0: f894 7fbb b7f2 dd3a 473a a5bc 213a c43d
000003c0: 5e9f fcbd efff efbd 47dc c0bd 057b b4ba
000003d0: a6e8 bfbd e1f3 d8bd 1eac dd3d 3515 a53d
000003e0: 245d 92bd e397 e53d 3b66 4a3c c3ff 05bd
000003f0: 6634 8dbd 0cab 303c 6c7f ec3d 2710 f7bd
-0.11914137 0.12159128 0.07371223 -0.072060205 -0.01989072 -0.025324168 -0.10315337 -0.026737167
-0.05718053 0.030471828 0.014648915 -0.108395554 0.014246011 -0.060399473 -0.028696384 0.026294217
-0.031041497 0.007985128 0.05433745 0.07227082 0.082414694 0.08732683 -0.08940881 0.030747171
0.09432407 0.103459515 0.028273592 0.12198287 -0.039434344 0.104615964 0.07035246 0.016864242
-0.078617506 -0.065540604 -0.044475134 0.10281116 0.06096398 0.012588585 -0.014729616 -0.012181818
0.03481633 -0.07196863 0.094666265 0.059678055 -0.018173674 -0.054541297 -0.014333496 -0.058361713
-0.027289992 -0.104985654 -0.0247994 0.116263814 -0.07002039 0.02721246 -0.04545991 0.0728001
-0.110743314 -0.041127834 -0.06054412 0.041970517 -0.066592924 -0.09412189 0.10671428 0.07424178
-0.10765059 -0.06775844 -0.0799588 -0.00078206195 0.040363967 -0.12065436 0.12183779 0.023291815
-0.07041576 0.08935421 -0.015086652 0.06852497 0.11896579 -0.11288013 0.0019965612 -0.06505247
-0.103456154 -0.048673287 0.06058378 -0.07693714 -0.027190449 0.11278973 -0.08770336 0.1092458
-0.122855015 0.10407956 0.079471834 -0.075058445 0.11971605 -0.12303944 -0.08098637 0.09224364
0.014547643 -0.011643697 -0.07104255 0.10790275 0.08803705 0.014925985 -0.11158539 -0.075554185
0.059833486 0.10333468 -0.11735466 0.060766958 0.09150567 0.058907483 0.087475374 0.017934844
0.05799478 0.047622167 0.042834714 -0.0817606 -0.032189846 0.062290873 0.097296014 -0.01890446
0.10262641 0.06952727 -0.035007905 -0.03688787 -0.061162546 -0.12122836 0.012257396 0.09173526
-0.063014835 0.09161354 -0.020363666 0.0361553 -0.058488082 -0.06412478 0.10626234 0.10697765
-0.08114839 -0.08205626 0.036514103 0.09787462 -0.058292713 0.10371138 0.038598422 0.041894257
0.07267295 -0.122690536 0.012681183 -0.098646 -0.06598466 0.018493537 -0.015635243 -0.00095249596
-0.06180553 -0.0325443 0.11026828 -0.071542725 0.0596057 -0.12354709 -0.053100497 -0.020204231
0.0020395133 -0.04718413 -0.011695638 -0.057804737 -0.1144974 -0.015455557 0.04973078 -0.049110368
0.052763473 0.102307886 0.09271179 0.017715795 0.11860482 0.114318825 0.08170959 -0.011253904
-0.11071314 0.07298626 0.06378122 -0.11606662 -0.066342905 0.08617213 0.0141692795 -0.10877907
-0.030938765 0.037716303 -0.08317182 -0.10843406 -0.018760959 -0.081786655 0.02989359 -0.009951024
-0.09013196 0.093277246 -0.03327635 0.08125721 -0.019048557 -0.122841485 -0.0024643596 -0.018949658
0.04356029 0.01129502 -0.050511286 -0.06698266 -0.076040044 0.05382392 0.09302146 -0.05397522
-0.0711707 -0.049007498 0.009310497 -0.02157682 -0.05597918 -0.012154463 0.057354804 0.122390434
0.07282056 0.10098328 0.003934892 -0.0038914909 -0.123522334 0.094839536 0.10918365 -0.08097589
-0.12091925 0.09064894 0.03928272 -0.0449668 0.0015776729 0.037059233 -0.026443612 -0.09180785
-0.030856922 0.071987316 -0.008197878 -0.024070196 -0.0038998704 0.0016933297 -0.02016939 0.095814
-0.123350844 -0.11718737 -0.094170146 -0.0013769573 -0.09370546 -0.10593391 0.108238444 0.080606855
-0.071466714 0.11210611 0.012353475 -0.032714617 -0.0689476 0.010782968 0.11547741 -0.12063628

bias f4 [7]
00000000: b2fc d13d 57d4 b5bd 72a5 e3bd 93d7 e83c
00000010: ef66 81bb c457 bf3d 6cd7 cc3d
0.10253276 -0.08878391 -0.111155406 0.028423106 -0.003949038 0.09342912 0.10002026

weight f4 [7, 7]
00000000: 7835 fe3b fc7f 673e 0cb1 8e3e 9fdc b13d
00000010: 46ca 10bd 6db8 a93a f4c7 a7be bad4 a7be
00000020: 76ae 85bc ee7b 33be 3b2b f43d 8828 81be
00000030: 5670 4dbe 4e09 853e 38ce 1ebe f6d0 2b3e
00000040: df42 123e 6b52 a03e 3b53 17be 78a6 bd3e
00000050: 4a7f 903e 9303 773e bc35 f63d 29c6 ad3e
00000060: 3f1b b1be 5cb4 9ebc e555 ba3c 565a 763e
00000070: c86d f9bd 42b4 123d abb7 843e 0653 fb3d
00000080: 525b a3bd bb62 bebe c2c9 a93e e515 9c3e
00000090: 080e babe f0c4 b8bc b6ce 673e 2022 403d
000000a0: c229 7fbe 2067 acbd f058 893e c3c2 1d3e
000000b0: b101 6dbe 9bc2 39be 7780 953e 2bfa 19be
000000c0: 485f 983e
0.007757839 0.22607416 0.2786945 0.08684658 -0.035349153 0.001294864 -0.3276974 -0.32779485
-0.016318541 -0.17527744 0.11922308 -0.25226235 -0.20062384 0.2598366 -0.15508354 0.16778931
0.14283322 0.3131288 -0.14777844 0.37041068 0.28222114 0.24122457 0.12021968 0.33940247
-0.345911 -0.019373111 0.022746036 0.24057898 -0.12179142 0.03581644 0.25921378 0.12271695
-0.07976402 -0.371847 0.33161741 0.30485454 -0.3633883 -0.022554845 0.22637448 0.046907544
-0.24918273 -0.08418107 0.26825666 0.15406327 -0.23145176 -0.18140642 0.29199573 -0.15036838
0.29760194

bias f4 [7]
00000000: 1a5c 443e dd4b 423e f86f 913c 5792 463e
00000010: d0eb ac3e 3250 9ebe 9f18 943d
0.19175759 0.18974252 0.017753586 0.19391762 0.3377366 -0.3092056 0.072312586
