logs/cp2_agent1_050924-034435.pth (torch, 67322 bytes, 16 tensors)

weight f4 [64, 42]
0	0xbc37c5a7	-0.011216558
1	0xbd8df5e7	-0.06931668
2	0xbc37d894	-0.01122107
3	0x3d807e07	0.06274038
4	0xbca9242e	-0.020647135
5	0xbde882f2	-0.11353101
6	0x3db1ab23	0.0867522
7	0x3d2aae5f	0.0416702
8	0xbd893a6b	-0.067005955
9	0xbe085ef3	-0.1331747
10	0xbcaece84	-0.021338709
11	0xbe0742ca	-0.13209072
12	0x3d812eba	0.063077405
13	0x3e166efa	0.14690772
14	0xbcc672f7	-0.024224741
15	0xbd7b389b	-0.06133328
16	0xbdf7e190	-0.121035695
17	0x3db417bc	0.087935895
18	0xbca2c47d	-0.019869084
19	0xbdf5bf05	-0.11999325
20	0x3dd5f395	0.1044685
21	0x3d241bb3	0.04006548
22	0x3cb84c4f	0.022497324
23	0xbd94f32d	-0.072729446
24	0xbe0417bb	-0.12899677
25	0x39011006	0.00012308368
26	0xb79df071	-1.8827823e-05
27	0x3deda3ee	0.11603533
28	0xbd725c9d	-0.059170354
29	0xbd88fcf4	-0.06688872
30	0xbcd5b612	-0.026087794
31	0xbd84c10c	-0.06482133
32	0x3de0714e	0.10959111
33	0x3ce6f4a5	0.028192827
34	0x3d142976	0.036172353
35	0x3dd169c2	0.1022525
36	0x3e0269f8	0.12735736
37	0x3dab8a9a	0.083760455
38	0x3bea45cc	0.0071494337
39	0xbe108af3	-0.14115505
40	0x3d8e5abf	0.06950902
41	0xbd98447c	-0.07434937
42	0x3e138fd5	0.14410336
43	0x3d85f013	0.06539931
44	0x3e0c35a9	0.13692345
45	0xbdf428d6	-0.11921851
46	0x3e062c1b	0.13102762
47	0x3e0594c7	0.13045035
48	0xbd0c2835	-0.034218032
49	0xbdf7764b	-0.120831095
50	0x3dd3f7c3	0.10349991
51	0x3df131f0	0.11777103
52	0xbc7192b6	-0.014744451
53	0xbd49906d	-0.04921
54	0x3e173f0e	0.14770147
55	0xbd804388	-0.062628806
56	0xbe0dde1c	-0.13854259
57	0xbe06adb0	-0.13152194
58	0xbd14f4fd	-0.03636645
59	0x3e04e7ec	0.12979096
60	0xbe167b40	-0.14695454
61	0xbd89e694	-0.067334324
62	0x3db74f0c	0.08950624
63	0x3bf55d95	0.0074879625
64	0xbd1b0a51	-0.037851635
65	0x3d06cbcc	0.0329092
66	0xbdb8377a	-0.08994956
67	0x3ced30c8	0.028953925
68	0xbd155b99	-0.036464307
69	0xbe1ab296	-0.15107188
70	0xbd851a72	-0.06499185
71	0xbdf08b46	-0.11745314
72	0xbcbb2ded	-0.022849048
73	0x3e00674f	0.12539409
74	0x3ce11718	0.027476832
75	0x3dfc755f	0.12327074
76	0xbcfb01d2	-0.030640516
77	0xbd9b0308	-0.075689375
78	0xbd8b7426	-0.06809263
79	0xbded2920	-0.115801096
80	0xbddd53ba	-0.10806985
81	0x3d2f3f3a	0.042784907
82	0xbd9c1cbc	-0.07622668
83	0x3e0ee56a	0.13954702
84	0x3de69e46	0.11260657
85	0xbd403bf2	-0.04693217
86	0xbdb77b5e	-0.08959077
87	0x3dfe2a27	0.12410384
88	0xbd8d1ea0	-0.06890607
89	0x3de285c1	0.11060668
90	0x3e0045fe	0.125267
91	0x3cd5cf4b	0.026099822
92	0x3d3520fc	0.04422091
93	0xbde21ef6	-0.110410616
94	0x3e193f1f	0.14965485
95	0x3da6d48c	0.08146009
96	0x3d4b0122	0.049561627
97	0x3cbcbe4b	0.023039958
98	0xbda660fb	-0.08123966
99	0x3daf07d1	0.08546413
100	0x3c43a196	0.011940381
101	0x3d054e02	0.032545097
102	0xbce20a42	-0.027592782
103	0x3d55dd19	0.05221281
104	0xbd7ad5b6	-0.061238967
105	0x3d77d278	0.060503453
106	0x3df311cf	0.11868631
107	0xbe0e2c3d	-0.13884063
108	0xbd2ad7f8	-0.04170987
109	0xbbddf83b	-0.006773976
110	0xbe16ac8f	-0.14714263
111	0xbd4b16c8	-0.049582273
112	0x3b7828b0	0.0037866049
113	0x3c4725fb	0.012155051
114	0xbde3c86c	-0.11122212
115	0x3cdc1ce4	0.026869245
116	0xbe143d82	-0.14476588
117	0xbe1646d4	-0.14675456
118	0xbd5ed818	-0.0544053
119	0x3d3ed85e	0.046593063
120	0xbcd692a1	-0.026192965
121	0x3d3b7582	0.04576636
122	0x3d1eedb4	0.03880091
123	0x3dd1aaea	0.102376774
124	0xbe053338	-0.1300782
125	0x3ddce6cb	0.10786208
126	0x3dfc0b1a	0.12306805
127	0xbd3443ce	-0.044009976
128	0x3d1fb516	0.038991056
129	0x3dc7d950	0.09758246
130	0xbdcc99cc	-0.09990272
131	0x3d588d4e	0.052869134
132	0xbdcd8a69	-0.10036165
133	0x3d9bf7fb	0.07615658
134	0x3d131c8d	0.0359159
135	0xbe0ca8d3	-0.13736276
136	0x3e1ba959	0.1520132
137	0x3de7b270	0.11313331
138	0xbc823f27	-0.015899254
139	0x3c9805d9	0.018557476
140	0xbdc066be	-0.093945965
141	0xbc90ea9f	-0.017690001
142	0x3d4bab10	0.049723685
143	0xbde9fb7a	-0.114249185
144	0x3d50f1da	0.051011898
145	0xbc1fd2c9	-0.009754845
146	0xbdded377	-0.108801775
147	0x3d59d009	0.053176913
148	0x3d43e8d5	0.047829468
149	0x3dd39851	0.103317864
150	0xbd7a5d4c	-0.06112413
151	0xbdd8a5f2	-0.105785266
152	0xbe1ba1f5	-0.151985
153	0x3d54e6ea	0.05197803
154	0x3d81c15e	0.0633571
155	0x3dc0556a	0.093912914
156	0x3e1bca02	0.15213779
157	0xbdb44528	-0.08802253
158	0xbd1e44f2	-0.03863997
159	0xbdbec87f	-0.09315585
160	0x3d5c6d81	0.05381537
161	0xbc57719a	-0.013149643
162	0xbdbef4cf	-0.09324037
163	0xbc98c7b1	-0.018649908
164	0xbdb6fb19	-0.08934612
165	0xbd9a4966	-0.07533531
166	0xbd0486b8	-0.03235504
167	0x3e165971	0.14682557
168	0x3dc9b216	0.0984842
169	0x3dbda9ec	0.09260926
170	0xbe1ccaef	-0.15311788
171	0xbd4df51e	-0.05028259
172	0xbcde8758	-0.027164146
173	0xbe03d669	-0.1287476
174	0xbc9f25e0	-0.01942724
175	0xbd8f03c3	-0.06983139
176	0x3df08f18	0.11746043
177	0xbbf8ef99	-0.0075969216
178	0x3d9764ed	0.07392297
179	0xbdbe713a	-0.0929894
180	0x3dce0d0b	0.100610815
181	0xbdcfc2a5	-0.101445474
182	0xbdc4e939	-0.09614796
183	0xbd480108	-0.04882911
184	0xbc3f56a3	-0.011678371
185	0xbd7ee6f8	-0.062231988
186	0xbcbb9cf5	-0.022901991
187	0xbde8641d	-0.1134722
188	0x3d888212	0.06665434
189	0xbda428d2	-0.08015598
190	0xbddc78c3	-0.10765221
191	0xbd18f4d3	-0.037342858
192	0xbe0aa77e	-0.13540456
193	0x3db30614	0.08741394
194	0xbddfdf11	-0.109312184
195	0x3d508cd0	0.05091554
196	0x3d044834	0.03229542
197	0x3e18828c	0.1489355
198	0x3d5e7a54	0.05431588
199	0x3dc67170	0.09689605
200	0x3d1f026a	0.03882066
201	0x3ca6eb46	0.020375859
202	0x3db40a56	0.08791034
203	0xbd903e8d	-0.070431806
204	0x3e1cbcec	0.15306443
205	0x3d0d9a3b	0.034570914
206	0xbe17b91b	-0.14816706
207	0x3df94110	0.12170613
208	0x3ded6861	0.11592174
209	0x3e18a084	0.14904982
210	0xbc82236f	-0.015886037
211	0x3cd5d8d5	0.02610437
212	0x3c92f4ad	0.017938936
213	0xbdad0b7b	-0.08449455
214	0x3d6dd7ee	0.058067255
215	0xbe1c1ed1	-0.1524613
216	0xbcfb8654	-0.030703701
217	0xbd9eed35	-0.077600874
218	0xbd19394a	-0.03740815
219	0xbba463ea	-0.0050167935
220	0xbd2f6d14	-0.042828634
221	0xbc74bda8	-0.014937796
222	0x3de9513b	0.113924466
223	0xbd55438c	-0.05206637
224	0x3d9fdbc6	0.0780559
225	0xbdc8496b	-0.09779628
226	0x3d1f743b	0.038929205
227	0xbc6c07dc	-0.014406171
228	0xbdbb25e4	-0.091380864
229	0x3e07d2b4	0.1326397
230	0x3d9e6dcf	0.07735788
231	0x3e05cbb2	0.13065985
232	0xbc24363a	-0.010022694
233	0x3c1efdb4	0.009704042
234	0xbd9e49b7	-0.07728904
235	0x3e17f7e3	0.14840655
236	0xbd6ac587	-0.057317283
237	0xbe103629	-0.1408316
238	0x3b82d4c9	0.003992651
239	0xbdca33bf	-0.09873151
240	0x3e01de68	0.12682498
241	0xbc04fea1	-0.008117349
242	0x3ad81839	0.0016486711
243	0xbd209eb5	-0.039213855
244	0xbd6763fb	-0.056491833
245	0x3e1550c4	0.14581591
246	0xbcab749b	-0.020929625
247	0xbd83f4b8	-0.06443161
248	0xbc12586d	-0.008932215
249	0x3c3b79b3	0.01144259
250	0x3db37847	0.087631755
251	0xbde9d92e	-0.11418377
252	0xbe1b42d9	-0.15162219
253	0x3c03ad2b	0.008036892
254	0x3e02cc9f	0.12773369
255	0x3de8feed	0.11376748

bias f4 [64]
0	0x3d96861e	0.073497996
1	0x3da6f6c9	0.08152539
2	0xbd033faa	-0.032043137
3	0x3d13eab2	0.036112495
4	0x3e14c85c	0.14529556
5	0xbdec2990	-0.11531365
6	0xbdc692cd	-0.09695969
7	0xbe1c5bb5	-0.15269358
8	0x3dd573cd	0.10422478
9	0x3cf90839	0.030399429
10	0xbc2702e2	-0.010193558
11	0x3d77c6f7	0.060492482
12	0xbcd6ebf0	-0.02623555
13	0xbe02b375	-0.1276377
14	0xbd5103d7	-0.051029053
15	0xbdcbd133	-0.09952011
16	0xbd71c03f	-0.05902123
17	0x3d9c471a	0.07630749
18	0x3e040b07	0.12894832
19	0x3d591001	0.05299378
20	0xbe00a11a	-0.12561455
21	0xbcdb069f	-0.026736556
22	0x3d783d95	0.060605604
23	0x3c906024	0.017623968
24	0x3dcde15c	0.100527495
25	0x3df57cb9	0.119866796
26	0x3c075484	0.008259896
27	0x3e0e2d90	0.13884568
28	0xbdd9d94f	-0.106371514
29	0x3e190716	0.1494411
30	0x3d9c040e	0.07617961
31	0x3e00fb1a	0.12595788
32	0xbd6c368f	-0.05766922
33	0xbd8d17f3	-0.068893336
34	0x3e02a49c	0.12758106
35	0xbddaca4d	-0.10683117
36	0x3d868267	0.06567841
37	0xbdff175e	-0.12455629
38	0xbdaec0b2	-0.085328475
39	0xbd94c2b2	-0.07263698
40	0xbdc01b1f	-0.09380173
41	0xbd440839	-0.047859404
42	0xbde439e7	-0.111438565
43	0x3b98e680	0.0046661496
44	0x3d0b15a1	0.033956174
45	0x3c3357d9	0.0109462375
46	0xbe1c6299	-0.15271987
47	0xbdafd10d	-0.08584795
48	0xbbf7b051	-0.0075588604
49	0x3d5ddd9b	0.054166418
50	0x3e19324d	0.14960594
51	0x3d92c6b0	0.07166803
52	0xbda26223	-0.07928874
53	0xbd69edf4	-0.057111695
54	0xbdd65318	-0.104650676
55	0x3b3d52f5	0.0028888558
56	0x3d2ce02a	0.042205967
57	0x3e05ef9d	0.13079686
58	0xbd115189	-0.03547815
59	0xbca7c700	-0.020480633
60	0x3b8c607e	0.0042839637
61	0xbc827a37	-0.015927417
62	0xbdb43cba	-0.08800645
63	0xbc017c8a	-0.007903228

weight f4 [64, 64]
0	0xbc505255	-0.012714942
1	0xbdc9fe92	-0.098630086
2	0xbcc60653	-0.024172937
3	0xb9aec48c	-0.00033334305
4	0x3df121e2	0.11774041
5	0xbb6cd54a	-0.0036137872
6	0x3d365237	0.044512
7	0x3df494ab	0.11942419
8	0x3c958eb4	0.018256523
9	0xbd483593	-0.048879217
10	0xbd9395eb	-0.07206329
11	0x3da5a5d2	0.08088268
12	0x3da91529	0.08255989
13	0x3d297306	0.04136946
14	0xbd6cbb62	-0.05779589
15	0xbd5c611e	-0.053803556
16	0xbd9077a5	-0.070540704
17	0xbdd1f86e	-0.10252462
18	0x3deeace0	0.11654067
19	0xbb550824	-0.0032506073
20	0xbd61e644	-0.05515124
21	0xbde37c7a	-0.111077264
22	0xbdbe4b36	-0.09291689
23	0x3dbfa29e	0.09357189
24	0x3d93da89	0.07219417
25	0x3d296c3c	0.041362986
26	0xbcf24f58	-0.02957885
27	0x3d26f7f7	0.04076382
28	0xbd7e6f18	-0.062117666
29	0x3d8d4d72	0.06899537
30	0x3db42fab	0.087981544
31	0x3a76e434	0.000941816
32	0xbd8d4a01	-0.06898881
33	0x3de76543	0.11298611
34	0xbcbe0566	-0.023195934
35	0x3bab1fa8	0.0052222796
36	0xbde28897	-0.11061209
37	0xbd429fcd	-0.04751568
38	0x3c6a18f7	0.014288179
39	0x3dd63b96	0.10460584
40	0x3bf50839	0.007477787
41	0xbdb28dec	-0.08718476
42	0xbd61176c	-0.054953977
43	0xbcabf22b	-0.020989498
44	0xbd2e35d4	-0.042531803
45	0x3ddd5e83	0.10809042
46	0xbdb5cf39	-0.08877415
47	0xbcbae16e	-0.022812571
48	0x3cbfcc79	0.02341293
49	0xbcf56534	-0.029955484
50	0x3bc04131	0.0058671464
51	0x3d3b1b12	0.045680113
52	0x3d77df82	0.060515888
53	0x3dc2c0d7	0.095094375
54	0x3daf51f8	0.08560556
55	0x3d51cd0f	0.05122095
56	0x3dde8d30	0.10866773
57	0xbda2588e	-0.07927047
58	0x3dd7b699	0.105328746
59	0xbdd8158a	-0.10550983
60	0x3de7af1e	0.11312698
61	0x3df776bd	0.120831944
62	0x3dc2234b	0.09479388
63	0xbd918193	-0.071047924
64	0x3d1c9696	0.038229547
65	0xbdc3dc08	-0.09563452
66	0x3dd07423	0.10178401
67	0x3ddf3e1d	0.10900519
68	0xbdede3ea	-0.11615737
69	0xbd517219	-0.051134203
70	0x3d0661ba	0.032808043
71	0xbcf581b9	-0.029969083
72	0xbcd266ee	-0.025683846
73	0xbdc9c396	-0.09851758
74	0x3cc7826b	0.02435418
75	0xbd50f483	-0.051014435
76	0xbd851a6d	-0.06499181
77	0xbdd78a81	-0.105244644
78	0x3d90478c	0.070448965
79	0xbba877ee	-0.00514125
80	0x3d975028	0.073883355
81	0x3df77912	0.12083639
82	0xbd176e35	-0.036970336
83	0x3d4e7d44	0.05041243
84	0x3d8e4dd5	0.06948439
85	0x3dcaabd9	0.098960586
86	0x3d82ecab	0.06392797
87	0x3de4f3e5	0.11179332
88	0x3dfa4b22	0.12221362
89	0xbd21d47a	-0.039509274
90	0x3df6b9e6	0.12047176
91	0xbd27b849	-0.040947232
92	0xbce6defa	-0.028182495
93	0xbd48e1b2	-0.049043365
94	0x3d8308ea	0.063981846
95	0xbdf8a9a7	-0.121417336
96	0xbd142421	-0.036167268
97	0x3d4a3c6c	0.04937403
98	0xbd943def	-0.072383754
99	0x39f2e796	0.00046330382
100	0xbaccd846	-0.0015628419
101	0xbdc54b89	-0.09633548
102	0xbddd03a4	-0.1079171
103	0xbdc7aca6	-0.09749727
104	0xbd698986	-0.05701592
105	0xbbeb2216	-0.007175694
106	0xbcc8450e	-0.02444699
107	0xbbc699d3	-0.0060608177
108	0xbca08c77	-0.019598229
109	0xbdf1b98a	-0.11802967
110	0x3c16bb83	0.00919998
111	0x3d22e061	0.039764766
112	0xbdddc42c	-0.108284324
113	0x3d9d3067	0.07675248
114	0x3da94f73	0.08267107
115	0x3df38216	0.11890046
116	0x3dc457bd	0.09587047
117	0xbdb6e443	-0.08930256
118	0xbdc05383	-0.093909286
119	0x3cc3df49	0.023910182
120	0x3c0d5dc3	0.008628312
121	0x3de5f790	0.112288594
122	0xbd380df1	-0.04493517
123	0xbd21ffe1	-0.039550666
124	0xbd9d4a1a	-0.076801494
125	0xbde2b68e	-0.11069976
126	0xbd875f5b	-0.066099845
127	0x3db9a454	0.09064546
128	0x3d1bbf00	0.03802395
129	0xbb0aa3bc	-0.0021154722
130	0x3d9816f7	0.07426255
131	0xbced8824	-0.028995581
132	0x3d1c8673	0.03821416
133	0x3df90e98	0.12160987
134	0x3de9ea80	0.114216805
135	0xbc14112f	-0.0090373
136	0xbd153660	-0.03642881
137	0x3de10bbd	0.10988567
138	0x3c68bc44	0.014205042
139	0xbd123abc	-0.035700545
140	0x3d12e703	0.03586484
141	0x3d342287	0.04397824
142	0x3dfa0604	0.12208179
143	0x3d95fee8	0.0732401
144	0xbccdd1b9	-0.025124418
145	0xbddd8175	-0.108157076
146	0xbc1f5929	-0.009725847
147	0x3c8bad2c	0.017050348
148	0xbd5528a9	-0.05204073
149	0xbcc7e972	-0.024403308
150	0xbd8b6425	-0.068062104
151	0x3dbc77c4	0.09202531
152	0x3c2c81cf	0.010528996
153	0xbda3ea17	-0.080036335
154	0x3d839f4d	0.064268686
155	0xbd91c864	-0.071182996
156	0x3ddc7948	0.1076532
157	0xbd1deddd	-0.038556922
158	0x3d2e5185	0.04255821
159	0xbdac3fd0	-0.08410609
160	0x3d30c2bd	0.043154467
161	0xbdcec57c	-0.10096261
162	0x3c914675	0.017733792
163	0x3d9a3785	0.07530121
164	0xbd6bcc5d	-0.057567943
165	0x3c4e10a0	0.012577206
166	0x3c769aa2	0.015051516
167	0x3d3bc347	0.045840528
168	0x3d7fc863	0.062446963
169	0x3df5bcbc	0.11998889
170	0xbdab514c	-0.083651155
171	0xbd41004e	-0.04711943
172	0x3d46a31c	0.048495397
173	0xbda90da0	-0.08254552
174	0x3c93cfab	0.01804336
175	0xbd54983f	-0.051903006
176	0xbdb5ea4e	-0.08882581
177	0xbdf0afac	-0.11752257
178	0x3d0c05fe	0.034185402
179	0x3d97cba1	0.07411886
180	0xbdd9b83b	-0.10630842
181	0x3dd9652e	0.106150016
182	0xbddcb2ac	-0.107762665
183	0x3db9cbed	0.09072099
184	0x3ccd848e	0.025087621
185	0x3c7f1bd2	0.015570598
186	0x3d81348c	0.06308851
187	0xbdd08af1	-0.10182751
188	0x3d394114	0.04522808
189	0x3d84e178	0.06488317
190	0xbdd08141	-0.10180903
191	0x3dcb1c70	0.099175334
192	0xbdfa6a4f	-0.12227308
193	0xbc89731e	-0.016778525
194	0x3d8b8264	0.068119794
195	0x3d6701a6	0.056398056
196	0x3d608a38	0.054819316
197	0xbdb21336	-0.086950704
198	0x3d912bfc	0.070884675
199	0xbd4825a2	-0.048864014
200	0x3db1404a	0.0865484
201	0x3cf6385d	0.030056173
202	0xbdc0d43a	-0.09415479
203	0xbd52f58d	-0.051503707
204	0x3d5bae83	0.053633224
205	0x3d9c3802	0.0762787
206	0xbdd1ca30	-0.10243642
207	0x3be68a8d	0.0070355595
208	0xbdb96965	-0.090533055
209	0xbd92647c	-0.07148072
210	0x3c8a4988	0.016880766
211	0xbd809f7f	-0.062804215
212	0xbd7df5a5	-0.062001843
213	0xbc70e8e4	-0.014703963
214	0xbda4069a	-0.08009072
215	0x3c5f91d5	0.013645609
216	0x3d4f53e4	0.050617114
217	0x3daa5bb7	0.083182745
218	0x3d3414b6	0.043965064
219	0x3de2bf35	0.11071626
220	0xbcad49bd	-0.021153325
221	0x3d09d17f	0.033647057
222	0x3de593cf	0.11209833
223	0xbcc35218	-0.023842856
224	0x3dafb036	0.085785314
225	0xbb73267a	-0.0037101791
226	0xbc97427e	-0.018464323
227	0xbdbf8e41	-0.09353305
228	0x3cf895db	0.030344894
229	0xbcccc452	-0.024995957
230	0x3d99f0fc	0.07516667
231	0xbce2603d	-0.02763378
232	0x3ce37119	0.02776389
233	0x3bb2326d	0.00543814
234	0xbda354bf	-0.079751484
235	0x3d90e794	0.0707542
236	0xbd346453	-0.04404099
237	0xbc98049c	-0.018556885
238	0xbd99aade	-0.075032935
239	0xbdd0ba55	-0.1019179
240	0x3de017a5	0.1094201
241	0x3d956ed5	0.0729653
242	0x3db8c67e	0.090222344
243	0xbdea6e9c	-0.11446878
244	0x3d81be8f	0.06335174
245	0x3d70fbec	0.058834
246	0x3ad306d9	0.0016100063
247	0xbdfd3b27	-0.12364798
248	0x3d51dafc	0.05123423
249	0x3d1dc3bd	0.03851675
250	0xbdd9d75a	-0.10636778
251	0x3da355a0	0.07975316
252	0x3d1f3ca5	0.038876195
253	0xbd80832c	-0.06275019
254	0x3d5a16e5	0.05324449
255	0xbd3c6f7c	-0.046004757

bias f4 [64]
0	0xbd420733	-0.047370147
1	0x3dbf8993	0.09352412
2	0x3c652300	0.013985395
3	0x3d54d804	0.05196382
4	0x3d01bcf9	0.03167436
5	0xbdfcadfa	-0.12337871
6	0x3d5271fc	0.051378235
7	0x3c94a081	0.01814294
8	0x3df45ac4	0.11931375
9	0x3d18207c	0.037140355
10	0xbd1017bd	-0.03517889
11	0xbc4d694e	-0.012537314
12	0x3a2944e3	0.00064571033
13	0xbddd34db	-0.10801097
14	0xbcbcc604	-0.02304364
15	0xbd4cd196	-0.050004564
16	0x391640ba	0.00014329227
17	0x3d4e0d01	0.05030537
18	0x3dc59e86	0.096493766
19	0x3de3699e	0.11104129
20	0xbdd94f93	-0.10610881
21	0x3dc08b90	0.094016194
22	0x3d0abcc1	0.033871416
23	0xbdb38716	-0.08766
24	0xbd373f0d	-0.044737864
25	0x3d9899b0	0.074511886
26	0xbc798c4d	-0.015231204
27	0x3dcfc329	0.10144646
28	0xbdddc0c8	-0.10827786
29	0xbc93a045	-0.018020758
30	0xbd610e0a	-0.05494503
31	0xbd70de6a	-0.05880586
32	0x3d0543bc	0.0325353
33	0xbdbe8c6c	-0.09304127
34	0xbd9b6227	-0.075870804
35	0xbddd3a09	-0.10802085
36	0xbcd83c0f	-0.026395826
37	0xbd4da1ff	-0.05020332
38	0xbdeb04a5	-0.11475495
39	0x3de484c2	0.11158134
40	0x3db10fcf	0.086455934
41	0x3cd309ed	0.025761569
42	0xbd475a98	-0.04867038
43	0xbd57ebe0	-0.052715182
44	0xbdad74b4	-0.08469525
45	0x3d952dd5	0.072841324
46	0xbc35fbbc	-0.011107381
47	0xbd92dd05	-0.071710624
48	0x3de18588	0.11011797
49	0x3dc66705	0.09687618
50	0xbdf3db04	-0.11907008
51	0x3d8e75c5	0.069560565
52	0xbdd9870f	-0.106214635
53	0xbc67845a	-0.014130676
54	0x3c2de1ae	0.010612888
55	0xbddebe19	-0.10876102
56	0x3c155434	0.009114314
57	0x3daeb650	0.08530867
58	0x3db05baa	0.086112335
59	0xbdd0ba87	-0.10191827
60	0xbdae2ccf	-0.0850464
61	0x3dc79be1	0.097465284
62	0xbdb46b1f	-0.08809494
63	0x3dabb926	0.08384924

weight f4 [7, 64]
0	0x3df74b28	0.12074882
1	0x3de0903a	0.10965009
2	0x3dcee7e5	0.10102824
3	0x3d9074b4	0.07053509
4	0xbdeb8aa1	-0.11501051
5	0x3de3f100	0.111299515
6	0x3d9bc4bc	0.076058835
7	0x3bdd2ecc	0.0067499634
8	0x3da08ddc	0.078395575
9	0x3dc5730f	0.09641086
10	0xbda41f26	-0.080137536
11	0x3ca4f05c	0.020134144
12	0xbd737052	-0.05943329
13	0xbd5937ae	-0.053031616
14	0xbde3f4c6	-0.11130671
15	0x3d4ab35e	0.049487464
16	0x3dcf03bb	0.101081334
17	0xbd962762	-0.073317304
18	0xbd0011b3	-0.03126688
19	0xbd601741	-0.054709677
20	0xbc78b240	-0.015179217
21	0xbdde71b0	-0.10861528
22	0x3b3b1efb	0.0028552401
23	0x3ba64145	0.0050736987
24	0xbdb98662	-0.090588346
25	0x3c33d6c0	0.010976493
26	0xbcb93008	-0.02260591
27	0xbd7ac410	-0.061222136
28	0x3c8fb9ca	0.017544646
29	0x3d61330f	0.054980334
30	0xbdc526ee	-0.09626566
31	0x3d31aa33	0.043375205
32	0x3d61813a	0.05505488
33	0x3d28cfc2	0.04121376
34	0xbd64a880	-0.055824757
35	0xbda0e231	-0.078556426
36	0xbdbfbd08	-0.09362227
37	0xbc27998b	-0.010229479
38	0xbd85f7ef	-0.0654143
39	0xbd05125b	-0.03248821
40	0x3d37a84b	0.04483823
41	0xbd8b3f9b	-0.06799241
42	0x3d77b1b2	0.060472198
43	0x3d2a3bf0	0.041561067
44	0xbdac5f6e	-0.08416639
45	0xbbdbc585	-0.006706896
46	0x3c1beb69	0.009516575
47	0x3d3caf9a	0.046065904
48	0x3dfaa437	0.12238353
49	0x3db92d40	0.09041834
50	0x3d7cfe9a	0.061766244
51	0x3c5a5357	0.013325534
52	0x3d94d37c	0.072669
53	0x3dd40128	0.10351783
54	0xbd7459ba	-0.059655882
55	0xbd744c79	-0.059643243
56	0x3d6d0bf7	0.05787274
57	0x3dad1e90	0.08453095
58	0xbd46f568	-0.04857388
59	0xbdcf2be3	-0.101157926
60	0xbd1b247c	-0.03787659
61	0xbd90ae90	-0.07064545
62	0xbd42a1e5	-0.047517676
63	0x3cd0c9e8	0.025486901
64	0xbdac3d25	-0.084101
65	0xbdefa0c8	-0.117005885
66	0xbd17cb9c	-0.03705941
67	0xbd30af64	-0.043136016
68	0xbdb77da3	-0.0895951
69	0xbc042590	-0.008065596
70	0xbdb916b2	-0.09037532
71	0xbcd194b4	-0.025583602
72	0xbca12a24	-0.019673415
73	0xbd93923f	-0.072056286
74	0x3dc1170f	0.09428226
75	0x3dc515ca	0.096232966
76	0xbda73102	-0.081636444
77	0x3db2e529	0.08735115
78	0xbdf797e6	-0.12089519
79	0x3dac8311	0.084234364
80	0x3d0e1b4f	0.034694012
81	0xbd12ff7b	-0.035888176
82	0x3d4b6b20	0.04966271
83	0x3dbd3362	0.09238316
84	0x3dc3839d	0.095465876
85	0x3d3bff46	0.045897745
86	0xbdb68a4a	-0.08913095
87	0xbdba597c	-0.09099099
88	0xbc8a913a	-0.016914953
89	0x3df127ed	0.11775193
90	0xbd89ec07	-0.06734472
91	0x3cbc838f	0.02301195
92	0xbd4c4010	-0.049865782
93	0x3db213b7	0.086951666
94	0x3da5f505	0.081033744
95	0x3da1fc87	0.07909494
96	0xbcb63a72	-0.022244666
97	0xbde7bdd5	-0.113155045
98	0xbcf3d1cb	-0.029763123
99	0x3dede95f	0.11616778
100	0xbd80c711	-0.06287969
101	0xbd778cce	-0.060437016
102	0x3db2fbeb	0.08739456
103	0xbdec2fef	-0.1153258
104	0xbc368944	-0.011141125
105	0x3dc92cd4	0.098230034
106	0xbda7b577	-0.081889085
107	0x3d873b50	0.0660311
108	0x3c084638	0.008317523
109	0x3c7ede53	0.015555936
110	0xbba6fdc4	-0.005096169
111	0x3ccf5291	0.025307925
112	0x3d92eecd	0.07174454
113	0x3deac44c	0.11463222
114	0xbdd8e5eb	-0.10590728
115	0x3cba8602	0.022768978
116	0xbdf3af88	-0.11898714
117	0xbdf5d1a7	-0.12002879
118	0xbddfebe0	-0.109336615
119	0xbdb7b168	-0.089693844
120	0xbd489a63	-0.04897536
121	0x3db43ecc	0.0880104
122	0x3db685d7	0.08912247
123	0x3da0a5f5	0.07844154
124	0x3ce679ed	0.02813431
125	0x3d8ff9dd	0.070300795
126	0x3d41edd9	0.04734597
127	0x3cb5b70d	0.022182012
128	0xbdff1268	-0.124546826
129	0x3d953cee	0.07287012
130	0xbdb4235e	-0.08795808
131	0xbd7ad1ba	-0.061235167
132	0x3d3a0a05	0.04541971
133	0xbac82300	-0.001526922
134	0xbdfb5134	-0.12271348
135	0xbd7b45a1	-0.0613457
136	0xbdc51a2c	-0.096241325
137	0x3b0fd2c5	0.0021945697
138	0x3d14f4fe	0.036366455
139	0xbd014e11	-0.03156859
140	0xbdf6db61	-0.12053562
141	0xbd6bb478	-0.057545155
142	0x3db61c92	0.08892168
143	0xbd005d57	-0.031339016
144	0x3d5ae52c	0.05344121
145	0x3dab150b	0.08353623
146	0x3db51f13	0.088438176
147	0x3d72a38f	0.059238013
148	0x3d3d7000	0.04624939
149	0xbd6eb0b4	-0.058273986
150	0x3d8712af	0.065953605
151	0x3d251a50	0.040308297
152	0xbd8dc6e4	-0.06922701
153	0xbda1bcb7	-0.078973226
154	0x3d208290	0.039187014
155	0xbda6d469	-0.08145983
156	0x3dfa0da4	0.12209633
157	0xbd0852f8	-0.03328225
158	0xbda33b2a	-0.07970269
159	0xbda31cf7	-0.07964509
160	0xbd8ab5a0	-0.067729235
161	0x3c3812e4	0.011234973
162	0x3da96201	0.08270646
163	0xbded448a	-0.115853384
164	0xbdf9ee1a	-0.122036174
165	0x3d188f10	0.03724581
166	0xbd77d287	-0.06050351
167	0x3dad4fff	0.08462524
168	0x3d8075f6	0.06272499
169	0x3d3621d4	0.044465855
170	0xbdac3cc2	-0.08410026
171	0x3c2ae3c0	0.010430276
172	0x3ddf9c5e	0.109184965
173	0xbde3f59c	-0.11130831
174	0xbd89bd3a	-0.06725545
175	0xbda96b42	-0.08272411
176	0xbc898a5d	-0.01678961
177	0xbdf17268	-0.117893994
178	0x3c6ce610	0.014459148
179	0xbd440b61	-0.047862414
180	0x3d88a480	0.06672001
181	0xbd836f00	-0.06417656
182	0xbd369b1c	-0.044581518
183	0xbda75826	-0.0817111
184	0xbdfe4c21	-0.12416864
185	0xbdf036af	-0.1172918
186	0x3c735022	0.014850648
187	0x3d6e02bc	0.058108076
188	0xbdbb60c8	-0.09149319
189	0x3d9aa2db	0.075505935
190	0x3cf80c60	0.030279338
191	0x3de45d67	0.111506276
192	0x3dc600d4	0.09668127
193	0xbd26ec30	-0.04075259
194	0xbdb0e032	-0.08636512
195	0xbd83cefc	-0.064359635
196	0x3d826059	0.06366033
197	0x3db115a0	0.08646703
198	0x3dacd9a1	0.08439947
199	0xbd28c8b7	-0.04120704
200	0x3db6aba5	0.08919457
201	0x3cb267fd	0.021778101
202	0x3de37764	0.11106756
203	0xbdbfd08d	-0.0936595
204	0xbc140820	-0.00903514
205	0x3d18be14	0.037290648
206	0xbdc677ad	-0.09690795
207	0xbdf3ac2a	-0.11898072
208	0xbcc7fe73	-0.024413323
209	0x3d15faea	0.036616243
210	0x3d8f5737	0.06999057
211	0xbc663ef9	-0.0140531
212	0xbda50221	-0.08057047
213	0xbdca0d2e	-0.09865795
214	0xbdfd2ff7	-0.12362664
215	0x3da10852	0.07862915
216	0x3d56b63d	0.05241989
217	0xbdc54ce0	-0.09633803
218	0xbd13f8c4	-0.036125913
219	0x3d3dabf6	0.046306573
220	0x3db17564	0.086649686
221	0xbdf452a7	-0.11929827
222	0xbd296afe	-0.0413618
223	0xbcc25a39	-0.023724662
224	0x3cfc8fb2	0.030830238
225	0xbd32102e	-0.04347246
226	0xbcca4f95	-0.02469615
227	0x3d1cd414	0.03828819
228	0xbda3aeea	-0.079923466
229	0xbd4dd272	-0.050249524
230	0xbdb61c71	-0.088921435
231	0xbcd0ba7b	-0.025479546
232	0x3d861bb9	0.065482564
233	0x3cd17acf	0.025571255
234	0x3ce5201e	0.027969416
235	0xbdcb0f50	-0.0991503
236	0xbdbb175a	-0.09135313
237	0x3dfefdcd	0.124507524
238	0x3deb6d9d	0.114955164
239	0x3ba599f5	0.0050537535
240	0x3dfc31ac	0.12314162
241	0x3d0977d7	0.033561554
242	0xbdb9cb30	-0.09071958
243	0xbdb4d753	-0.08830132
244	0x3cd2858d	0.025698448
245	0xbd374329	-0.044741783
246	0x3d1c8197	0.038209524
247	0xbbbe592d	-0.0058089704
248	0x3c41c336	0.011826327
249	0x3cf13910	0.029446155
250	0x3dfd1c4d	0.123589136
251	0x3c734a13	0.014849204
252	0xbdb03fb6	-0.08605902
253	0x3da1ca0e	0.07899867
254	0x3d11388b	0.035454314
255	0x3d14bb9c	0.03631173

bias f4 [7]
0	0xbd224eff	-0.039626118
1	0x3dc56681	0.09638692
2	0xbd442160	-0.04788339
3	0xbddd1182	-0.10794355
4	0xbcd16204	-0.025559433
5	0xbd015576	-0.031575643
6	0x3dc2a738	0.09504551

weight f4 [7, 7]
0	0xbeb355ed	-0.35026494
1	0xbe29d6d9	-0.16585864
2	0xbe10050a	-0.14064422
3	0x3ea277eb	0.31732115
4	0x3d819b9c	0.06328508
5	0xbdba03f0	-0.09082782
6	0x3eb11abd	0.34590712
7	0xbd4681d8	-0.048463672
8	0xbe1d4a51	-0.1536038
9	0x3e127412	0.1430209
10	0xbe171c61	-0.1475692
11	0xbc4ebc80	-0.012618184
12	0x3d7d98a8	0.061913162
13	0xbdd3f278	-0.103489816
14	0x3e9a15ed	0.30094853
15	0x3df1d5a4	0.11808327
16	0xbda16200	-0.0788002
17	0xbbbc6000	-0.005748749
18	0xbe3322aa	-0.17493692
19	0xbdd44c4c	-0.10366115
20	0xbeb1dd98	-0.34739375
21	0x3d8666e3	0.06562593
22	0xbdee2cbe	-0.11629628
23	0xbdb7a25a	-0.08966513
24	0xbe60f173	-0.21967106
25	0x3da304f7	0.07959931
26	0xbe62f597	-0.22163998
27	0xbe88cc45	-0.26718345
28	0xbd2ac1a0	-0.04168856
29	0x3acd0900	0.0015642941
30	0xbc68aae0	-0.014200896
31	0xbd9becec	-0.07613549
32	0x3e0b7fae	0.13622925
33	0x3e6acd82	0.22929958
34	0x3d852094	0.065003544
35	0xbe5e0a3b	-0.2168359
36	0x3ea1a2e7	0.31569597
37	0x3e6bdca6	0.2303339
38	0xbe865c70	-0.262424
39	0x3eac04e1	0.33597472
40	0xbe058bf0	-0.13041663
41	0xbde977b4	-0.11399785
42	0xbd899ef2	-0.067197695
43	0x3d180b0c	0.03711991
44	0x3dead0e1	0.11465622
45	0x3e25bb3d	0.16184707
46	0x3d8a1ad9	0.06743402
47	0x3eb36637	0.3503892
48	0x3e8a82cb	0.27052912

bias f4 [7]
0	0xbea4985d	-0.32147494
1	0xbeaf28d9	-0.34210852
2	0xbea99f22	-0.3312922
3	0x3ec0d658	0.3766353
4	0xbdd97cd4	-0.10619512
5	0xbde5d114	-0.11221519
6	0x3ebe28c7	0.37140486

weight f4 [64, 42]
0	0x3ddabdf1	0.1068076
1	0xbdaae210	-0.08343899
2	0xbde5c79b	-0.11219712
3	0x3cf2b5d7	0.029627724
4	0xbdcea50a	-0.100900725
5	0xbe06837f	-0.131361
6	0xbdc7c83e	-0.0975499
7	0xbe0c3ad0	-0.1369431
8	0x3d407ae7	0.04699221
9	0xbd8a105f	-0.06741404
10	0xbd96b5c8	-0.07358891
11	0x3d031818	0.0320054
12	0x3cef6788	0.029224172
13	0xbd6601e1	-0.056154136
14	0xbdcb79e0	-0.09935355
15	0xbdd61a89	-0.1045428
16	0xb91750cc	-0.00014430581
17	0x3c315ca1	0.010825307
18	0x3d959555	0.073038734
19	0xbe19c72d	-0.15017386
20	0x3daa314c	0.08310184
21	0x3c90b00a	0.017662067
22	0x3d58869d	0.052862752
23	0x3dbc62b7	0.09198516
24	0xbe0493f9	-0.12947072
25	0xbe03c469	-0.12867893
26	0xbd82a451	-0.06378997
27	0xbcf2d929	-0.029644566
28	0xbe0b9457	-0.13630806
29	0x3d8a3540	0.06748438
30	0xbb9e206b	-0.004825642
31	0x3deb0561	0.11475635
32	0x3dbe59bd	0.0929446
33	0xbe09c4fa	-0.13454047
34	0xbe154cbe	-0.14580056
35	0x3d29d831	0.04146594
36	0xbdd4a859	-0.10383672
37	0x3db030ec	0.08603081
38	0x3ced9dc8	0.0290059
39	0xbd00324d	-0.03129797
40	0xbdc02767	-0.093825154
41	0x3e06718d	0.13129254
42	0xbdf3d4c2	-0.11905815
43	0xbd87ad53	-0.06624856
44	0xbdd2e026	-0.10296659
45	0x3cd8ab3d	0.02644884
46	0xbcde0d9d	-0.0271061
47	0x3e0d80cd	0.13818665
48	0x3d325477	0.043537583
49	0xbe1275cb	-0.14302747
50	0x3d848284	0.064702064
51	0xbcfdc2a3	-0.0309766
52	0x3da93c14	0.08263412
53	0xbd84fe19	-0.06493778
54	0xbd2a3220	-0.04155171
55	0xbd8ac640	-0.067760944
56	0xbdbbd346	-0.091711566
57	0xbe140d91	-0.144583
58	0x3db31dad	0.087458946
59	0x3e0ba699	0.1363777
60	0xbd52617c	-0.0513625
61	0x3e18489b	0.14871447
62	0x3de57d97	0.11205595
63	0x3e054f46	0.13018522
64	0x3da51e21	0.08062387
65	0x3e18bcf8	0.14915836
66	0x3df9e678	0.122021616
67	0x3d168969	0.03675214
68	0xbdb9aed2	-0.090665475
69	0x3da055d6	0.07828872
70	0xbdbd802b	-0.09252962
71	0x3da2c2b3	0.07947292
72	0x3e0f71a2	0.14008191
73	0xbd45e3d3	-0.048312973
74	0x3bff2a3c	0.007787017
75	0xbbc7bef3	-0.006095761
76	0xbd523c53	-0.05132706
77	0xbd97da0e	-0.074146375
78	0x3d13de03	0.0361004
79	0xbc9b3a68	-0.018948749
80	0xbc4ecc0d	-0.012621892
81	0x3d8f154d	0.06986485
82	0xbd2c81e5	-0.042116065
83	0x3dc65eeb	0.09686073
84	0xbd9e969a	-0.07743569
85	0x3e0f37ef	0.1398618
86	0x3cce68bf	0.025196431
87	0xbd489ccd	-0.048977662
88	0xbdba777d	-0.09104822
89	0x3d004706	0.031317733
90	0x3e10dd1b	0.14146845
91	0xbdbaa1ef	-0.09112918
92	0xbd9d192b	-0.07670816
93	0xbd67ee47	-0.056623723
94	0xbe1b44de	-0.1516299
95	0xbe0cbe39	-0.13744439
96	0xbd9e9fb1	-0.077453025
97	0x3c678309	0.014130362
98	0xbcee8e08	-0.02912046
99	0xbd246f89	-0.04014543
100	0x3d60d85c	0.054893836
101	0x3d1882a5	0.037233967
102	0xbd971d7b	-0.0737867
103	0x3da4c4e1	0.08045364
104	0x3dc4e8cd	0.09614716
105	0xbd6a4241	-0.05719209
106	0xbe1106e0	-0.14162779
107	0xbc6fc274	-0.014633764
108	0xbdd72097	-0.10504263
109	0x3d78dbb4	0.0607564
110	0xbd2e6ef2	-0.042586274
111	0xbe114417	-0.1418613
112	0xbd8d90af	-0.06912362
113	0xbd792084	-0.060822025
114	0x3d9106ed	0.07081399
115	0x3cf93e17	0.030425115
116	0x3e191e55	0.14952977
117	0xbdf6b9e0	-0.120471716
118	0x3d98c41a	0.074592784
119	0xbdc7aa93	-0.09749331
120	0xbc9ae70e	-0.018909004
121	0xbd7296bf	-0.059225794
122	0xbcf27d9a	-0.029600907
123	0x3ce0953a	0.027414907
124	0x3d386da5	0.04502644
125	0xbdbb20af	-0.09137093
126	0xbd967970	-0.07347381
127	0xbe08fc49	-0.13377489
128	0x3dfc6485	0.1232386
129	0xbe13e880	-0.1444416
130	0x3e167209	0.14691938
131	0xbcaf1047	-0.021370066
132	0xbe09bc21	-0.13450672
133	0xbd8fcde9	-0.07021696
134	0xbd9d4d46	-0.07680754
135	0x3c1e5d11	0.009665743
136	0xbe1ba87d	-0.15200992
137	0x3e0fa1bc	0.1402654
138	0xbd9bb72e	-0.07603298
139	0x3d972567	0.07380181
140	0xbc94547b	-0.01810669
141	0x3e0345fd	0.12819667
142	0x3dcd7aa3	0.10033157
143	0x3cdd621f	0.027024327
144	0x3d8542ce	0.065068826
145	0x3e0e25ca	0.13881603
146	0x3e00c4d9	0.12575091
147	0x3ce3d287	0.027810348
148	0xbd7e789a	-0.062126733
149	0xbdde6051	-0.10858215
150	0xbe080895	-0.13284524
151	0x3dede588	0.11616045
152	0xbd9fb3d1	-0.07797969
153	0x3e13116e	0.14362118
154	0x3d9a6adf	0.07539915
155	0xbcf7414e	-0.030182507
156	0x3e0d3226	0.13788661
157	0xbe009661	-0.12557365
158	0xbddad69c	-0.10685465
159	0xbe0904bd	-0.13380714
160	0xbd7ca608	-0.061681777
161	0x3e0b2a68	0.13590395
162	0x3e059889	0.13046469
163	0x3db73cc9	0.08947141
164	0x3d41c996	0.047311388
165	0xbad55507	-0.001627595
166	0x3cb4546e	0.022012915
167	0xbce41e82	-0.027846579
168	0xbd134dbb	-0.0359628
169	0x3c83d7dc	0.01609414
170	0xbd4d3c43	-0.0501063
171	0x3ddb6ee0	0.10714507
172	0x3d77b30c	0.060473487
173	0xbd715366	-0.058917426
174	0xbd48d67e	-0.04903268
175	0xbd85741f	-0.06516289
176	0xbde736e2	-0.11289765
177	0x3e15c6eb	0.14626662
178	0x3da6f2de	0.08151792
179	0xbcfa6492	-0.030565534
180	0x3de98529	0.114023514
181	0x3d81690f	0.063188665
182	0x3b1524c1	0.0022757503
183	0xbe11c728	-0.14236128
184	0xbdde2642	-0.10847141
185	0x3d5ad10f	0.05342203
186	0x3ca15f6c	0.019698821
187	0xbe0370a4	-0.12835938
188	0xbd9a93d1	-0.07547725
189	0xbd9c20bb	-0.0762343
190	0x3db17ab4	0.08665982
191	0xbdfcd242	-0.12344791
192	0xbd7479bd	-0.05968641
193	0x3d04bdf9	0.032407735
194	0x3da98603	0.08277514
195	0x3d41ae10	0.04728514
196	0x3e1ac78a	0.1511518
197	0x3d92f3dc	0.07175419
198	0xbe1bd2b5	-0.15217097
199	0xbd47d3d9	-0.048786018
200	0x3deac3c9	0.11463124
201	0xbd8df3eb	-0.06931289
202	0x3dc61b4c	0.09673175
203	0x3d990aea	0.07472785
204	0x3cb3c9b9	0.021946775
205	0xbdc9068d	-0.098157026
206	0xbd65c44d	-0.05609541
207	0xbdced0f3	-0.10098448
208	0x3db90311	0.09033788
209	0xbcb72db0	-0.022360653
210	0x3c97253a	0.018450368
211	0x3c0d5b47	0.008627719
212	0x3d19da62	0.03756178
213	0x3e044ebb	0.12920658
214	0x3d4bcd39	0.049756262
215	0x3d595b14	0.053065374
216	0x3e039b79	0.12852277
217	0xbd500257	-0.05078348
218	0xbc604fc5	-0.013690894
219	0x3d6492ac	0.05580394
220	0x3dca8d4a	0.0989023
221	0x3e16166d	0.14656992
222	0xbd5d7038	-0.0540621
223	0xbde2f90b	-0.110826574
224	0xbe14fc7c	-0.1454944
225	0xbe07e154	-0.1326955
226	0x3daf769f	0.08567547
227	0xbdaed1fb	-0.08536144
228	0xbbf6645b	-0.0075192875
229	0xbdb9416a	-0.0904568
230	0xbdd05a8c	-0.101735204
231	0xbd602561	-0.054723147
232	0xbe070a54	-0.13187534
233	0xbdc1c504	-0.09461406
234	0xbde3bccc	-0.111199945
235	0xbd17dd22	-0.037076123
236	0xbd48f78b	-0.0490642
237	0x3d1a114a	0.037614144
238	0x3c96d581	0.018412353
239	0xbd23710e	-0.03990274
240	0xbd884177	-0.066531114
241	0xbcd2d89d	-0.025738055
242	0x3d45ac70	0.048260152
243	0x3e187903	0.14889912
244	0x3d8954c3	0.0670562
245	0x3d6fd8f5	0.058556516
246	0x3d425813	0.047447275
247	0x3dc9dce1	0.098565824
248	0xbd90d3ad	-0.07071624
249	0xbcd48acb	-0.025945088
250	0x3e0637aa	0.13107172
251	0xbd388473	-0.04504819
252	0x3b598de6	0.003319615
253	0xbdfa6ffd	-0.12228391
254	0x3db7bb26	0.089712426
255	0x3e08c0df	0.13354824

bias f4 [64]
0	0xbe0a0832	-0.13479689
1	0x3dd6e55e	0.10492967
2	0xbcab5a62	-0.020917121
3	0x3dacf461	0.08445049
4	0xbda8f867	-0.08250504
5	0x3e10c828	0.14138854
6	0xbc14b949	-0.009077379
7	0x3bdfcd68	0.0068299063
8	0x3c32a03c	0.010902461
9	0x3d13f70d	0.036124278
10	0x3d61953f	0.055073973
11	0x3c8e56f3	0.017375445
12	0xbd94244f	-0.07233488
13	0x3d55ec6b	0.05222742
14	0xbcc9445a	-0.024568725
15	0x3daca59f	0.08430027
16	0xbd886d7e	-0.06661509
17	0xbd863dc4	-0.065547496
18	0xbd082e43	-0.033247244
19	0x3dfc7df0	0.12328708
20	0x3d3d2c63	0.04618491
21	0xbc49a729	-0.0123079205
22	0xbe128aac	-0.14310712
23	0x3ddd0307	0.10791593
24	0x3e0f186f	0.13974164
25	0xbe186109	-0.14880766
26	0x3d05a518	0.03262815
27	0x3d706898	0.0586935
28	0xbe1d48d3	-0.15359811
29	0x3d834e86	0.064114615
30	0xbd960db1	-0.0732683
31	0xbd814693	-0.06312289
32	0xbbd41f3b	-0.0064734495
33	0x3e1aaf02	0.15105823
34	0xbda065df	-0.0783193
35	0xbb9256a3	-0.0044658943
36	0x3d4adfee	0.049529962
37	0xbe1c4910	-0.15262246
38	0x3e06ad0e	0.13151953
39	0x3e14b3cb	0.1452171
40	0x3da893b8	0.082313
41	0xbdba9de3	-0.09112146
42	0x3d742612	0.05960662
43	0xbd833083	-0.06405737
44	0xbddb9ba9	-0.10723049
45	0x3e01bf12	0.12670544
46	0xbe1d6968	-0.1537224
47	0xbe1bc767	-0.15212785
48	0xbd7deb1b	-0.061991792
49	0xbd5b7101	-0.053574566
50	0x3c3da163	0.011574122
51	0xbddb42db	-0.10706111
52	0x3e14d3bb	0.14533894
53	0xbde3a789	-0.11115939
54	0x3c9bfcc6	0.01904143
55	0xbd455b6a	-0.048182882
56	0xbd83c82c	-0.06434664
57	0xbda8e12e	-0.082460746
58	0xbd4313c3	-0.047626268
59	0xbd55b9b4	-0.052179053
60	0xbd951b64	-0.07280615
61	0xbca4cfe1	-0.020118656
62	0x3df9fe69	0.12206728
63	0x3dc22ada	0.094808295

weight f4 [64, 64]
0	0x3e000ecf	0.12505649
1	0xbd6798a6	-0.05654206
2	0xbd3120ce	-0.043244176
3	0xbd9edf77	-0.07757466
4	0xbbc04eed	-0.0058687837
5	0x3d0077f0	0.03136438
6	0x3dead271	0.1146592
7	0xbd3e8f8a	-0.04652361
8	0xbd076152	-0.033051796
9	0x3d1d94d4	0.03847201
10	0xbd140cdf	-0.036145087
11	0x3d3157f6	0.043296777
12	0xbca1e4db	-0.019762447
13	0xbdf1ed37	-0.11812823
14	0xbaa992b8	-0.0012937402
15	0x3df2effa	0.11862178
16	0xbd55f841	-0.052238706
17	0xbda5ccb8	-0.08095688
18	0x3de3b82b	0.111191116
19	0x3db098b6	0.08622877
20	0xbd6859c7	-0.056726243
21	0x3d9dcada	0.077047065
22	0xbd1a9293	-0.03773744
23	0xbbf202d0	-0.007385589
24	0xba9024a2	-0.0010997246
25	0xbd86a15d	-0.06573746
26	0x3de9af63	0.114104055
27	0x3db96ff0	0.090545535
28	0xbd8c2f3f	-0.06844949
29	0x3c112386	0.008858567
30	0x3dd40ba9	0.103537865
31	0x3db147c6	0.08656268
32	0xbdb25d72	-0.087092295
33	0x3ddf22ec	0.10895333
34	0x3d2f926a	0.04286424
35	0xbdbed9ca	-0.09318884
36	0x3d013160	0.03154123
37	0x3d5bd8b6	0.05367347
38	0x3d6e522c	0.058183834
39	0xbde6a656	-0.11262195
40	0xbce7d96e	-0.02830192
41	0xbb621873	-0.0034499436
42	0x3da15425	0.078773774
43	0x3d350795	0.044196684
44	0xbde3f727	-0.11131125
45	0xbdfefeb0	-0.124509215
46	0x3d9e3546	0.07725005
47	0x3d509b80	0.050929546
48	0x3db33c7e	0.08751772
49	0xbc5d39e7	-0.0135025745
50	0x3d9c2dfd	0.07625959
51	0xbdb8b77e	-0.09019373
52	0xbc169ba5	-0.009192382
53	0x3ba834a8	0.0051332302
54	0x3de331b5	0.11093465
55	0xbd8b8e0e	-0.06814204
56	0x3c337a96	0.01095452
57	0x3d25b39d	0.040454496
58	0x3c8797df	0.01655191
59	0xbd89bec7	-0.06725841
60	0xbc234d2a	-0.009967128
61	0xbda9871f	-0.082777254
62	0xbdc21ebc	-0.09478518
63	0x3da4c672	0.08045663
64	0x3dac9b53	0.08428063
65	0xbc51dacd	-0.012808514
66	0x3dd070c7	0.101777606
67	0x3d40aef5	0.047041852
68	0xbd1243d8	-0.035709232
69	0x3c34e2b6	0.01104038
70	0xbb74bd45	-0.0037344259
71	0xbbcd4366	-0.006264138
72	0xbdd95b6f	-0.10613143
73	0x3d6fd49e	0.058552377
74	0x3df0f3d9	0.1176526
75	0x3d9d2ca8	0.07674533
76	0xbd5962ef	-0.053072866
77	0xbdff96fa	-0.12479968
78	0xbcbff437	-0.02343188
79	0x3d9bb6e5	0.07603244
80	0x3de48b61	0.11159397
81	0x3dcf904c	0.10134944
82	0x3d24bae0	0.04021728
83	0x3c5323df	0.01288697
84	0xbd8f702f	-0.07003819
85	0xbdb5be7f	-0.08874225
86	0xbd209efc	-0.03921412
87	0xbdf48ff6	-0.11941521
88	0xbda11f9b	-0.078673564
89	0x3da4a12f	0.08038556
90	0x3d60fc9d	0.05492841
91	0x3cee40d2	0.029083643
92	0xbd47e1e8	-0.048799425
93	0xbb51ed5c	-0.0032032346
94	0xbdc1c943	-0.09462216
95	0x3d205d58	0.03915152
96	0x3d833afd	0.064077355
97	0x3dbcb17e	0.092135414
98	0xbd094c2a	-0.0335199
99	0x3d922b97	0.0713722
100	0x3dbcd864	0.09220961
101	0xbdaa403c	-0.08313033
102	0xbdb2ac57	-0.087242775
103	0x3c0c12b1	0.008549378
104	0x3d45f862	0.04833258
105	0x3d068ea3	0.032850873
106	0x3d45da1b	0.048303705
107	0xbdac189f	-0.084031336
108	0x3cfc6a40	0.030812383
109	0x3ddf79d0	0.10911906
110	0xbc9f4dc0	-0.019446254
111	0xbd64698a	-0.055764712
112	0xbd911617	-0.070842914
113	0x3ca57dff	0.020201681
114	0xbd8134af	-0.06308877
115	0xbd9b1e78	-0.07574171
116	0xbd45cff0	-0.048294008
117	0xbd93e154	-0.07220712
118	0x3ce6d640	0.028178334
119	0x3da222cd	0.07916794
120	0x3dabf5c1	0.08396483
121	0x3bb40070	0.005493216
122	0xbdd42307	-0.103582434
123	0xbdef2199	-0.1167633
124	0x3cf60fa8	0.030036762
125	0x3dca6b4a	0.09883745
126	0xbd188d76	-0.037244283
127	0x3d367bc0	0.04455161
128	0xbddc821d	-0.10767005
129	0x3dcfcd34	0.10146561
130	0xbc5fabf9	-0.013651841
131	0x3d78f181	0.06077719
132	0xbcfb5344	-0.030679353
133	0x3c374629	0.011186161
134	0x3d401538	0.046895236
135	0x3ded8c37	0.115990095
136	0x3df9cff5	0.12197868
137	0x3dca51b0	0.09878862
138	0xbd3473a3	-0.044055592
139	0xbd042cfa	-0.032269455
140	0xbde14ac1	-0.11000586
141	0xbc68574a	-0.014180968
142	0xbdd9a502	-0.10627176
143	0x3ba88461	0.005142734
144	0x3d998b99	0.07497329
145	0xbd60feb7	-0.054930415
146	0x3dba3949	0.090929575
147	0x3dd2b89f	0.1028912
148	0xbde7047c	-0.11280152
149	0x3debca41	0.11513186
150	0xbdf01c92	-0.11724199
151	0x3dbdb31a	0.092626765
152	0xbddaca18	-0.106830776
153	0xbd86e9de	-0.065875754
154	0xbdcc30d0	-0.09970248
155	0xbd7bb380	-0.06145048
156	0xbcf04bbe	-0.029332992
157	0xbdbf8971	-0.09352387
158	0xbdcd7498	-0.10032004
159	0xbbf169e0	-0.0073673576
160	0x3dc3c53c	0.09559104
161	0xbd92e48c	-0.07172498
162	0x3df23680	0.11826801
163	0x3dd64217	0.104618244
164	0x3d2128cc	0.039345548
165	0xbcb4db87	-0.022077335
166	0xbcd4b868	-0.025966838
167	0x3c107374	0.008816589
168	0xbd92bb45	-0.07164625
169	0xbd6383ec	-0.055545732
170	0x3de681b6	0.11255209
171	0xbcd446ef	-0.02591273
172	0xbb9f0668	-0.0048530586
173	0x3c76c793	0.015062231
174	0xbcd4cac9	-0.025975602
175	0xbd01b523	-0.031666886
176	0xbdcea629	-0.10090286
177	0xbd190686	-0.037359737
178	0x3df91a49	0.121632166
179	0xbde35e45	-0.11101965
180	0x3d2ea77f	0.042640205
181	0xbdf667e1	-0.12031532
182	0xbdb7ef02	-0.08981134
183	0xbc9477e3	-0.018123573
184	0xbcc152fe	-0.023599144
185	0x3dc1fd44	0.09472135
186	0xbc6060cb	-0.013694952
187	0xbc9b38fe	-0.018948074
188	0xbd347429	-0.04405609
189	0x3db2b766	0.08726387
190	0xbdd6b762	-0.10484196
191	0x3d95b9c2	0.07310821
192	0xbd8c7900	-0.068590164
193	0xbd97f5e1	-0.074199446
194	0x3d0e9258	0.034807533
195	0xbdeb306b	-0.11483844
196	0xbdc393eb	-0.095496975
197	0xbdeaf180	-0.11471844
198	0x3ccccf37	0.025001151
199	0x3dc0d5ea	0.09415801
200	0xbde879ce	-0.113513574
201	0x3d9f1f78	0.07769674
202	0x3df5044f	0.119637124
203	0xbc916add	-0.017751152
204	0xbd49c362	-0.049258597
205	0xbc53cd85	-0.012927418
206	0x3dd81bf3	0.10552206
207	0xbd33b7e6	-0.04387655
208	0x3c71a152	0.014747934
209	0xbc7c42c6	-0.015396779
210	0xbdcc4c68	-0.09975511
211	0xbcaafa2f	-0.02087125
212	0x3d84d498	0.064858615
213	0x3d87952c	0.06620249
214	0x3df9aa9b	0.121907435
215	0x3debd45f	0.11515116
216	0x3a4c065c	0.000778293
217	0x3dc16947	0.09443908
218	0xbd82784c	-0.06370601
219	0xbce939ee	-0.028470006
220	0x3d846d4b	0.064661585
221	0x3d9eb17d	0.07748697
222	0x3d651725	0.055930275
223	0x3d05d645	0.032675046
224	0x3ce06d22	0.027395789
225	0x3d3df6c9	0.04637793
226	0xbdf04e89	-0.117337294
227	0xbd8ebc97	-0.069695644
228	0xbca8188c	-0.020519517
229	0x3c45f476	0.01208221
230	0x3dc958fb	0.09831425
231	0x3d90dc08	0.07073218
232	0x3d64d7d5	0.055869896
233	0x3c9e7efc	0.01934766
234	0x3c88acdc	0.016683988
235	0x3d1abe66	0.037779234
236	0xbdc00386	-0.09375672
237	0xbdbe55fa	-0.092937425
238	0xbc0ac229	-0.008469143
239	0x3d4ca01f	0.04995739
240	0x3ddc12d7	0.10745781
241	0x3d984e56	0.074368164
242	0x3d9ff3d9	0.07810182
243	0x3dff0977	0.12452977
244	0x3dab15de	0.0835378
245	0xbdb166c2	-0.086621776
246	0xbbff8993	-0.0077983825
247	0xbd964b58	-0.073385894
248	0xbcf2e399	-0.029649543
249	0x3c98d22b	0.018654903
250	0xbd69e65b	-0.05710445
251	0x3deff899	0.11717338
252	0xbd9e8870	-0.07740867
253	0xbca9a88d	-0.020710254
254	0xbdb6784e	-0.08909665
255	0xbdc12dd3	-0.094325684

bias f4 [64]
0	0xbdb5faca	-0.08885725
1	0xbdce9740	-0.100874424
2	0xbddc1faf	-0.10748231
3	0xbd6a81ab	-0.057252567
4	0x3cc40ebc	0.023932807
5	0xbd687152	-0.056748696
6	0x3da07f68	0.07836801
7	0x3c820bff	0.01587486
8	0xbd8e4a75	-0.06947795
9	0x3d907d69	0.0705517
10	0x3dbc19bf	0.09184598
11	0x3bf865ef	0.007580511
12	0xbcfa6707	-0.030566705
13	0x3d832b69	0.06404764
14	0xbcb9a61d	-0.022662217
15	0x3cc1bee5	0.023650596
16	0x3d12ed40	0.03587079
17	0x3d89244d	0.06696377
18	0xbd214b0c	-0.03937821
19	0xbd9f3630	-0.07774007
20	0x3d8bb9e1	0.06822563
21	0xbd2f846e	-0.042850904
22	0xbdfe448d	-0.12415419
23	0x3dff530d	0.124670126
24	0x3dbd67f0	0.0924834
25	0xbd4b5578	-0.049642056
26	0xbba39f3d	-0.004993348
27	0x3dc3bc2a	0.09557374
28	0x3d93d6ad	0.072186805
29	0xbcd52550	-0.026018769
30	0xbd8fb932	-0.07017745
31	0x3de720e3	0.112855695
32	0x3c78bc53	0.015181619
33	0xbdcbc6cb	-0.09950026
34	0x3d6ed4a7	0.05830827
35	0x3d9eb0aa	0.0774854
36	0xbdf94628	-0.12171584
37	0x3df3b021	0.11898828
38	0x3b5e99e7	0.0033966245
39	0x3dceb983	0.10093977
40	0xbda9a55a	-0.082834914
41	0x3de323c6	0.110908076
42	0x3dec198d	0.11528311
43	0x3c397f31	0.011321829
44	0x3d14ac1c	0.03629695
45	0x3ddcad7a	0.107752755
46	0x3d9fb987	0.077990584
47	0x3d738fa1	0.059463147
48	0xbd7e5af6	-0.062098466
49	0x3d8356f9	0.06413073
50	0x3d9357f4	0.0719451
51	0x3daefc29	0.085441895
52	0xbd399325	-0.045306344
53	0x3da72bd7	0.08162659
54	0xbd3fb581	-0.046803955
55	0x3d4ba635	0.049719054
56	0xbca9eeef	-0.020743815
57	0x3d113836	0.035453998
58	0xbd89df64	-0.067320615
59	0xbd9760e1	-0.07391525
60	0x3d9292c8	0.071569026
61	0xbd7b0ea7	-0.06129327
62	0xbc70ec6a	-0.014704803
63	0x3dea28a0	0.1143353

weight f4 [7, 64]
0	0xbdfb6501	-0.12275124
1	0x3dfe3722	0.124128595
2	0x3dfd3855	0.1236426
3	0xbdd2fd4e	-0.1030222
4	0xbdf44515	-0.11927239
5	0x3d9a5f56	0.07537715
6	0x3de1d6aa	0.11027272
7	0x3dcbc7ee	0.09950243
8	0x3ddfa2b8	0.10919708
9	0x3df3a88e	0.11897384
10	0xbccf51d1	-0.025307568
11	0x3c477424	0.012173686
12	0xbd84bc4f	-0.064812295
13	0xbda4b8c5	-0.080430545
14	0xbddcbf59	-0.10778684
15	0xbd40c9df	-0.04706752
16	0x3def5b9c	0.11687395
17	0xbd7cfefe	-0.061766617
18	0x3de7d3b6	0.113196775
19	0x3dfa9f45	0.122374095
20	0xbd1b8e1a	-0.037977315
21	0x3de71519	0.11283321
22	0xbda6bbad	-0.08141265
23	0xbde0130b	-0.10941132
24	0x3d234669	0.03986207
25	0xbd6ba541	-0.057530645
26	0xbd5ce4ef	-0.053929266
27	0x3caceaba	0.02110802
28	0xbdd765bd	-0.10517452
29	0x3d213066	0.039352797
30	0x3d859f18	0.06524485
31	0x3dcd2adb	0.1001794
32	0xbd996281	-0.07489491
33	0xbd8ca0cd	-0.06866608
34	0xbdfb7f7d	-0.12280176
35	0xbb78e389	-0.0037977418
36	0xbd170275	-0.036867578
37	0x3df24361	0.11829258
38	0x3bd9506f	0.006631903
39	0xbd61cd60	-0.0551275
40	0x3d713253	0.058885884
41	0x3d75e850	0.060036004
42	0xbb8cf9e2	-0.0043022493
43	0xbdb9389a	-0.09043999
44	0x3dc9374c	0.09825
45	0xbd8031ae	-0.06259476
46	0x3d5fd946	0.054650567
47	0x3dc3dbf8	0.0956344
48	0xbd7ea4e3	-0.062168967
49	0xbb427a07	-0.0029674785
50	0x3d81d813	0.06340041
51	0x3b0e7c1b	0.0021741453
52	0x3caf2775	0.02138112
53	0x3d446f99	0.04795799
54	0x3cfaf21c	0.030633025
55	0x3de5b76c	0.112166256
56	0x3d28ccfa	0.041211106
57	0x3b1e02e3	0.0024110607
58	0xbb4e793c	-0.0031505367
59	0xbd48b43b	-0.049000006
60	0x3d8869ea	0.066608265
61	0x3d37ef32	0.04490585
62	0x3dba298d	0.090899564
63	0x3de8c314	0.11365333
64	0x3cdf77eb	0.027278861
65	0x3d5c0af8	0.053721398
66	0xbd76ca45	-0.060251493
67	0x3debe7dc	0.11518833
68	0x3d1cd0e6	0.03828516
69	0x3d5f4fa3	0.054519307
70	0xbd23a089	-0.03994802
71	0xbcaaf94e	-0.02087083
72	0xbd2b7711	-0.041861597
73	0xbdcf416f	-0.10119902
74	0xbbba471b	-0.005684746
75	0x3d5f5454	0.05452378
76	0x3d000822	0.031257756
77	0x3dda2d4f	0.10653173
78	0xbda0a5ff	-0.07844161
79	0xbc647239	-0.013943248
80	0xbdd94804	-0.10609439
81	0xbd56eb05	-0.052470226
82	0x3d2d2682	0.042273052
83	0xbdfaf91a	-0.122545436
84	0xbda6ab92	-0.08138193
85	0xbd965ce6	-0.07341938
86	0x3dea4557	0.11439007
87	0xbddc6464	-0.107613355
88	0x3d0ae2cb	0.033907693
89	0xbd5b7506	-0.0535784
90	0xbda83b62	-0.082144514
91	0xbdebfa6c	-0.115223736
92	0xbcba33b1	-0.022729727
93	0x3c3af0ab	0.011409919
94	0x3d4e5578	0.050374478
95	0xbdd1f3e2	-0.10251595
96	0x3d9dd6aa	0.077069595
97	0xbd4df20b	-0.05027966
98	0xbd95eca3	-0.073205255
99	0x3cca26b5	0.02467666
100	0x3d42d89b	0.047569852
101	0x3b89fedf	0.004211291
102	0x3da37ffd	0.07983396
103	0xbc4f1f99	-0.012641811
104	0xbd3b720d	-0.045763064
105	0xbd111c98	-0.03542766
106	0x3d58226b	0.0527672
107	0x3dbb5759	0.091475196
108	0x3cd40a33	0.02588377
109	0x3df56baf	0.1198343
110	0xbde7bd95	-0.11315457
111	0xbd03114f	-0.03199893
112	0x3cb91cdc	0.022596769
113	0xbd3083b9	-0.04309437
114	0xbd5e4c1d	-0.054271806
115	0xbd8b95a9	-0.06815655
116	0xbde6f5a1	-0.11277319
117	0x3d6b071c	0.057379827
118	0xbdc333e3	-0.09531381
119	0xbdb358de	-0.087571844
120	0xbcc3251a	-0.023821402
121	0x3d767bd9	0.060176704
122	0x3db7a3cf	0.08966791
123	0x3c884ec1	0.016639115
124	0xbbf9aaf0	-0.0076192543
125	0x3d4e8531	0.05041999
126	0x3bc13724	0.005896466
127	0x3d3d56a4	0.046225205
128	0x3dab8d88	0.08376604
129	0x3ca06860	0.01958102
130	0x3d833376	0.064063
131	0x3dc142b0	0.09436548
132	0x3c2d481c	0.010576274
133	0xbdd85704	-0.10563472
134	0xbd638a8c	-0.05555205
135	0x3b11386f	0.0022158881
136	0xbc9f23c0	-0.019426227
137	0xbd1e2fd7	-0.038619842
138	0x3d42abe8	0.047527224
139	0xbd4f41f8	-0.050600022
140	0xbde485e9	-0.11158354
141	0x3de1c0f0	0.11023128
142	0x3cbb9f4c	0.022903107
143	0x3babc4e0	0.005241975
144	0xbcec65b8	-0.028857097
145	0x3dbe32e0	0.092870474
146	0x3dfd0386	0.12354188
147	0xbd81b719	-0.06333751
148	0x3de50619	0.11182804
149	0xbda387ea	-0.07984908
150	0xbd9c729e	-0.07639049
151	0xbdcd2f4a	-0.10018785
152	0xbb5fe4c0	-0.0034163445
153	0xbdec24c0	-0.11530447
154	0xbda7a8c6	-0.08186488
155	0x3d8df700	0.06931877
156	0xbd8b3d98	-0.067988575
157	0xbde12aa2	-0.1099446
158	0xbc553770	-0.013013706
159	0xbd05e7b6	-0.03269168
160	0x3dcb47c0	0.099257946
161	0xbd6487fc	-0.055793747
162	0x3dc5fa40	0.09666872
163	0xbccbdd10	-0.024885684
164	0xbd8c6c2a	-0.06856568
165	0xbda644a4	-0.08118561
166	0xbd4ebfe3	-0.050475966
167	0xbc520456	-0.012818417
168	0x3d940a1e	0.07228492
169	0xbdfbfe66	-0.12304382
170	0xbb083e93	-0.002078925
171	0x3d062bd7	0.032756653
172	0x3d505244	0.050859705
173	0x3d60307e	0.054733746
174	0x3d91f7ba	0.07127328
175	0x3d9393e0	0.07205939
176	0xbda3fe15	-0.08007447
177	0xbc0fba96	-0.008772513
178	0xbdae1060	-0.08499217
179	0xbccf644a	-0.025316376
180	0xbdf68ab8	-0.12038177
181	0x3da51c94	0.080620915
182	0xbd0102a4	-0.03149666
183	0x3dc9925d	0.0984237
184	0xbcd785f0	-0.026308984
185	0xbc70172d	-0.014653963
186	0x3d84f425	0.064918794
187	0x3d11c5ac	0.035588905
188	0x3d87062c	0.06592974
189	0x3ddc3ae6	0.107534215
190	0xbd885a81	-0.06657887
191	0x3c65b590	0.014020339
192	0x3d75ed43	0.060040724
193	0xbd6cb5c9	-0.05779055
194	0x3bb8f9d6	0.005645017
195	0xbc8fb6e3	-0.017543262
196	0x3d9cc901	0.07655526
197	0xbdcb1764	-0.09916571
198	0x3dca4bef	0.098777644
199	0xbd2973b1	-0.041370098
200	0x3db607a6	0.088881776
201	0xbd19dd4a	-0.037564553
202	0xbde21a5e	-0.110401854
203	0x3df859d0	0.121265054
204	0xbd757721	-0.059928063
205	0xbcbebc56	-0.023283165
206	0x3ca68661	0.020327749
207	0xbd7f3b6a	-0.06231252
208	0x3d1c3326	0.038134716
209	0xbc89d54b	-0.016825339
210	0x3d4cb7f6	0.049980126
211	0x3cb25f09	0.021773832
212	0x3b998b8a	0.004685824
213	0x3db30b96	0.08742444
214	0xbd95c0b6	-0.07312147
215	0x3da73284	0.08163932
216	0xbd937a6a	-0.07201083
217	0x3d997b4c	0.0749422
218	0x3dc67401	0.09690095
219	0x3cc76c6e	0.024343695
220	0x3dc590f5	0.09646789
221	0x3ced1656	0.028941315
222	0x3d101524	0.03517641
223	0x3d9a9f30	0.07549894
224	0xbd4f04c0	-0.05054164
225	0x3db51265	0.08841399
226	0x3d90fc61	0.070793875
227	0x3d9ee39e	0.07758258
228	0x3d11c0d6	0.035584293
229	0xbdf3e36c	-0.11908612
230	0x3dd449a9	0.10365612
231	0x3d625b5f	0.05526292
232	0xbb5bdde7	-0.0033549012
233	0xbddb0012	-0.10693373
234	0x3ce94169	0.028473573
235	0xbc66accc	-0.014079284
236	0x3c384bbc	0.011248525
237	0xbdf54bc1	-0.119773395
238	0x3db28a4c	0.08717784
239	0xbde0409e	-0.10949825
240	0x3dca1c0f	0.09868633
241	0x3dd4e67e	0.103955254
242	0xbd4a901a	-0.049453832
243	0xbdf187d3	-0.117934845
244	0x3da65cfa	0.081232026
245	0x3c323188	0.010876067
246	0xbca5f85c	-0.020260029
247	0x3db88fb4	0.09011784
248	0xbc6fb7b5	-0.0146312015
249	0x3db1701f	0.086639635
250	0x374b08af	1.2101765e-05
251	0xbc335e69	-0.010947802
252	0x3da45063	0.08023145
253	0xbdef2ba5	-0.116782464
254	0xbca792c6	-0.02045573
255	0xbd8ec506	-0.06971173

bias f4 [7]
0	0x3db32df9	0.08749003
1	0x3cfa60d9	0.030563759
2	0xbdac7eeb	-0.08422645
3	0xbdb5b05a	-0.08871527
4	0x3d03aa05	0.032144565
5	0x3db150ce	0.086579904
6	0x3de65d6c	0.112482876
