logs/cp3_agent0_050924-034436.pth (torch, 67322 bytes, 16 tensors)

weight f4 [64, 42]
-0.011170468 -0.06939341 -0.011174706 0.06279515 -0.020697834 -0.11356013 0.08662083 0.04165765
-0.067007415 -0.13311535 -0.021271568 -0.13211966 0.063141786 0.14687884 -0.024290113 -0.06133436
-0.12100064 0.08802229 -0.019928498 -0.11992933 0.10448481 0.040105056 0.022475403 -0.07276102
-0.12905957 0.0001310114 -5.3400363e-05 0.116109565 -0.059072565 -0.06694661 -0.026028879 -0.064920254
0.109635845 0.028112914 0.03613094 0.102236316 0.12736051 0.08374833 0.007167623 -0.14108996
0.069528215 -0.0744162 0.14413986 0.065344006 0.13689956 -0.1191629 0.13097355 0.13041393
-0.034120418 -0.12079377 0.10354074 0.11762537 -0.014698501 -0.04916375 0.14775732 -0.0626826
-0.1385813 -0.13159303 -0.03630014 0.12973522 -0.14700603 -0.067339 0.08956097 0.0075745354
-0.037792455 0.032834098 -0.08997506 0.028895136 -0.036387417 -0.15110323 -0.06496716 -0.11749718
-0.022882776 0.12546316 0.027515884 0.123219386 -0.030648021 -0.07576989 -0.06814929 -0.115846336
-0.108058974 0.04288463 -0.07619219 0.13949493 0.1124897 -0.046917755 -0.08955764 0.1242057
-0.0689338 0.110636815 0.12535965 0.026085094 0.044289444 -0.11044452 0.14975822 0.0814332
0.04952523 0.023009824 -0.08119702 0.085448675 0.012016417 0.032418422 -0.02762724 0.052353073
-0.061223716 0.060489446 0.118639894 -0.13880424 -0.041541506 -0.0068560313 -0.14730732 -0.049751353
0.0036552264 0.012108072 -0.11122748 0.026875969 -0.14475425 -0.14672418 -0.054366946 0.04665928
-0.026192764 0.045635343 0.038904242 0.10247869 -0.13015777 0.108001545 0.12299402 -0.043974143
0.03911089 0.09747021 -0.09985455 0.052859116 -0.10032139 0.07610337 0.035921395 -0.13739245
0.15206185 0.11311609 -0.01595713 0.018499633 -0.09398797 -0.017738752 0.049680624 -0.11430716
0.050937764 -0.009845525 -0.108787686 0.053239167 0.04784302 0.103247024 -0.061090212 -0.10572462
-0.15204449 0.051844038 0.06340136 0.093931414 0.15228327 -0.0879505 -0.038641058 -0.09323425
0.05381937 -0.013171184 -0.093208365 -0.018765224 -0.08941022 -0.07527607 -0.032369193 0.14689203
0.09854074 0.09254726 -0.15304017 -0.050335675 -0.027121078 -0.1286554 -0.019393379 -0.069928296
0.11736485 -0.0076106107 0.07384429 -0.09295203 0.10066708 -0.10139776 -0.09616949 -0.048753522
-0.011763592 -0.06229656 -0.022899626 -0.113440655 0.06662394 -0.08021625 -0.10763285 -0.037225753
-0.1353764 0.08744687 -0.109370604 0.050796997 0.032209724 0.14900814 0.05426519 0.096779406
0.038787726 0.020373955 0.08805424 -0.07038553 0.15315242 0.034653038 -0.14809282 0.1216252
0.115995355 0.14894463 -0.01586907 0.02606814 0.017943066 -0.0845521 0.058002535 -0.1524947
-0.030611059 -0.077567436 -0.037351925 -0.0050165677 -0.04293335 -0.014931967 0.11398049 -0.052134972
0.078021206 -0.09786691 0.03900476 -0.014487965 -0.09142907 0.13271104 0.0774258 0.13074362
-0.010012228 0.0096766455 -0.07730512 0.14835575 -0.05739353 -0.14077309 0.0040707462 -0.09884598
0.12680785 -0.008187866 0.0017339939 -0.03930211 -0.056502793 0.14579538 -0.020924905 -0.064394504
-0.008949928 0.011540949 0.087574005 -0.11415898 -0.15162031 0.00802758 0.12765633 0.11386568
00000000: 5704 37bc 221e 8ebd 1d16 37bc be9a 803d
00000010: 818e a9bc 3792 e8bd 4366 b13d 36a1 2a3d
00000020: 2f3b 89bd 644f 08be b641 aebc 604a 07be
00000030: 7b50 813d 6867 163e 0ffc c6bc bd39 7bbd
00000040: 2fcf f7bd 0845 b43d 1741 a3bc 829d f5bd
00000050: 22fc d53d 3345 243d 561e b83c bb03 95bd
00000060: 3128 04be 1b60 0939 34fa 5fb8 daca ed3d
00000070: 13f6 71bd 4e1b 89bd 843a d5bc e9f4 84bd
00000080: c288 e03d 0e4d e63c 09fe 133d 4661 d13d
00000090: cb6a 023e 3f84 ab3d 61de ea3b e379 10be
000000a0: cf64 8e3d 8567 98bd 6699 133e 14d3 853d
000000b0: 662f 0c3e ae0b f4bd ee1d 063e 3b8b 053e
000000c0: dac1 0bbd b962 f7bd 2b0d d43d 92e5 f03d
000000d0: fbd1 70bc ee5f 49bd b24d 173e bc5f 80bd
000000e0: 42e8 0dbe 53c0 06be 75af 14bd 4fd9 043e
000000f0: c088 16be 08e9 89bd be6b b73d cf33 f83b
00000100: 43cc 1abd 0c7d 063d d844 b8bd 7eb5 ec3c
00000110: f90a 15bd ceba 1abe 810d 85bd 5da2 f0bd
00000120: a974 bbbc 6a79 003e fe68 e13c 725a fc3d
00000130: 8f11 fbbc 3e2d 9bbd db91 8bbd d840 edbd
00000140: 064e ddbd cba7 2f3d a70a 9cbd c2d7 0e3e
00000150: 0061 e63d d52c 40bd ff69 b7bd 8f5f fe3d
00000160: 2a2d 8dbd 8e95 e23d 485e 003e 68b0 d53c
00000170: d968 353d bd30 e2bd 385a 193e 73c6 a63d
00000180: f8da 4a3d 197f bc3c a04a a6bd b7ff ae3d
00000190: 82e0 443c 2ec9 043d 8652 e2bc 2d70 563d
000001a0: b8c5 7abd c8c3 773d 79f9 f23d b322 0ebe
000001b0: 6d27 2abd 8fa8 e0bb bbd7 16be 13c8 4bbd
000001c0: 868c 6f3b ef60 463c 3ccb e3bd fe2a dc3c
000001d0: 753a 14be dd3e 16be e0af 5ebd cd1d 3f3d
000001e0: 3592 d6bc 20ec 3a3d 0e5a 1f3d 59e0 d13d
000001f0: 1448 05be ea2f dd3d 4ae4 fb3d 3b1e 34bd
00000200: be32 203d 769e c73d 8b80 ccbd cd82 583d
00000210: 4d75 cdbd 15dc 9b3d 5022 133d 9bb0 0cbe
00000220: 1ab6 1b3e 69a9 e73d 87b8 82bc 8b8c 973c
00000230: c47c c0bd dc50 91bc e97d 4b3d df19 eabd
00000240: 1ea4 503d 204f 21bc 14cc debd 5011 5a3d
00000250: 0bf7 433d 2d73 d33d bb39 7abd 2686 d8bd
00000260: 8db1 1bbe 6a5a 543d 92d8 813d 1d5f c03d
00000270: 25f0 1b3e 641f b4bd 1646 1ebd 99f1 bebd
00000280: b371 5c3d f3cb 57bc 07e4 bebd 87b9 99bc
00000290: b51c b7bd 572a 9abd 8f95 04bd dd6a 163e
000002a0: bacf c93d 6b89 bd3d 90b6 1cbe c82c 4ebd
000002b0: 062d debc 3ebe 03be ddde 9ebc 9136 8fbd
000002c0: fc5c f03d 6e62 f9bb ad3b 973d a25d bebd
000002d0: 8b2a ce3d a1a9 cfbd 82f4 c4bd c6b1 47bd
000002e0: 15bc 40bc ad2a 7fbd ff97 bbbc 9353 e8bd
000002f0: 2272 883d 6b48 a4bd 9d6e dcbd 087a 18bd
00000300: 1ca0 0abe 5817 b33d b2fd dfbd 8310 503d
00000310: 58ee 033d 9795 183e 2d45 5e3d 4834 c63d
00000320: e1df 1e3d 48e7 a63c c855 b43d 4a26 90bd
00000330: fdd3 1c3e 58f0 0d3d a5a5 17be a216 f93d
00000340: f98e ed3d f184 183e daff 81bc da8c d53c
00000350: 56fd 923c a729 adbd 1194 6d3d 9227 1cbe
00000360: 0bc4 fabc addb 9ebd 55fe 18bd 0562 a4bb
00000370: e1da 2fbd 35a5 74bc 9a6e e93d 7b8b 55bd
00000380: 95c9 9f3d 726e c8bd 75c3 1f3d ee5e 6dbc
00000390: 2a3f bbbd 67e5 073e 6b91 9e3d a8e1 053e
000003a0: 540a 24bc cb8a 1e3c 2652 9ebd 92ea 173e
000003b0: 7a15 6bbd d226 10be e563 853b c36f cabd
000003c0: ebd9 013e 6626 06bc 2e47 e33a 40fb 20bd
000003d0: 796f 67bd 624b 153e b56a abbc 44e1 83bd
000003e0: b8a2 12bc 4016 3d3c 005a b33d 2fcc e9bd
000003f0: 5b42 1bbe 1c86 033c 57b8 023e 6932 e93d

bias f4 [64]
0.073517114 0.08165176 -0.031890485 0.036269955 0.1452713 -0.115243345 -0.0969619 -0.15280628
0.10433839 0.030589147 -0.010304823 0.060584087 -0.026312195 -0.12760851 -0.05101993 -0.099398464
-0.058998354 0.07618592 0.12893082 0.05283974 -0.12546626 -0.026608469 0.060630146 0.017613254
0.10050323 0.119929 0.008374853 0.13886544 -0.10648038 0.14925082 0.07610075 0.12576391
-0.057677176 -0.0688493 0.1277159 -0.10672242 0.06549389 -0.1245483 -0.08531728 -0.07257512
-0.093713805 -0.047895066 -0.11132899 0.004512375 0.03405248 0.01079583 -0.15273522 -0.08578859
-0.0077534993 0.054225143 0.1497056 0.071847826 -0.07941257 -0.057178006 -0.10480916 0.002828733
0.04212848 0.13065091 -0.035579205 -0.02059605 0.0041932394 -0.015886499 -0.08794275 -0.0077805314
00000000: 2490 963d 0a39 a73d 999f 02bd ce8f 143d
00000010: 00c2 143e b404 ecbd f693 c6bd 4079 1cbe
00000020: 5eaf d53d 1796 fa3c 8fd5 28bc 0527 783d
00000030: ac8c d7bc ceab 02be 46fa 50bd 6c91 cbbd
00000040: 42a8 71bd 5d07 9c3d 7106 043e 7c6e 583d
00000050: 3a7a 00be 01fa d9bc 5157 783d ac49 903c
00000060: a3d4 cd3d 569d f53d ae36 093c be32 0e3e
00000070: 6312 dabd 35d5 183e b6da 9b3d 41c8 003e
00000080: e73e 6cbd dd00 8dbd f5c7 023e 4991 dabd
00000090: a921 863d 2e13 ffbd d3ba aebd 44a2 94bd
000000a0: 06ed bfbd 9e2d 44bd 7400 e4bd 8cdc 933b
000000b0: 9d7a 0b3d fee0 303c 9f66 1cbe eeb1 afbd
000000c0: 1111 febb 2f1b 5e3d 6d4c 193e f424 933d
000000d0: 0fa3 a2bd 7c33 6abd 2fa6 d6bd 4462 393b
000000e0: ea8e 2c3d 5ac9 053e 80bb 11bd 0cb9 a8bc
000000f0: 7167 893b 6724 82bc 541b b4bd d4f3 febb

weight f4 [64, 64]
-0.012791812 -0.09874567 -0.024200113 -0.0003287162 0.11767073 -0.003700968 0.044530224 0.119323716
0.018203758 -0.04881528 -0.0720986 0.08077925 0.082436696 0.041337375 -0.057866406 -0.05388252
-0.07061302 -0.102606244 0.11649872 -0.0032710421 -0.055240545 -0.11122091 -0.09300603 0.09365958
0.07215408 0.04129899 -0.029719759 0.04068233 -0.06221477 0.06897094 0.08791108 0.00088165683
-0.06897685 0.11296884 -0.023164919 0.005124249 -0.11064923 -0.04756746 0.014227183 0.10449992
0.0074350177 -0.08727221 -0.054970246 -0.020904474 -0.042472925 0.107978605 -0.08886372 -0.022871206
0.023301382 -0.029875226 0.005876678 0.04563153 0.060601193 0.09499627 0.08548534 0.05117494
0.10859377 -0.079345584 0.10533386 -0.10558024 0.11310437 0.12077483 0.094691165 -0.07113624
0.038298685 -0.09548501 0.10187411 0.1091159 -0.11603988 -0.050966486 0.032939628 -0.029959094
-0.025548678 -0.09841739 0.024456639 -0.050928205 -0.064912185 -0.105298735 0.07059901 -0.005181646
0.07397683 0.12099196 -0.036881983 0.050453193 0.06955501 0.09910218 0.06397808 0.11194068
0.122386456 -0.03949379 0.12058821 -0.040780388 -0.028099662 -0.048881564 0.06414516 -0.12127007
-0.036026772 0.04945624 -0.07222087 0.00045020907 -0.0014441758 -0.09636608 -0.107803605 -0.097414814
-0.056818575 -0.007009801 -0.024474928 -0.0059062117 -0.019504061 -0.11787499 0.009300087 0.039818194
-0.10816025 0.07679267 0.08280112 0.1190045 0.096035585 -0.089207076 -0.093874134 0.02399094
0.008710531 0.1124203 -0.044800945 -0.039449412 -0.07663608 -0.110666074 -0.0660894 0.09083614
0.03815503 -0.0019255646 0.07437114 -0.028887808 0.038360275 0.12175799 0.11437102 -0.008957605
-0.03630579 0.11006422 0.0143528 -0.035526518 0.03603301 0.04403647 0.12216381 0.07330235
-0.024941733 -0.10799161 -0.009601879 0.017172823 -0.05186692 -0.02423994 -0.067942366 0.09217485
0.010645793 -0.07990429 0.06445861 -0.07104675 0.10766813 -0.03837862 0.042674918 -0.08395493
0.04332807 -0.10083893 0.0178381 0.07536721 -0.057464365 0.012657843 0.0151029425 0.045946255
0.06252107 0.12012119 -0.083546236 -0.04692939 0.048640557 -0.082466125 0.018172894 -0.051782288
-0.08866684 -0.11733789 0.034350652 0.07426753 -0.10621919 0.10629671 -0.10764273 0.090822145
0.025154628 0.01571664 0.06316019 -0.10171665 0.04537605 0.064946435 -0.10167046 0.09935452
-0.12233073 -0.016674826 0.06808118 0.056482863 0.05492856 -0.08693893 0.070987396 -0.048876297
0.086600825 0.030168077 -0.09400377 -0.051473886 0.053599764 0.07623845 -0.10242082 0.0069608935
-0.09049824 -0.071342774 0.017005239 -0.062672414 -0.061943147 -0.014550216 -0.080141224 0.013746845
0.050610628 0.08324463 0.043945048 0.110676035 -0.021081455 0.033725157 0.11209576 -0.023898674
0.085909955 -0.0036711877 -0.018382203 -0.09356828 0.03037076 -0.025040869 0.07515608 -0.02769414
0.027743367 0.005486798 -0.07970213 0.07090196 -0.043969408 -0.018610865 -0.07509996 -0.10180688
0.10949879 0.07297626 0.09034028 -0.114398666 0.06350171 0.058773022 0.0014620442 -0.12361813
0.051194146 0.03858442 -0.10629782 0.07985885 0.038980242 -0.06279101 0.053153846 -0.04588449
00000000: c094 51bc 2b3b cabd 513f c6bc 8b57 acb9
00000010: 5afd f03d f18b 72bb 5365 363d fe5f f43d
00000020: 0c20 953c 88f2 47bd 6ea8 93bd 976f a53d
00000030: 92d4 a83d 6151 293d 5305 6dbd ebb3 5cbd
00000040: 8f9d 90bd 3923 d2bd e296 ee3d fb5e 56bb
00000050: e943 62bd cac7 e3bd f279 bebd 98d0 bf3d
00000060: 85c5 933d 2129 293d da76 f3bc 84a2 263d
00000070: ead4 7ebd a340 8d3d b90a b43d fd1e 673a
00000080: bc43 8dbd 355c e73d 5bc4 bdbc 51e9 a73b
00000090: 109c e2bd 19d6 42bd 2119 693c 0e04 d63d
000000a0: 73a1 f33b c6bb b2bd 7b28 61bd dc3f abbc
000000b0: 17f8 2dbd e323 dd3d 2ffe b5bd 655c bbbc
000000c0: 8ae2 be3c e4bc f4bc 2691 c03b 21e8 3a3d
000000d0: f538 783d 688d c23d f012 af3d d09c 513d
000000e0: 6966 de3d f07f a2bd 47b9 d73d 743a d8bd
000000f0: 44a3 e73d cb58 f73d 71ed c13d e1af 91bd
00000100: 15df 1c3d a58d c3bd 60a3 d03d 2878 df3d
00000110: 51a6 edbd 3cc2 50bd b4eb 063d c66c f5bc
00000120: 764b d1bc 0e8f c9bd 4a59 c83c 189a 50bd
00000130: aef0 84bd dda6 d7bd 3796 903d ccca a9bb
00000140: 2a81 973d a2ca f73d 9011 17bd 02a8 4e3d
00000150: db72 8e3d 15f6 ca3d f106 833d 2841 e53d
00000160: c0a5 fa3d 3ec4 21bd f4f6 f63d 5609 27bd
00000170: 4331 e6bc 0938 48bd 8a5e 833d 715c f8bd
00000180: cf90 13bd a092 4a3d 89e8 93bd 0a0a ec39
00000190: 804a bdba 945b c5bd 23c8 dcbd 6b81 c7bd
000001a0: 98ba 68bd 79b2 e5bb a57f c8bc e588 c1bb
000001b0: fbc6 9fbc 7168 f1bd 645f 183c 6718 233d
000001c0: 1f83 ddbd 7a45 9d3d a293 a93d a2b8 f33d
000001d0: 4eae c43d 33b2 b6bd 1541 c0bd a688 c43c
000001e0: 9db6 0e3c 9d3c e63d 3281 37bd b595 21bd
000001f0: 61f3 9cbd e5a4 e2bd e159 87bd 4c08 ba3d
00000200: 7348 1c3d 3a63 fcba e54f 983d 20a6 ecbc
00000210: aa1f 1d3d 415c f93d 5a3b ea3d ebc2 12bc
00000220: 61b5 14bd 5a69 e13d 0228 6b3c 4184 11bd
00000230: 5997 133d 965f 343d 0531 fa3d 8b1f 963d
00000240: 9b52 ccbc b52a ddbd 3351 1dbc 05ae 8c3c
00000250: 6872 54bd d792 c6bc 5e25 8bbd 2bc6 bc3d
00000260: b16b 2e3c dca4 a3bd e002 843d f580 91bd
00000270: 1c81 dc3d e632 1dbd e5cb 2e3d 90f0 abbd
00000280: c678 313d a484 cebd 3521 923c 205a 9a3d
00000290: c15f 6bbd d762 4f3c 5572 773c 2432 3c3d
000002a0: 0c0b 803d 1902 f63d 4a1a abbd 0839 40bd
000002b0: 523b 473d 00e4 a8bd 52df 943c aa19 54bd
000002c0: f696 b5bd d94e f0bd 45b3 0c3d 9319 983d
000002d0: 7289 d9bd 17b2 d93d cb73 dcbd f600 ba3d
000002e0: 1411 ce3c 2fc0 803c 215a 813d d250 d0bd
000002f0: 3ddc 393d a302 853d 9a38 d0bd 627a cb3d
00000300: 8988 fabd a599 88bc 256e 8b3d 935a 673d
00000310: c5fc 603d 0a0d b2bd d761 913d 8332 48bd
00000320: c65b b13d 0b23 f73c 0c85 c0bd 48d6 52bd
00000330: 6d8b 5b3d e822 9c3d 02c2 d1bd 3518 e43b
00000340: 2457 b9bd 291c 92bd 924e 8b3c 655a 80bd
00000350: 19b8 7dbd 0764 6ebc 1521 a4bd 723a 613c
00000360: 174d 4f3d 297c aa3d b9ff 333d 1eaa e23d
00000370: 04b3 acbc 6423 0a3d 7692 e53d 27c7 c3bc
00000380: 8ff1 af3d 4f98 70bb 4696 96bc baa0 bfbd
00000390: 1acc f83c 8222 cdbc 6eeb 993d d2de e2bc
000003a0: 0f46 e33c 99ca b33b df3a a3bd 0c35 913d
000003b0: 4419 34bd d075 98bc 02ce 99bd 2080 d0bd
000003c0: e740 e03d 9474 953d 5304 b93d d949 eabd
000003d0: 2f0d 823d fbbb 703d 10a2 bf3a 812b fdbd
000003e0: f4b0 513d b20a 1e3d acb2 d9bd 098d a33d
000003f0: bfa9 1f3d 9398 80bd d9b7 593d 60f1 3bbd

bias f4 [64]
-0.04746161 0.093696706 0.014144763 0.052029304 0.031739704 -0.12337871 0.05145773 0.018221783
0.11945919 0.0372822 -0.035152107 -0.012602826 0.0007948308 -0.10789776 -0.023186656 -0.05015513
-3.4975305e-06 0.050240293 0.09631396 0.11085485 -0.10593634 0.09410249 0.033797547 -0.08753797
-0.04489834 0.07470443 -0.015176945 0.10130935 -0.10843983 -0.017962413 -0.055153508 -0.058886793
0.0326755 -0.09313804 -0.07571636 -0.10806983 -0.026475038 -0.050328158 -0.11481451 0.11176796
0.08654981 0.025832674 -0.048626635 -0.052715182 -0.08482079 0.07290203 -0.011197932 -0.07173561
0.110195115 0.09669384 -0.119033985 0.06943334 -0.106296934 -0.014056878 0.010457345 -0.10885095
0.008941106 0.08524544 0.086143196 -0.10200528 -0.08497114 0.09730911 -0.08801185 0.08371572
00000000: 1b67 42bd 0fe4 bf3d 70bf 673c ae1c 553d
00000010: 7e01 023d faad fcbd 57c5 523d d945 953c
00000020: 05a7 f43d 38b5 183d a8fb 0fbd 157c 4ebc
00000030: 315c 503a 80f9 dcbd f1f1 bdbc 776f 4dbd
00000040: 1eb7 6ab6 c4c8 4d3d 4140 c53d de07 e33d
00000050: 27f5 d8bd ceb8 c03d 4c6f 0a3d 1b47 b3bd
00000060: 52e7 37bd a3fe 983d b9a8 78bc 477b cf3d
00000070: b415 debd e925 93bc a5e8 61bd 4733 71bd
00000080: bfd6 053d 28bf bebd 2e11 9bbd b753 ddbd
00000090: 2ee2 d8bc e624 4ebd df23 ebbd 9ae6 e43d
000000a0: 0741 b13d 0b9f d33c b92c 47bd e0eb 57bd
000000b0: 86b6 adbd a94d 953d 8877 37bc 1fea 92bd
000000c0: faad e13d 6c07 c63d 17c8 f3bd 1133 8e3d
000000d0: 35b2 d9bd d24e 66bc 4955 2b3c 3fed debd
000000e0: b77d 123c 2995 ae3d d86b b03d 25e8 d0bd
000000f0: 5905 aebd 004a c73d 8f3f b4bd 2673 ab3d

weight f4 [7, 64]
0.12084695 0.109779075 0.10110485 0.07063029 -0.11494605 0.111299515 0.07620067 0.0068003107
0.07849361 0.09659301 -0.08003342 0.0202085 -0.059344243 -0.052973766 -0.11121026 0.049637355
0.10121267 -0.07322633 -0.031139003 -0.054579373 -0.015124315 -0.10852377 0.0029150788 0.0050990386
-0.090473 0.011075732 -0.02260591 -0.061128404 0.01767591 0.055048373 -0.09616752 0.043472406
0.055167492 0.041350774 -0.055730026 -0.078485966 -0.093545295 -0.010120443 -0.06528131 -0.032379963
0.044958897 -0.06793849 0.060526382 0.041561067 -0.08409993 -0.006605261 0.009578806 0.04611655
0.122504964 0.09051802 0.06187413 0.013444095 0.07273324 0.10363631 -0.059529677 -0.05951326
0.057992563 0.0846321 -0.048462395 -0.101095445 -0.03781543 -0.07055449 -0.04745948 0.02558013
-0.08419637 -0.11717138 -0.03719374 -0.043316312 -0.08970714 -0.008065596 -0.09053866 -0.025620399
-0.019828588 -0.07218738 0.09411402 0.09607582 -0.08181207 0.087242976 -0.12109661 0.0840292
0.03462697 -0.03605882 0.049467366 0.09224637 0.09550752 0.04579732 -0.08921836 -0.09107499
-0.01706047 0.117588736 -0.06739902 0.022894185 -0.050004214 0.08678644 0.08083741 0.0789773
-0.022364292 -0.11325801 -0.029774297 0.11621252 -0.06305732 -0.06054953 0.08727244 -0.11547559
-0.0112799285 0.09812954 -0.08199404 0.0660311 0.008180661 0.0153969405 -0.0049969824 0.025241673
0.07167494 0.11453497 -0.10582654 0.02265404 -0.11903589 -0.12000315 -0.109466106 -0.08975892
-0.04915675 0.087862164 0.08896307 0.078313865 0.027994929 0.07016509 0.04723439 0.022085674
-0.124546826 0.07274685 -0.08795808 -0.061335836 0.045321353 -0.001526922 -0.12283193 -0.061432254
-0.09636383 0.0020732116 0.03624396 -0.031689003 -0.120618574 -0.057545155 0.08892168 -0.031419266
0.05344121 0.08341877 0.088315606 0.05912632 0.04624939 -0.05836349 0.065863885 0.040308297
-0.06922701 -0.079094514 0.039187014 -0.081579395 0.12197658 -0.03328225 -0.07970269 -0.07973415
-0.06783911 0.011127264 0.08260729 -0.115951695 -0.122125775 0.037142903 -0.06060982 0.08450282
0.062609255 0.044465855 -0.08410026 0.010430276 0.109184965 -0.11141503 -0.06725545 -0.08272411
-0.016888365 -0.11798643 0.014459148 -0.047983468 0.0666217 -0.06417656 -0.044702794 -0.0817111
-0.1242899 -0.1173786 0.014750451 0.058108076 -0.09149319 0.0754091 0.030279338 0.111384936
0.09656223 -0.040905733 -0.0865088 -0.064506635 0.06350199 0.08646703 0.084244564 -0.04131233
0.08904533 0.021642178 0.11089644 -0.09382356 -0.009185981 0.037290648 -0.09706295 -0.11914736
-0.024519581 0.036458865 0.069806784 -0.014195571 -0.080749646 -0.098816834 -0.12370754 0.078613564
0.052279975 -0.096502714 -0.036125913 0.046177547 0.0864829 -0.11944719 -0.041542754 -0.023796432
0.030677376 -0.04360168 -0.024823412 0.03821389 -0.08008388 -0.05036288 -0.08906371 -0.025632532
0.06530156 0.025410727 0.027846461 -0.0991503 -0.091383226 0.12436358 0.114783034 0.005106158
0.12304677 0.033442356 -0.09077803 -0.08837408 0.025559213 -0.044803146 0.038063377 -0.0059296866
0.011649821 0.029302483 0.123433374 0.0147169 -0.08620401 0.07888126 0.035319235 0.036176126
00000000: 9b7e f73d dad3 e03d 0f10 cf3d 9da6 903d
00000010: d668 ebbd 00f1 e33d 190f 9c3d 24d5 de3b
00000020: 42c1 a03d 8ed2 c53d 90e8 a3bd 4c8c a53c
00000030: f312 73bd 05fb 58bd 34c2 e3bd 8a50 4b3d
00000040: 9748 cf3d b0f7 95bd 3917 ffbc 9f8e 5fbd
00000050: facb 77bc b641 debd e80a 3f3b d615 a73b
00000060: e949 b9bd fd76 353c 0830 b9bc c761 7abd
00000070: 12cd 903c 677a 613d 7af3 c4bd 1f10 323d
00000080: 4ff7 613d 6e5f 293d 2b45 64bd 40bd a0bd
00000090: ad94 bfbd 37d0 25bc 35b2 85bd daa0 04bd
000000a0: d226 383d 5623 8bbd 83ea 773d f03b 2a3d
000000b0: 963c acbd f270 d8bb 6df0 1c3c b5e4 3c3d
000000c0: e2e3 fa3d 8361 b93d ba6f 7d3d 9f44 5c3c
000000d0: 2af5 943d 463f d43d 64d5 73bd 2dc4 73bd
000000e0: 9c89 6d3d 9853 ad3d 8180 46bd 210b cfbd
000000f0: 5ae4 1abd df7e 90bd df64 42bd 6c8d d13c
00000100: 256f acbd 8cf7 efbd 7758 18bd 726c 31bd
00000110: 61b8 b7bd 9025 04bc 556c b9bd dfe1 d1bc
00000120: 906f a2bc fad6 93bd dabe c03d 66c3 c43d
00000130: 168d a7bd 72ac b23d 8001 f8bd 8017 ac3d
00000140: 02d5 0d3d 6ab2 13bd 4b9e 4a3d aaeb bc3d
00000150: 7299 c33d f895 3b3d 1eb8 b6bd 8685 babd
00000160: 66c2 8bbc 5dd2 f03d 7f08 8abd 968c bb3c
00000170: 38d1 4cbd 17bd b13d 168e a53d dabe a13d
00000180: 5235 b7bc d1f3 e7bd 3ae9 f3bc d400 ee3d
00000190: 3224 81bd c902 78bd e5bb b23d 777e ecbd
000001a0: 73cf 38bc 24f8 c83d 7eec a7bd 503b 873d
000001b0: 2e08 063c 7343 7c3c babd a3bb a0c7 ce3c
000001c0: 50ca 923d 4f91 ea3d 96bb d8bd f794 b93c
000001d0: 17c9 f3bd 36c4 f5bd c42f e0bd 86d3 b7bd
000001e0: 9758 49bd 14f1 b33d 4532 b63d 0563 a03d
000001f0: 9f55 e53c b7b2 8f3d d978 413d 04ed b43c
00000200: 6812 ffbd 4dfc 943d 5e23 b4bd 493b 7bbd
00000210: e2a2 393d 0023 c8ba 4f8f fbbd 63a0 7bbd
00000220: 665a c5bd b8de 073b 8c74 143d 54cc 01bd
00000230: df06 f7bd 78b4 6bbd 921c b63d 7db1 00bd
00000240: 2ce5 5a3d 76d7 aa3d d0de b43d 712e 723d
00000250: 0070 3d3d 8e0e 6fbd a5e3 863d 501a 253d
00000260: e4c6 8dbd 4efc a1bd 9082 203d 1913 a7bd
00000270: dbce f93d f852 08bd 2a3b a3bd a84b a3bd
00000280: 3bef 8abd 214f 363c 032e a93d 1578 edbd
00000290: 141d fabd 2823 183d 0142 78bd d10f ad3d
000002a0: 4839 803d d421 363d c23c acbd c0e3 2a3c
000002b0: 5e9c df3d 902d e4bd 3abd 89bd 426b a9bd
000002c0: 7859 8abc dfa2 f1bd 10e6 6c3c 508a 44bd
000002d0: f570 883d 006f 83bd 471a 37bd 2658 a7bd
000002e0: b48b febd 3164 f0bd e0ab 713c bc02 6e3d
000002f0: c860 bbbd 1670 9a3d 600c f83c c91d e43d
00000300: 6bc2 c53d c58c 27bd 872b b1bd 0e1c 84bd
00000310: 550d 823d a015 b13d 6a88 ac3d 1e37 29bd
00000320: 665d b63d f04a b13c ac1d e33d 9126 c0bd
00000330: cc80 16bc 14be 183d f1c8 c6bd 8803 f4bd
00000340: 4add c8bc e455 153d dcf6 8e3d 8a94 68bc
00000350: 1260 a5bd 7b60 cabd 615a fdbd 2600 a13d
00000360: 8723 563d 37a3 c5bd c4f8 13bd ab24 3d3d
00000370: f21d b13d baa0 f4bd bc28 2abd bcf0 c2bc
00000380: 1f4f fb3c ad97 32bd 785a cbbc 2b86 1c3d
00000390: 0403 a4bd 4f49 4ebd 0967 b6bd 51fb d1bc
000003a0: d3bc 853d 282a d03c 431e e43c 500f cbbd
000003b0: 2127 bbbd 55b2 fe3d 5e13 eb3d 8f51 a73b
000003c0: f2ff fb3d dafa 083d d5e9 b9bd 78fd b4bd
000003d0: 8e61 d13c 8183 37bd 58e8 1b3d d14d c2bb
000003e0: e4de 3e3c c30b f03c a3ca fc3d 271f 713c
000003f0: ba8b b0bd 7f8c a13d e7aa 103d 6b2d 143d

bias f4 [7]
-0.039502557 0.09620542 -0.048005372 -0.1081124 -0.025485158 -0.03174621 0.09487102
00000000: 6fcd 21bd 5907 c53d 48a1 44bd 096a ddbd
00000010: 40c6 d0bc 5008 02bd bd4b c23d

weight f4 [7, 7]
-0.35026494 -0.16585864 -0.14064422 0.31732115 0.06328508 -0.09082782 0.34590712 -0.048463672
-0.1536038 0.1430209 -0.1475692 -0.012618184 0.061913162 -0.103489816 0.30094853 0.11808327
-0.0788002 -0.005748749 -0.17493692 -0.10366115 -0.34739375 0.06578844 -0.11613238 -0.089575715
-0.21954535 0.07962761 -0.22147237 -0.26702866 -0.04168856 0.0015642941 -0.014200896 -0.07613549
0.13622925 0.22929958 0.065003544 -0.2168359 0.31569597 0.2303339 -0.262424 0.33597472
-0.13041663 -0.11399785 -0.067272246 0.03704788 0.11456926 0.16190693 0.06745825 0.3504115
0.2704992
00000000: ed55 b3be d9d6 29be 0a05 10be eb77 a23e
00000010: 9c9b 813d f003 babd bd1a b13e d881 46bd
00000020: 514a 1dbe 1274 123e 611c 17be 80bc 4ebc
00000030: a898 7d3d 78f2 d3bd ed15 9a3e a4d5 f13d
00000040: 0062 a1bd 0060 bcbb aa22 33be 4c4c d4bd
00000050: 98dd b1be 17bc 863d d0d6 edbd 7973 b7bd
00000060: 7fd0 60be cd13 a33d a7c9 62be fbb7 88be
00000070: a0c1 2abd 0009 cd3a e0aa 68bc ecec 9bbd
00000080: ae7f 0b3e 82cd 6a3e 9420 853d 3b0a 5ebe
00000090: e7a2 a13e a6dc 6b3e 705c 86be e104 ac3e
000000a0: f08b 05be b477 e9bd 08c6 89bd 85bf 173d
000000b0: 4aa3 ea3d eeca 253e 8d27 8a3d 2369 b33e
000000c0: df7e 8a3e

bias f4 [7]
-0.32147494 -0.34210852 -0.3312922 0.37681216 -0.10619512 -0.11221519 0.37129855
00000000: 5d98 a4be d928 afbe 229f a9be 86ed c03e
00000010: d47c d9bd 14d1 e5bd d81a be3e

weight f4 [64, 42]
0.10690226 -0.08338362 -0.112209745 0.029612608 -0.10082896 -0.13141364 -0.09746912 -0.13704826
0.04702806 -0.067395404 -0.07362658 0.031936113 0.029283889 -0.05623786 -0.09941238 -0.10446388
-0.000121823 0.010803027 0.073058605 -0.15013906 0.083142884 0.01754035 0.052898314 0.09188779
-0.1293619 -0.12857509 -0.06383232 -0.029627437 -0.13631451 0.06753721 -0.0048642117 0.11479793
0.092962794 -0.13446732 -0.14583127 0.041345745 -0.10379083 0.08605979 0.028935315 -0.031215172
-0.09382866 0.13120855 -0.11910096 -0.06629324 -0.10284832 0.026397409 -0.027187368 0.13814025
0.043514356 -0.14300479 0.064637095 -0.030977791 0.082738884 -0.06491223 -0.041644376 -0.06784781
-0.091742545 -0.14451605 0.08748896 0.13649796 -0.051412992 0.14876743 0.11214836 0.13012718
0.08073199 0.14913003 0.12200903 0.03665046 -0.090705946 0.07822612 -0.09256599 0.079388045
0.13999006 -0.04818444 0.007834535 -0.006140676 -0.051405318 -0.07418579 0.03621412 -0.018850481
-0.01270638 0.06995615 -0.04218268 0.09681276 -0.07733922 0.13986889 0.025147809 -0.048901573
-0.09101393 0.031382702 0.14139585 -0.09125182 -0.07684191 -0.05657202 -0.15176378 -0.13748983
-0.07754744 0.014196111 -0.02908583 -0.040156264 0.054837126 0.037296895 -0.073740974 0.08060341
0.096129134 -0.057250936 -0.14171895 -0.01460359 -0.10513018 0.06072659 -0.04265967 -0.14192377
-0.06905856 -0.060996946 0.07084462 0.03038071 0.149496 -0.12054961 0.07471727 -0.09757791
-0.018842716 -0.059137836 -0.029468384 0.027434098 0.04511784 -0.09137916 -0.073393606 -0.13381214
0.12331355 -0.1443563 0.14685306 -0.021365011 -0.1346128 -0.07032523 -0.07688285 0.009720527
-0.15194729 0.14030051 -0.07612907 0.07374505 -0.018036261 0.1282549 0.10047968 0.027099619
0.065046586 0.13886462 0.12582597 0.02770521 -0.06225043 -0.1085902 -0.13292316 0.11616232
-0.0779657 0.14361322 0.075371444 -0.030328467 0.13793962 -0.12548582 -0.10681763 -0.13387613
-0.06172927 0.13578062 0.13052148 0.089572795 0.04741307 -0.0016093361 0.021991475 -0.027745461
-0.03585236 0.01599428 -0.05004171 0.107063785 0.06053207 -0.05892688 -0.049016837 -0.065300114
-0.112954445 0.14621042 0.081471264 -0.030625435 0.1140297 0.06311189 0.002404478 -0.14226392
-0.10837014 0.053446308 0.019687293 -0.12839523 -0.07547155 -0.07635608 0.086618274 -0.12348942
-0.05954357 0.032514885 0.0827992 0.04725393 0.15106314 0.07168568 -0.15221113 -0.04872134
0.11476061 -0.06916809 0.096784614 0.074760236 0.021827035 -0.09814712 -0.055990234 -0.10084464
0.09016 -0.02243322 0.01833072 0.008537703 0.03768232 0.1291225 0.04987813 0.05311204
0.12849785 -0.05068839 -0.013631021 0.055745777 0.09901707 0.14652319 -0.05417092 -0.11080944
-0.14541757 -0.13267364 0.085682735 -0.085252285 -0.007499384 -0.09032175 -0.10161868 -0.054843128
-0.13177606 -0.094736405 -0.111293755 -0.037202813 -0.049049962 0.03755307 0.018509204 -0.039791793
-0.066487335 -0.025635071 0.04821875 0.14877103 0.06699282 0.058451064 0.04756805 0.098481774
-0.07074504 -0.025863554 0.13097125 -0.04501041 0.0033361518 -0.122172326 0.089654356 0.13363627
00000000: 92ef da3d 08c5 aabd 39ce e5bd 2496 f23c
00000010: 6a7f cebd 4c91 06be e49d c7bd 6156 0cbe
00000020: 7fa0 403d 9a06 8abd 88c9 96bd 71cf 023d
00000030: c4e4 ef3c ac59 66bd b898 cbbd 29f1 d5bd
00000040: 3a7b ffb8 2eff 303c c09f 953d 0ebe 19be
00000050: d146 aa3d c8b0 8f3c e7ab 583d aa2f bc3d
00000060: 7277 04be 30a9 03be 85ba 82bd 3db5 f2bc
00000070: 0896 0bbe f350 8a3d f763 9fbb 2d1b eb3d
00000080: 4763 be3d cdb1 09be cb54 15be 285a 293d
00000090: 4990 d4bd 1d40 b03d c109 ed3c f6b6 ffbc
000000a0: 3e29 c0bd 895b 063e 34eb f3bd c0c4 87bd
000000b0: 24a2 d2bd 613f d83c 0bb8 debc a374 0d3e
000000c0: 1c3c 323d d96f 12be 7460 843d 23c5 fdbc
000000d0: 0173 a93d b4f0 84bd 4b93 2abd cbf3 8abd
000000e0: 84e3 bbbd 04fc 13be 692d b33d 1fc6 0b3e
000000f0: 6e96 52bd 7d56 183e 0aae e53d 0f40 053e
00000100: d056 a53d 8bb5 183e dfdf f93d cb1e 163d
00000110: 0ac4 b9bd 0435 a03d 3d93 bdbd 3396 a23d
00000120: 8e59 0f3e 0c5d 45bd 6c5c 003c b937 c9bb
00000130: 628e 52bd b8ee 97bd 4255 143d 536c 9abc
00000140: 6c2e 50bc 2c45 8f3d bfc7 2cbd c545 c63d
00000150: 0664 9ebd ca39 0f3e c702 ce3c 044d 48bd
00000160: 8365 babd 268b 003d 13ca 103e 3ce2 babd
00000170: 4b5f 9dbd 10b8 67bd f767 1bbe 22ca 0cbe
00000180: 31d1 9ebd ce96 683c 6845 eebc e57a 24bd
00000190: e59c 603d a1c4 183d 8205 97bd 6713 a53d
000001a0: 5adf c43d f57f 6abd c61e 11be e543 6fbc
000001b0: 7e4e d7bd 72bc 783d e8bb 2ebd 7754 11be
000001c0: 936e 8dbd efd7 79bd fc16 913d f7e0 f83c
000001d0: 7b15 193e b7e2 f6bd 5e05 993d edd6 c7bd
000001e0: 0a5c 9abc 843a 72bd ae67 f1bc 79bd e03c
000001f0: 7ccd 383d ff24 bbbd 634f 96bd 0d06 09be
00000200: d18b fc3d 23d2 13be a660 163e ad05 afbc
00000210: f0d7 09be ad06 90bd c174 9dbd d842 1f3c
00000220: 1298 1bbe f0aa 0f3e 8fe9 9bbd a507 973d
00000230: c8c0 93bc 4155 033e 4ac8 cd3d 0500 de3c
00000240: 2537 853d 8732 0e3e 86d8 003e 09f6 e23c
00000250: 4ffa 7ebd 8a64 debd 021d 08be 83e6 ed3d
00000260: 7bac 9fbd 580f 133e 585c 9a3d 6873 f8bc
00000270: 0b40 0d3e 5b7f 00be 34c3 dabd d316 09be
00000280: d5d7 7cbd 130a 0b3e 6ca7 053e f171 b73d
00000290: 3534 423d 5cf0 d2ba 7727 b43c 734a e3bc
000002a0: edd9 12bd 7006 833c 89f8 4cbd 4244 db3d
000002b0: 7af0 773d 505d 71bd e1c5 48bd 11bc 85bd
000002c0: a954 e7bd 2fb8 153e 68da a63d 31e2 fabc
000002d0: 6788 e93d ce40 813d 7294 1d3b a2ad 11be
000002e0: 2af1 ddbd 84ea 5a3d 3f47 a13c 0a7a 03be
000002f0: d490 9abd 9460 9cbd ec64 b13d 05e8 fcbd
00000300: f5e3 73bd 542e 053d a192 a93d 568d 413d
00000310: 4cb0 1a3e f1cf 923d 3cdd 1bbe 0790 47bd
00000320: 9c07 eb3d 00a8 8dbd 0337 c63d e51b 993d
00000330: 9cce b23c 5b01 c9bd 0456 65bd a287 cebd
00000340: cea5 b83d dfc5 b7bc 4e2a 963c b9e1 0b3c
00000350: c758 1a3d b038 043e 034d 4c3d 038c 593d
00000360: f194 033e a19e 4fbd a554 5fbc af55 643d
00000370: 76c9 ca3d 2d0a 163e 54e2 5dbd 0ff0 e2bd
00000380: 58e8 14be 99db 07be 6e7a af3d c098 aebd
00000390: 65bd f5bb 9cfa b8bd 741d d0bd 30a3 60bd
000003a0: 4ef0 06be 2905 c2bd fbed e3bd fa61 18bd
000003b0: 9de8 48bd 3fd1 193d 9da0 973c b8fc 22bd
000003c0: 832a 88bd a400 d2bc 0681 453d 6f57 183e
000003d0: 8833 893d 626a 6f3d b7d6 423d d0b0 c93d
000003e0: c7e2 90bd cedf d3bc 541d 063e d65c 38bd
000003f0: 57a3 5a3b 7c35 fabd b49c b73d f2d7 083e

bias f4 [64]
-0.1349249 0.10480019 -0.020742517 0.08452988 -0.082661286 0.1411905 -0.008957449 0.006651988
0.0108927805 0.036183815 0.054955073 0.01752189 -0.07248691 0.052127015 -0.02443413 0.08432632
-0.0666134 -0.06556578 -0.033298753 0.12339676 0.046337165 -0.012213095 -0.14315286 0.10793762
0.13963273 -0.1489656 0.03250132 0.058816876 -0.1534854 0.06426918 -0.07309398 -0.06299029
-0.0064700716 0.1508899 -0.07820567 -0.004567612 0.049697362 -0.15276009 0.13167016 0.14506295
0.08247236 -0.09123909 0.05945975 -0.06399971 -0.10710701 0.12686603 -0.15360664 -0.15224858
-0.0619646 -0.053529743 0.0117268665 -0.10699004 0.1453392 -0.111334935 0.018927198 -0.04819974
-0.064323604 -0.08239601 -0.047754772 -0.052277453 -0.07277187 -0.019966738 0.12221204 0.09465962
00000000: c129 0abe 7ba1 d63d 36ec a9bc 001e ad3d
00000010: 524a a9bd 3e94 103e 44c2 12bc ebf8 d93b
00000020: a277 323c 7b35 143d 9218 613d 118a 8f3c
00000030: 0474 94bd 2383 553d 162a c8bc 47b3 ac3d
00000040: 9b6c 88bd 5a47 86bd 4664 08bd 71b7 fc3d
00000050: 0acc 3d3d 6f19 48bc aa96 12be 660e dd3d
00000060: e2fb 0e3e 708a 18be 1b20 053d f7e9 703d
00000070: 472b 1dbe 8f9f 833d 4cb2 95bd 0e01 81bd
00000080: e502 d4bb e282 1a3e 4b2a a0bd e8ab 95bb
00000090: 768f 4b3d 246d 1cbe 8bd4 063e 628b 143e
000000a0: 45e7 a83d 8fdb babd 118c 733d 4812 83bd
000000b0: ec5a dbbd 2be9 013e 0f4b 1dbe 0de7 1bbe
000000c0: 98ce 7dbd 0142 5bbd 0b22 403c 981d dbbd
000000d0: cdd3 143e 9203 e4bd 360d 9b3c 176d 45bd
000000e0: 18bc 83bd 3dbf a8bd 829a 43bd e220 56bd
000000f0: 6b09 95bd 4991 a3bc 4e4a fa3d e7dc c13d

weight f4 [64, 64]
0.12513472 -0.056449078 -0.04325251 -0.07756368 -0.00573733 0.03148716 0.114761814 -0.046437528
-0.032939192 0.038586438 -0.036037713 0.04338437 -0.019711314 -0.118031465 -0.0013068581 0.118755765
-0.05213803 -0.08092256 0.11126592 0.08634476 -0.05662364 0.077096194 -0.037650485 -0.0072861775
-0.001005329 -0.06567138 0.11418273 0.0906087 -0.06836639 0.008983114 0.10342341 0.08659989
-0.086999744 0.10903422 0.042930394 -0.09313791 0.031649478 0.053749964 0.05830163 -0.11258778
-0.02832397 -0.0033671267 0.078898415 0.04428406 -0.111255765 -0.12440015 0.077340275 0.05104067
0.08759939 -0.013410823 0.07637021 -0.0900622 -0.009062543 0.005189444 0.111025296 -0.06810428
0.011046647 0.040503304 0.016663812 -0.06715633 -0.009870772 -0.08273757 -0.09469713 0.08054131
0.08420684 -0.012766279 0.10172926 0.04698115 -0.035793837 0.01099604 -0.003745868 -0.0063854447
-0.10615857 0.05855439 0.11756183 0.07667417 -0.05314828 -0.12488583 -0.02334513 0.07600288
0.11163853 0.10136087 0.040281903 0.012953464 -0.070103005 -0.08869068 -0.03924061 -0.119510956
-0.07881891 0.08031278 0.054833323 0.029001975 -0.048813097 -0.0031312902 -0.094617955 0.039076652
0.06405006 0.09213391 -0.03348733 0.071384445 0.09214374 -0.0831312 -0.08723226 0.008598039
0.048223007 0.0327528 0.048225813 -0.08403771 0.03074549 0.109156236 -0.019388922 -0.05586586
-0.07080739 0.020197611 -0.06316011 -0.07572311 -0.04840932 -0.07230349 0.02816884 0.07917911
0.08399359 0.0053837867 -0.10359489 -0.11669839 0.03013831 0.098831475 -0.037324235 0.044461012
-0.10767584 0.10152354 -0.013640529 0.06082287 -0.030588305 0.011184299 0.04679581 0.11594953
0.12192028 0.0988542 -0.0440151 -0.032218758 -0.10990674 -0.014116869 -0.106222145 0.0051798136
0.07505511 -0.054894835 0.09099678 0.1028867 -0.11279007 0.1151629 -0.11728162 0.092581846
-0.10684605 -0.065855175 -0.09967943 -0.061507836 -0.029223088 -0.093456104 -0.100289844 -0.0074083577
0.095622465 -0.0717602 0.11832483 0.10465353 0.039361272 -0.0219506 -0.025935115 0.0088794455
-0.07175875 -0.055532187 0.11261354 -0.025869714 -0.004949108 0.015186693 -0.025902124 -0.031590622
-0.10078685 -0.03733081 0.12166306 -0.11094772 0.04260714 -0.120317996 -0.08978535 -0.018130055
-0.02355603 0.09466663 -0.013642244 -0.018968202 -0.04394734 0.08718948 -0.104805864 0.073164396
-0.06850773 -0.07410842 0.034882024 -0.11491682 -0.09542303 -0.11459041 0.024981342 0.094151996
-0.113407485 0.077799216 0.119754665 -0.01763402 -0.04915431 -0.012852767 0.10558128 -0.04374081
0.014705306 -0.0153931435 -0.09968818 -0.020791562 0.06490461 0.06625205 0.12189692 0.11527025
0.00072687364 0.09448445 -0.063589476 -0.028430555 0.06473179 0.07754541 0.055913355 0.032734424
0.027496671 0.04636081 -0.117237955 -0.06969515 -0.02041899 0.012188054 0.09841207 0.07067596
0.05587792 0.019378396 0.016764982 0.037920274 -0.093707606 -0.092854194 -0.008430843 0.050058227
0.10745738 0.07444704 0.07817675 0.12461378 0.083630204 -0.086571895 -0.007701447 -0.07345843
-0.02958296 0.018701443 -0.05701029 0.11728125 -0.07735939 -0.020586485 -0.08897882 -0.094254114
00000000: 5123 003e 2637 67bd 8b29 31bd b5d9 9ebd
00000010: 3600 bcbb aef8 003d 3e08 eb3d 4735 3ebd
00000020: 3feb 06bd d00c 1e3d 489c 13bd cfb3 313d
00000030: 9f79 a1bc 7bba f1bd e24a abba 3936 f33d
00000040: b08e 55bd baba a5bd 63df e33d 86d5 b03d
00000050: 31ee 67bd 9ce4 9d3d 6537 1abd e3c0 eebb
00000060: 3ec5 83ba b77e 86bd a3d8 e93d 0e91 b93d
00000070: ae03 8cbd e92d 133c a7cf d33d 485b b13d
00000080: ec2c b2bd 554d df3d c8d7 2f3d 17bf bebd
00000090: e2a2 013d ec28 5c3d b1cd 6e3d 6c94 e6bd
000000a0: ac07 e8bc 03ab 5cbb 7e95 a13d 3463 353d
000000b0: 10da e3bd 81c5 febd 9464 9e3d 0610 513d
000000c0: 4f67 b33d 12b9 5bbc fc67 9c3d 8872 b8bd
000000d0: 0f7b 14bc 360c aa3b 3b61 e33d 427a 8bbd
000000e0: fffc 343c cbe6 253d 8c82 883c 4289 89bd
000000f0: 05b9 21bc 5172 a9bd 92f0 c1bd d8f2 a43d
00000100: a374 ac3d a829 51bc 6e57 d03d 4e6f 403d
00000110: 8f9c 12bd bc28 343c 3d7d 75bb fe3c d1bb
00000120: aa69 d9bd bad6 6f3d 42c4 f03d 5907 9d3d
00000130: 03b2 59bd 24c4 ffbd 493e bfbc 66a7 9b3d
00000140: bea2 e43d 4a96 cf3d a3fe 243d c43a 543c
00000150: 2a92 8fbd 76a3 b5bd c3ba 20bd 29c2 f4bd
00000160: cf6b a1bd 077b a43d e898 603d 8d95 ed3c
00000170: 3ef0 47bd 5536 4dbb 0fc7 c1bd d70e 203d
00000180: ae2c 833d b4b0 bc3d 032a 09bd 0232 923d
00000190: dbb5 bc3d b140 aabd d4a6 b2bd cade 0c3c
000001a0: 7d85 453d cd27 063d 6e88 453d f71b acbd
000001b0: f7dd fb3c 4e8d df3d 84d5 9ebc 9ad3 64bd
000001c0: 7703 91bd 7675 a53c 165a 81bd b814 9bbd
000001d0: da48 46bd da13 94bd 57c2 e63c a828 a23d
000001e0: d504 ac3d 7a6a b03b 8f29 d4bd 91ff eebd
000001f0: 9ee4 f63c 2868 ca3d 4ce1 18bd c01c 363d
00000200: 2785 dcbd 93eb cf3d 867c 5fbc 6721 793d
00000210: 5394 fabc 5a3e 373c f7ac 3f3d f276 ed3d
00000220: 57b1 f93d 1274 ca3d 2d49 34bd d1f7 03bd
00000230: c916 e1bd 714a 67bc ff8a d9bd 6dbb a93b
00000240: 7eb6 993d 68d9 60bd 855c ba3d 43b6 d23d
00000250: 7bfe e6bd 87da eb3d 5931 f0bd 8d9b bd3d
00000260: 1ad2 dabd 14df 86bd bb24 ccbd a4ef 7bbd
00000270: 4265 efbc ea65 bfbd c364 cdbd cfc1 f2bb
00000280: b6d5 c33d 03f7 92bd 4a54 f23d 9754 d63d
00000290: 4939 213d bfd1 b3bc e175 d4bc 187b 113c
000002a0: 40f6 92bd b875 63bd eda1 e63d b9ec d3bc
000002b0: 212c a2bb 9bd1 783c b130 d4bc 2b65 01bd
000002c0: 5669 cebd 31e8 18bd 7b2a f93d 8f38 e3bd
000002d0: d384 2e3d 4869 f6bd 62e1 b7bd 7b85 94bc
000002e0: 93f8 c0bc 94e0 c13d b883 5fbc 3463 9bbc
000002f0: 2002 34bd 6690 b23d 75a4 d6bd 37d7 953d
00000300: c84d 8cbd 28c6 97bd 74e0 0e3d 8259 ebbd
00000310: 266d c3bd 60ae eabd aca5 cc3c c3d2 c03d
00000320: 2f42 e8bd 3255 9f3d ef41 f53d 3875 90bc
00000330: 0856 49bd 6994 52bc 003b d83d 9029 33bd
00000340: 86ee 703c 8633 7cbc 5129 ccbd 1153 aabc
00000350: b5ec 843d 28af 873d 18a5 f93d cf12 ec3d
00000360: aa8b 3e3a 1081 c13d 333b 82bd 32e7 e8bc
00000370: 1a92 843d 21d0 9e3d 6705 653d 8814 063d
00000380: b340 e13c d5e4 3d3d 741a f0bd 55bc 8ebd
00000390: ba45 a7bc 67b0 473c 448c c93d 8fbe 903d
000003a0: 3fe0 643d 71bf 9e3c b756 893c 4a52 1b3d
000003b0: c6e9 bfbd 572a bebd 8521 0abc db09 4d3d
000003c0: 9d12 dc3d b177 983d 221b a03d 8235 ff3d
000003d0: 5046 ab3d 9b4c b1bd 6b5c fcbb 6071 96bd
000003e0: f757 f2bc c533 993c 9f83 69bd 2731 f03d
000003f0: 9a6e 9ebd fda4 a8bc 873a b6bd 4d08 c1bd

bias f4 [64]
-0.08874121 -0.10089666 -0.10745695 -0.057158418 0.024080073 -0.056812238 0.07829755 0.015881147
-0.06960125 0.07057555 0.09165238 0.0077611813 -0.030384317 0.06421484 -0.022775065 0.023507498
0.03572507 0.06713894 -0.03937154 -0.077670485 0.06805223 -0.042959534 -0.124031916 0.12471939
0.0924017 -0.049761213 -0.004832719 0.09574861 0.07235484 -0.02587468 -0.07019715 0.11270912
0.015285663 -0.09956877 0.05849853 0.07742583 -0.12164588 0.11882636 0.0032196958 0.10108793
-0.0829404 0.11108103 0.11510583 0.011480206 0.036136094 0.10793035 0.07785185 0.05930849
-0.062040158 0.06427724 0.07184303 0.08537763 -0.045158036 0.08178427 -0.046795204 0.04968815
-0.02083991 0.035302565 -0.06719734 -0.07377222 0.071488306 -0.061250083 -0.01482996 0.11416464
00000000: f4bd b5bd e8a2 cebd 6412 dcbd f21e 6abd
00000010: 9343 c53c f3b3 68bd 775a a03d 2e19 823c
00000020: 1a8b 8ebd ea89 903d 3eb4 bb3d 8251 fe3b
00000030: 88e8 f8bc 1283 833d c692 babc cc92 c03c
00000040: 7354 123d 2480 893d 0d44 21bd b411 9fbd
00000050: f85e 8b3d 56f6 2fbd 7204 febd e16c ff3d
00000060: 1a3d bd3d 6ad2 4bbd c95b 9ebb d917 c43d
00000070: c62e 943d 23f7 d3bc 86c3 8fbd 0ad4 e63d
00000080: b870 7a3c b6ea cbbd 289c 6f3d 6f91 9e3d
00000090: 7a21 f9bd 3c5b f33d 8801 533b 3007 cf3d
000000a0: a8dc a9bd 737e e33d 9bbc eb3d 7917 3c3c
000000b0: 7103 143d 960a dd3d ca70 9f3d 76ed 723d
000000c0: d21d 7ebd c9a3 833d 7022 933d 78da ae3d
000000d0: a2f7 38bd 837e a73d 54ac 3fbd cd85 4b3d
000000e0: 75b8 aabc 6c99 103d c29e 89bd e415 97bd
000000f0: 7668 923d 5ee1 7abd 5cf9 72bc 27cf e93d

weight f4 [7, 64]
-0.12289094 0.12408789 0.12368272 -0.10313166 -0.119387425 0.075268984 0.11026729 0.09946272
0.10911466 0.118843816 -0.025268612 0.012217011 -0.064881526 -0.0804222 -0.10785623 -0.047037326
0.116817065 -0.061868157 0.113208756 0.12225757 -0.03805855 0.11289468 -0.08141085 -0.10952039
0.03986546 -0.057524603 -0.053949673 0.021083524 -0.105233796 0.039251156 0.065225184 0.10005765
-0.07498438 -0.06865369 -0.12292105 -0.0037703328 -0.03680526 0.11822497 0.0065131853 -0.055195555
0.058777574 0.060108453 -0.004410477 -0.09037204 0.09824496 -0.06272846 0.05451111 0.09559032
-0.062257573 -0.0030119526 0.063294806 0.0020690123 0.021350248 0.04796503 0.030552955 0.11230044
0.04124185 0.0023952841 -0.0032269843 -0.049065594 0.0666645 0.04493887 0.090785794 0.11357451
0.027317934 0.053834558 -0.060137395 0.11526312 0.03824966 0.054537587 -0.039827626 -0.020800063
-0.041942295 -0.1011281 -0.0055148634 0.054648627 0.03133038 0.10668196 -0.07837162 -0.013879785
-0.10590804 -0.052344434 0.042331282 -0.12259395 -0.081222616 -0.073336095 0.11445763 -0.107497066
0.034037612 -0.053447377 -0.08210249 -0.11510875 -0.022593934 0.011414486 0.050374478 -0.102381624
0.07717794 -0.050142966 -0.073135324 0.024751423 0.047650527 0.004339439 0.07991597 -0.012550916
-0.04580195 -0.035316337 0.052864388 0.09159258 0.025972134 0.119935915 -0.11301184 -0.03189659
0.022646572 -0.04300918 -0.054188155 -0.06805066 -0.11271463 0.057509154 -0.09517519 -0.08744153
-0.023664156 0.0602764 0.08968898 0.016720882 -0.0074918247 0.050468486 0.0059799803 0.04631845
0.083746366 0.019552037 0.064063 0.094245814 0.010466075 -0.105754 -0.05557819 0.0021108573
-0.019426227 -0.038732868 0.047506917 -0.050600022 -0.111697234 0.11020426 0.022789324 0.005241975
-0.028857097 0.09284201 0.12352154 -0.06344725 0.11170746 -0.07986875 -0.07639049 -0.1003098
-0.0034459077 -0.11530447 -0.08189141 0.069299094 -0.06801692 -0.11005541 -0.013013706 -0.03280165
0.09913556 -0.055916164 0.09654941 -0.024885684 -0.06859426 -0.081211984 -0.050596304 -0.012931954
0.07217123 -0.123063475 -0.0021970621 0.032636795 0.0507406 0.05461564 0.071154505 0.07193821
-0.080184646 -0.008887107 -0.08511112 -0.025438309 -0.12038177 0.08049835 -0.03161719 0.098314
-0.026323996 -0.014773038 0.064803675 0.035569202 0.065910146 0.10751453 -0.06670042 0.014000836
0.060114864 -0.05772337 0.005572507 -0.017510766 0.07649722 -0.09910234 0.098829694 -0.041363828
0.08883264 -0.03751056 -0.11045511 0.12126479 -0.0600509 -0.023243312 0.020396573 -0.06239406
0.038119897 -0.016773647 0.050055634 0.02175994 0.0047624726 0.08733674 -0.073095135 0.0816535
-0.07200551 0.07488406 0.09692396 0.02439093 0.096479654 0.028983444 0.03517641 0.07535717
-0.050693564 0.08837988 0.070738725 0.07747833 0.035524916 -0.11906756 0.1036999 0.05515326
-0.0034198463 -0.107105285 0.0284866 -0.014173813 0.011203614 -0.119875014 0.08720505 -0.109622814
0.09868895 0.103864335 -0.049570378 -0.11804348 0.08130871 0.0108960075 -0.020178529 0.09010586
-0.014740228 0.08668746 4.9888735e-05 -0.011044852 0.08017574 -0.116915435 -0.020376598 -0.06983379
00000000: 3fae fbbd cb21 fe3d 5e4d fd3d b136 d3bd
00000010: 6581 f4bd a026 9a3d d1d3 e13d 1cb3 cb3d
00000020: 8277 df3d 6364 f33d 1f00 cfbc dc29 483c
00000030: 9be0 84bd 65b4 a4bd bae3 dcbd 36aa 40bd
00000040: c93d ef3d 7769 7dbd fed9 e73d 2d62 fa3d
00000050: 48e3 1bbd 5335 e73d bbba a6bd 3a4c e0bd
00000060: f749 233d eb9e 6bbd 55fa 5cbd 5bb7 ac3c
00000070: d184 d7bd d2c5 203d c894 853d 06eb cc3d
00000080: 6991 99bd 4e9a 8cbd 08be fbbd b017 77bb
00000090: 1dc1 16bd ef1f f23d 8f6c d53b bc14 62bd
000000a0: c1c0 703d 4834 763d c385 90bb fa14 b9bd
000000b0: a734 c93d c777 80bd 0b47 5f3d dcc4 c33d
000000c0: cc01 7fbd 2e64 45bb b5a0 813d 4498 073b
000000d0: b7e6 ae3c fb76 443d 314a fa3c c6fd e53d
000000e0: 37ed 283d 33fa 1c3b d07b 53bb 01f9 48bd
000000f0: 6687 883d d211 383d e7ed b93d c199 e83d
00000100: dcc9 df3c a081 5c3d a152 76bd 120f ec3d
00000110: adab 1c3d ce62 5f3d 4b22 23bd e564 aabc
00000120: afcb 2bbd 401c cfbd 07b6 b4bb 3dd7 5f3d
00000130: 4954 003d 127c da3d 4d81 a0bd 0a68 63bc
00000140: 51e6 d8bd 1e67 56bd 9163 2d3d 8912 fbbd
00000150: 0b58 a6bd 3c31 96bd c368 ea3d 6c27 dcbd
00000160: 066b 0b3d a3eb 5abd 5a25 a8bd 23be ebbd
00000170: ea16 b9bc d303 3b3c 7855 4e3d 75ad d1bd
00000180: 780f 9e3d b662 4dbd f9c7 95bd 7fc3 ca3c
00000190: 332d 433d da31 8e3b fcaa a33d 5ba2 4dbc
000001a0: d39a 3bbd dda7 10bd 5488 583d e494 bb3d
000001b0: 83c3 d43c f6a0 f53d c072 e7bd 00a6 02bd
000001c0: 4e85 b93c 652a 30bd 66f4 5dbd 255e 8bbd
000001d0: eed6 e6bd b88e 6b3d 36eb c2bd 8b14 b3bd
000001e0: 55db c1bc 63e4 763d dbae b73d 3bfa 883c
000001f0: fb7d f5bb 0bb8 4e3d b6f3 c33b 6ab8 3d3d
00000200: 3783 ab3d 982b a03c 7633 833d f303 c13d
00000210: e679 2b3c 8e95 d8bd f5a5 63bd 4f56 0a3b
00000220: c023 9fbc 5ba6 1ebd 9d96 423d f841 4fbd
00000230: 85c1 e4bd c5b2 e13d adb0 ba3c e0c4 ab3b
00000240: b865 ecbc f423 be3d dcf8 fc3d a2f0 81bd
00000250: e1c6 e43d 3a92 a3bd 9e72 9cbd 396f cdbd
00000260: bdd4 61bb c024 ecbd afb6 a7bd afec 8d3d
00000270: 744c 8bbd bb64 e1bd 7037 55bc 065b 06bd
00000280: 9607 cb3d 5908 65bd b2bb c53d 10dd cbbc
00000290: 267b 8cbd 7852 a6bd 123e 4fbd 8ce0 53bc
000002a0: 83ce 933d b408 fcbd 96fc 0fbb 29ae 053d
000002b0: 60d5 4f3d a6b4 5f3d 74b9 913d 5754 933d
000002c0: d937 a4bd 3a9b 11bc bd4e aebd 0064 d0bc
000002d0: b88a f6bd 52dc a43d 0781 01bd da58 c93d
000002e0: 6ca5 d7bc 9d0a 72bc cab7 843d 03b1 113d
000002f0: e6fb 863d 9430 dc3d 3b9a 88bd c363 653c
00000300: 013b 763d 576f 6cbd 9499 b63b bd72 8fbc
00000310: 93aa 9c3d 2bf6 cabd 3967 ca3d 1e6d 29bd
00000320: e3ed b53d aca4 19bd 4a36 e2bd ad59 f83d
00000330: eff7 75bd c268 bebc b716 a73c ea90 7fbd
00000340: 9c23 1c3d e368 89bc 2307 4d3d e741 b23c
00000350: 840e 9c3b 9bdd b23d e7b2 95bd f339 a73d
00000360: a077 93bd d05c 993d 1280 c63d 7dcf c73c
00000370: 2097 c53d b06e ed3c 2415 103d dc54 9a3d
00000380: 0ea4 4fbd 8300 b53d 77df 903d f5ac 9e3d
00000390: 9382 113d b1d9 f3bd 9d60 d43d 62e8 613d
000003a0: 801f 60bb 045a dbbd bb5c e93c 4839 68bc
000003b0: 5d8f 373c 0881 f5bd 9098 b23d ed81 e0bd
000003c0: 6f1d ca3d d3b6 d43d 4f0a 4bbd c8c0 f1bd
000003d0: 2e85 a63d 2b85 323c 714d a5bc 6c89 b83d
000003e0: ff80 71bc 3289 b13d 9f3f 5138 78f5 34bc
000003f0: 2e33 a43d 5c71 efbd d3ec a6bc 0505 8fbd

bias f4 [7]
0.08738431 0.030700535 -0.084348105 -0.08870814 0.031972714 0.08640086 0.11229889
00000000: 8cf6 b23d b07f fb3c b3be acbd 9dac b5bd
00000010: d2f5 023d eff2 b03d f6fc e53d

weight f4 [7, 7]
-0.16246681 -0.09709796 0.16253152 -0.0002783537 0.17969301 -0.35381144 0.33080932 0.18062153
-0.18559094 0.12463197 -0.24710582 -0.10908359 -0.079419136 -0.17702301 0.077888995 -0.35094795
0.29091093 -0.24087077 0.16014948 -0.20434943 0.33950618 0.3232152 0.3217061 -0.24549259
-0.2662555 -0.3152921 -0.23361087 -0.039803345 0.2924767 0.051026955 -0.19822142 -0.333197
-0.27944773 -0.35484713 -0.15983105 -0.34830385 0.24405426 -0.25326747 0.012592063 -0.20551664
-0.33286035 -0.24320163 -0.20121035 0.2849569 -0.21681495 -0.096184164 0.20343623 0.27959356
0.29530665
00000000: b35d 26be 4cdb c6bd aa6e 263e 00f0 91b9
00000010: 7201 383e c626 b5be d75f a93e daf4 383e
00000020: 8d0b 3ebe 0c3f ff3d 4f09 7dbe 3867 dfbd
00000030: 80a6 a2bd 8545 35be 4484 9f3d 73af b3be
00000040: 47f2 943e d4a6 76be 3afe 233e fa40 51be
00000050: c1d3 ad3e 767c a53e a9b6 a43e 6962 7bbe
00000060: a452 88be f76d a1be b037 6fbe d508 23bd
00000070: 82bf 953e a401 513d 8efa 4abe cc98 aabe
00000080: c613 8fbe 86ae b5be c0aa 23be e254 b2be
00000090: 5ce9 793e 46ac 81be f14e 4e3c f472 52be
000000a0: ac6c aabe d909 79be 160a 4ebe dfe5 913e
000000b0: bd04 5ebe 34fc c4bd 9651 503e e326 8f3e
000000c0: 6f32 973e

bias f4 [7]
-0.21259847 -0.2154149 -0.23453294 0.1546601 0.33247018 0.19524662 -0.36895576
00000000: 6ab3 59be b995 5cbe 6729 70be 385f 1e3e
00000010: 8839 aa3e bbee 473e c5e7 bcbe
