logs/cp4_agent1_050924-034438.pth (torch, 67322 bytes, 16 tensors)

weight f4 [64, 42]
-0.011140349 -0.06948165 -0.011095895 0.06282983 -0.020725716 -0.11358389 0.08656265 0.04166046
-0.0670293 -0.13315226 -0.021219153 -0.13211608 0.06319297 0.14687817 -0.024321983 -0.06130719
-0.12096782 0.08807922 -0.019947208 -0.11987222 0.1044579 0.04015791 0.022513743 -0.07274753
-0.12905899 0.00014195348 -2.8956667e-05 0.11616337 -0.059027694 -0.06705152 -0.025975531 -0.06498764
0.10965448 0.027979994 0.036099862 0.10227304 0.12735316 0.083744325 0.0072139576 -0.14104298
0.06954673 -0.074535206 0.14417048 0.06529101 0.13699925 -0.11912668 0.13092098 0.13039277
-0.034016334 -0.12077233 0.10356082 0.1175049 -0.014743068 -0.04917412 0.1478167 -0.06273576
-0.13858403 -0.1316671 -0.036225077 0.1297166 -0.14703624 -0.067328714 0.08958367 0.0076574655
-0.03776698 0.03275129 -0.08999076 0.02888873 -0.03633146 -0.15117408 -0.06494407 -0.1175161
-0.022910101 0.1255645 0.02756381 0.12312539 -0.030615635 -0.07579897 -0.06819003 -0.11594442
-0.10804816 0.042997424 -0.076247476 0.13949937 0.11237506 -0.046901222 -0.089608714 0.12426589
-0.068972096 0.11066914 0.12544206 0.02606002 0.044343323 -0.11043678 0.14983228 0.081427835
0.049507998 0.022986678 -0.081156895 0.08539047 0.012093106 0.032329008 -0.027647445 0.052492112
-0.061168455 0.060505163 0.11863939 -0.1387473 -0.04135106 -0.0069610043 -0.14748155 -0.049872246
0.0035570124 0.012001911 -0.1112884 0.026917236 -0.14469348 -0.14673372 -0.054362416 0.04672792
-0.026130218 0.045554075 0.038991712 0.102574475 -0.13024962 0.10806821 0.12290722 -0.04398093
0.039171062 0.09738965 -0.09978596 0.05282607 -0.100311965 0.076106906 0.03591468 -0.13744459
0.15213178 0.11314336 -0.016057314 0.018493893 -0.09398754 -0.017811159 0.049649164 -0.11438551
0.05083472 -0.009921259 -0.108794816 0.05330514 0.047830123 0.10318601 -0.06105866 -0.10570495
-0.15211463 0.05176481 0.063491814 0.09392648 0.15238501 -0.087887645 -0.038582843 -0.09331285
0.053794656 -0.01315779 -0.0931452 -0.01887905 -0.08952341 -0.07526507 -0.032362577 0.14696498
0.09859206 0.092455715 -0.15312397 -0.050366875 -0.02706526 -0.12856585 -0.019323267 -0.0699924
0.11727198 -0.0075588105 0.07376755 -0.09289278 0.10072031 -0.10133113 -0.09614467 -0.04870257
-0.011831152 -0.06239751 -0.02296214 -0.11345274 0.06665458 -0.080253586 -0.10761452 -0.0371024
-0.13531704 0.087459534 -0.10946414 0.050759915 0.032123722 0.14903164 0.054150216 0.096694164
0.038808152 0.020390837 0.08814475 -0.070315816 0.15318525 0.034711458 -0.14804204 0.121597834
0.11605518 0.14884655 -0.01586879 0.026047356 0.018042475 -0.084702455 0.05794485 -0.15250203
-0.03052708 -0.07757422 -0.03731369 -0.0051362603 -0.043008026 -0.014948749 0.11403768 -0.052211355
0.07799531 -0.09792826 0.03908531 -0.014549204 -0.09143293 0.13276845 0.07748403 0.13083038
-0.010021334 0.009679693 -0.077276416 0.1483108 -0.05742996 -0.14078651 0.004086316 -0.098933086
0.12676096 -0.00817679 0.0018028672 -0.039403815 -0.05652336 0.14586164 -0.020932212 -0.064398184
-0.008923284 0.011583101 0.08752613 -0.11417919 -0.15164189 0.008054062 0.12758628 0.11390723
00000000: 0386 36bc 654c 8ebd 8fcb 35bc edac 803d
00000010: fac8 a9bc ac9e e8bd c247 b13d 29a4 2a3d
00000020: a846 89bd 1159 08be cad3 adbc 7049 07be
00000030: 516b 813d 3b67 163e e53e c7bc 401d 7bbd
00000040: fabd f7bd e162 b43d 5468 a3bc 917f f5bd
00000050: 06ee d53d 9f7c 243d be6e b83c a8fc 94bd
00000060: 0a28 04be 59d9 1439 f8e7 f2b7 10e7 ed3d
00000070: 06c7 71bd 4f52 89bd a3ca d4bc 3d18 85bd
00000080: 8792 e03d 4d36 e53c 73dd 133d 8774 d13d
00000090: de68 023e 2582 ab3d 1063 ec3b 926d 10be
000000a0: 846e 8e3d eaa5 98bd 6da1 133e 4bb7 853d
000000b0: 8849 0c3e b0f8 f3bd 2610 063e af85 053e
000000c0: b654 0bbd 7c57 f7bd b217 d43d 69a6 f03d
000000d0: e98c 71bc cd6a 49bd 435d 173e 9b7b 80bd
000000e0: f9e8 0dbe bed3 06be bf60 14bd 6ed4 043e
000000f0: ab90 16be a3e3 89bd a577 b73d 7aeb fa3b
00000100: 8cb1 1abd 3726 063d 134d b8bd 0fa8 ec3c
00000110: 4cd0 14bd 61cd 1abe 6601 85bd 48ac f0bd
00000120: f7ad bbbc fb93 003e 80cd e13c 2a29 fc3d
00000130: a4cd fabc 7e3c 9bbd 37a7 8bbd 4574 edbd
00000140: 5b48 ddbd 111e 303d a327 9cbd ecd8 0e3e
00000150: e524 e63d 7f1b 40bd c684 b7bd 1d7f fe3d
00000160: 3e41 8dbd 81a6 e23d e273 003e d37b d53c
00000170: 58a1 353d ae2c e2bd a26d 193e a3c3 a63d
00000180: e6c8 4a3d 8f4e bc3c 9635 a6bd 33e1 ae3d
00000190: 2a22 463c 6c6b 043d e57c e2bc f801 573d
000001a0: c68b 7abd 43d4 773d 35f9 f23d c613 0ebe
000001b0: bb5f 29bd 2319 e4bb 6705 17be d746 4cbd
000001c0: c41c 693b aaa3 443c 2ceb e3bd 8981 dc3c
000001d0: 872a 14be 5d41 16be 20ab 5ebd c765 3f3d
000001e0: 0a0f d6bc e996 3a3d c6b5 1f3d 9112 d23d
000001f0: 2860 05be de52 dd3d c8b6 fb3d 5925 34bd
00000200: d671 203d 3a74 c73d 955c ccbd 2660 583d
00000210: 5c70 cdbd f0dd 9b3d 461b 133d 46be 0cbe
00000220: 6fc8 1b3e b5b7 e73d a18a 83bc 8180 973c
00000230: 8a7c c0bd b5e8 91bc ec5c 4b3d f342 eabd
00000240: 1138 503d c78c 22bc d1cf debd 7e56 5a3d
00000250: 85e9 433d 3053 d33d a518 7abd d67b d8bd
00000260: f0c3 1bbe 5607 543d ff07 823d 875c c03d
00000270: d10a 1c3e 70fe b3bd 0b09 1ebd cf1a bfbd
00000280: c957 5c3d c593 57bc e9c2 bebd 3da8 9abc
00000290: 0d58 b7bd 9324 9abd 9f8e 04bd fd7d 163e
000002a0: a2ea c93d 6c59 bd3d 88cc 1cbe 7f4d 4ebd
000002b0: f7b7 ddbc c4a6 03be d44b 9ebc 2d58 8fbd
000002c0: 4b2c f03d e6af f7bb 7113 973d 923e bebd
000002d0: 7346 ce3d b286 cfbd 7fe7 c4bd 597c 47bd
000002e0: 73d7 41bc 8894 7fbd 191b bcbc e959 e8bd
000002f0: 3282 883d fe5b a4bd 0065 dcbd b0f8 17bd
00000300: 8d90 0abe fc1d b33d bc2e e0bd a1e9 4f3d
00000310: 2a94 033d c09b 183e 9ecc 5d3d 9707 c63d
00000320: 4cf5 1e3d af0a a73c 3c85 b43d bd01 90bd
00000330: 98dc 1c3e 9a2d 0e3d 5598 17be 4908 f93d
00000340: 57ae ed3d 3b6b 183e 44ff 81bc 4461 d53c
00000350: d0cd 933c 7b78 adbd 9457 6d3d 7e29 1cbe
00000360: ed13 fabc 3cdf 9ebd 3dd6 18bd 134e a8bb
00000370: 2f29 30bd 99eb 74bc 968c e93d 93db 55bd
00000380: 01bc 9f3d 9d8e c8bd eb17 203d c95f 6ebc
00000390: 3041 bbbd 74f4 073e f2af 9e3d 66f8 053e
000003a0: 8530 24bc 9397 1e3c 1943 9ebd c9de 173e
000003b0: ae3b 6bbd 572a 10be 81e6 853b 6e9d cabd
000003c0: a0cd 013e f1f7 05bc 2f4e ec3a e565 21bd
000003d0: 0a85 67bd c15c 153e 087a abbc 32e3 83bd
000003e0: f732 12bc 0cc7 3d3c e640 b33d c7d6 e9bd
000003f0: 0348 1bbe 2ff5 033c faa5 023e 3248 e93d

bias f4 [64]
0.073529385 0.081772156 -0.031734776 0.03642044 0.14523292 -0.11511126 -0.09696405 -0.15292592
0.10448622 0.030761603 -0.0103967935 0.060667917 -0.026293434 -0.12764251 -0.05098428 -0.09927797
-0.058954246 0.076115064 0.12884516 0.05272083 -0.12531826 -0.026493339 0.060585696 0.017556181
0.100484416 0.120043054 0.008490183 0.1389217 -0.10659289 0.14907289 0.07599334 0.12557158
-0.057746414 -0.06877659 0.12784167 -0.10660155 0.06532485 -0.12446354 -0.08534726 -0.072481096
-0.09356666 -0.047869068 -0.11118162 0.004375134 0.034194056 0.010669581 -0.1528065 -0.08578125
-0.007911209 0.05431608 0.14979208 0.07202705 -0.07955755 -0.057230152 -0.10494422 0.0028450105
0.042052187 0.1305485 -0.035631813 -0.0207083 0.0040819957 -0.015796486 -0.08791852 -0.007735661
00000000: 9396 963d 2978 a73d 53fc 01bd 992d 153d
00000010: f0b7 143e 74bf ebbd 1695 c6bd 9d98 1cbe
00000020: dffc d53d c2ff fb3c 5057 2abc ec7e 783d
00000030: 5465 d7bc b8b4 02be e4d4 50bd 4052 cbbd
00000040: 027a 71bd 37e2 9b3d fcef 033e ccf1 573d
00000050: 6e53 00be 8f08 d9bc b528 783d fbd1 8f3c
00000060: c6ca cd3d 22d9 f53d 691a 0b3c 7d41 0e3e
00000070: 604d dabd 90a6 183e 65a2 9b3d d695 003e
00000080: 8187 6cbd beda 8cbd ede8 023e ea51 dabd
00000090: 09c9 853d bee6 febd 8bca aebd f870 94bd
000000a0: e19f bfbd 5b12 44bd 30b3 e3bd 495d 8f3b
000000b0: 110f 0c3d 77cf 2e3c 4f79 1cbe 14ae afbd
000000c0: 049e 01bc 8a7a 5e3d 1863 193e eb82 933d
000000d0: 12ef a2bd 2a6a 6abd ffec d6bd 5b73 3a3b
000000e0: ea3e 2c3d 82ae 053e aaf2 11bd 74a4 a9bc
000000f0: 43c2 853b a267 81bc a00e b4bd 6e7b fdbb

weight f4 [64, 64]
-0.012761059 -0.0988458 -0.024247874 -0.00033796503 0.11761328 -0.003737322 0.04456511 0.11921987
0.018185725 -0.048811436 -0.07210322 0.08074851 0.0823771 0.04129962 -0.05793635 -0.0539233
-0.07073056 -0.1026885 0.11642231 -0.0032981166 -0.055352576 -0.11135876 -0.093006246 0.09375421
0.072129205 0.041221756 -0.029777946 0.040646046 -0.062305514 0.06898016 0.08784841 0.00085261266
-0.06892882 0.112957336 -0.02307496 0.005019954 -0.11069617 -0.047607925 0.01417501 0.10448474
0.007416143 -0.08735576 -0.055008568 -0.020859972 -0.042394694 0.10790183 -0.088860765 -0.022905005
0.023209453 -0.029807294 0.0058919257 0.04556771 0.06062994 0.09498132 0.085381545 0.051150225
0.10850935 -0.0794428 0.105348594 -0.10567606 0.113075525 0.12072676 0.09470293 -0.07121763
0.038400453 -0.09538072 0.10196838 0.10921175 -0.11593497 -0.05089604 0.033007033 -0.029959688
-0.025432449 -0.09833644 0.024564182 -0.050857257 -0.064850844 -0.1053381 0.0707433 -0.0052009756
0.07407046 0.121121526 -0.036828104 0.05053018 0.0695446 0.099211715 0.06407214 0.112105496
0.122505166 -0.03947728 0.1207132 -0.04059429 -0.028022395 -0.04875251 0.06427882 -0.12115751
-0.03588707 0.049513374 -0.0720593 0.00041933163 -0.0013336164 -0.09641148 -0.107707426 -0.09736944
-0.056629036 -0.006937583 -0.024508383 -0.005802179 -0.019458225 -0.117741674 0.009370649 0.039907422
-0.10807835 0.076823 0.0829427 0.11909139 0.09615518 -0.089079745 -0.09383001 0.024066156
0.008791801 0.112494886 -0.044712078 -0.039358426 -0.07650717 -0.11056066 -0.06602131 0.090939805
0.038259137 -0.0017860755 0.07448863 -0.02876898 0.038504127 0.12187788 0.11445172 -0.008874061
-0.036184613 0.110201515 0.014505499 -0.035400055 0.03616757 0.044087976 0.12232989 0.07335033
-0.024762737 -0.10788698 -0.009437768 0.017310113 -0.05174479 -0.024109984 -0.06781487 0.09231811
0.010759239 -0.0797662 0.064557165 -0.07089633 0.10772426 -0.038219374 0.04277675 -0.08379222
0.043464497 -0.10075821 0.01796008 0.07543163 -0.057382252 0.012744135 0.015177473 0.046052717
0.06262403 0.12025354 -0.08338401 -0.046753637 0.048757818 -0.082405694 0.018258812 -0.051664837
-0.088522606 -0.11718787 0.034516424 0.07439749 -0.10606793 0.10643064 -0.1075081 0.09089457
0.025243312 0.015867027 0.063263796 -0.10161776 0.045491613 0.065014794 -0.10155376 0.09947816
-0.12232857 -0.016625715 0.068029545 0.056529947 0.05496216 -0.086948015 0.07105406 -0.04894866
0.0866567 0.03023652 -0.09390423 -0.05145748 0.05353416 0.07622265 -0.10241443 0.0069176275
-0.09053129 -0.07127065 0.017095694 -0.06255319 -0.06193118 -0.014464794 -0.08014279 0.013816412
0.050586104 0.083266996 0.043979563 0.110663615 -0.02104398 0.03377125 0.11207837 -0.023917146
0.085981 -0.0036523286 -0.018301113 -0.093597375 0.030389367 -0.025099788 0.075136304 -0.02770529
0.027729375 0.005480366 -0.07961791 0.07099755 -0.043950174 -0.018636072 -0.07508618 -0.10174578
0.10956763 0.072958276 0.090404846 -0.114415534 0.06359055 0.058837228 0.0013311836 -0.12358806
0.051153224 0.038600065 -0.10626148 0.079960585 0.039018225 -0.06281875 0.053143214 -0.04582282
00000000: c313 51bc ab6f cabd 7aa3 c6bc e630 b1b9
00000010: 3bdf f03d dced 74bb e889 363d 8c29 f43d
00000020: 3bfa 943c 80ee 47bd daaa 93bd 7a5f a53d
00000030: 53b5 a83d ca29 293d ab4e 6dbd aede 5cbd
00000040: 2fdb 90bd 594e d2bd d26e ee3d 3725 58bb
00000050: 62b9 62bd 1010 e4bd 0f7a bebd 3502 c03d
00000060: 7ab8 933d 25d8 283d e1f0 f3bc 787c 263d
00000070: 1134 7fbd 7845 8d3d dee9 b33d de81 5f3a
00000080: 8e2a 8dbd 2d56 e73d b307 bdbc 6d7e a43b
00000090: acb4 e2bd 8700 43bd 4d3e 683c 18fc d53d
000000a0: 1e03 f33b 94e7 b2bd aa50 61bd 88e2 aabc
000000b0: 0fa6 2dbd a2fb dc3d a2fc b5bd 47a3 bbbc
000000c0: c021 be3c 6d2e f4bc 0e11 c13b 35a5 3a3d
000000d0: 1a57 783d 9185 c23d 85dc ae3d e682 513d
000000e0: 263a de3d e8b2 a2bd 01c1 d73d b16c d8bd
000000f0: 2494 e73d 973f f73d 9cf3 c13d 8cda 91bd
00000100: cb49 1d3d f856 c3bd ccd4 d03d 69aa df3d
00000110: 506f edbd 5e78 50bd 6232 073d 056e f5bc
00000120: b657 d0bc 9e64 c9bd d33a c93c b34f 50bd
00000130: 85d0 84bd 80bb d7bd dde1 903d f26c aabb
00000140: 41b2 973d 900e f83d 11d9 16bd bcf8 4e3d
00000150: 666d 8e3d 832f cb3d 4138 833d 9197 e53d
00000160: fde3 fa3d eeb2 21bd 7b38 f73d 3346 26bd
00000170: 398f e5bc b6b0 47bd 9da4 833d 6e21 f8bd
00000180: 52fe 12bd 89ce 4a3d d493 93bd bdd9 db39
00000190: becc aeba 6273 c5bd b695 dcbd a169 c7bd
000001a0: d9f3 67bd aa54 e3bb cec5 c8bc 3520 bebb
000001b0: db66 9fbc 8c22 f1bd 5a87 193c f775 233d
000001c0: 2f58 ddbd 6155 9d3d dddd a93d 30e6 f33d
000001d0: 02ed c43d 716f b6bd f329 c0bd 6326 c53c
000001e0: 7c0b 103c b863 e63d 0324 37bd 4d36 21bd
000001f0: cbaf 9cbd a16d e2bd 2e36 87bd a63e ba3d
00000200: 9db5 1c3d c01a eaba 7f8d 983d edac ebbc
00000210: 81b6 1d3d 1c9b f93d aa65 ea3d 8264 11bc
00000220: 5136 14bd 55b1 e13d 79a8 6d3c a6ff 10bd
00000230: 7224 143d 9895 343d 1888 fa3d b338 963d
00000240: 39db cabc d9f3 dcbd dea0 1abc f0cd 8d3c
00000250: 58f2 53bd 4d82 c5bc 86e2 8abd 4711 bd3d
00000260: 8547 303c 765c a3bd 8c36 843d 1832 91bd
00000270: 899e dc3d eb8b 1cbd ac36 2f3d 419b abbd
00000280: d407 323d 525a cebd 0521 933c e67b 9a3d
00000290: a709 6bbd c7cc 503c f0aa 783c c6a1 3c3d
000002a0: 0741 803d 7d47 f63d 3cc5 aabd be80 3fbd
000002b0: 47b6 473d 51c4 a8bd 8193 953c 829e 53bd
000002c0: 574b b5bd 3200 f0bd 1861 0d3d b65d 983d
000002d0: 253a d9bd 4ff8 d93d 352d dcbd ef26 ba3d
000002e0: 10cb ce3c 91fb 813c 7390 813d f91c d0bd
000002f0: 6a55 3a3d 7a26 853d 6bfb cfbd 35bb cb3d
00000300: 6787 fabd a732 88bc 1353 8b3d f28b 673d
00000310: 0020 613d cd11 b2bd ca84 913d 647e 48bd
00000320: 1179 b13d 94b2 f73c dc50 c0bd 14c5 52bd
00000330: a346 5b3d 9f1a 9c3d a8be d1bd 44ad e23b
00000340: 7868 b9bd 59f6 91bd 450c 8c3c e31b 80bd
00000350: 8dab 7dbd befd 6cbc e721 a4bd 3b5e 623c
00000360: 6033 4f3d e387 aa3d ea23 343d 9ba3 e23d
00000370: 6d64 acbc b953 0a3d 5889 e53d e4ed c3bc
00000380: ce16 b03d e85b 6fbb 37ec 95bc fbaf bfbd
00000390: 1ff3 f83c 129e cdbc 10e1 993d 34f6 e2bc
000003a0: b728 e33c a494 b33b b70e a3bd 2a67 913d
000003b0: 1905 34bd adaa 98bc c8c6 99bd 1760 d0bd
000003c0: fe64 e03d 266b 953d 2d26 b93d b152 eabd
000003d0: c33b 823d 4eff 703d 1c7b ae3a bd1b fdbd
000003e0: 0b86 513d 1a1b 1e3d 9e9f d9bd 60c2 a33d
000003f0: 93d1 1f3d 1ea7 80bd b3ac 593d b6b0 3bbd

bias f4 [64]
-0.047524273 0.09384593 0.014303301 0.052062355 0.03178709 -0.12337871 0.05154732 0.018283531
0.11963746 0.037430786 -0.035058007 -0.012719484 0.0009762304 -0.10783675 -0.023279475 -0.05031055
-0.00017490886 0.050187357 0.096140884 0.110666014 -0.105808854 0.09414932 0.03365063 -0.0874054
-0.045074787 0.07488472 -0.015209477 0.101180434 -0.10857944 -0.01795936 -0.055315785 -0.05901996
0.032855436 -0.0932863 -0.075550556 -0.108097844 -0.026603648 -0.050473597 -0.11485282 0.11196321
0.08666104 0.025811937 -0.04858431 -0.052715182 -0.084920436 0.073033586 -0.011257774 -0.07182323
0.110309884 0.0965005 -0.11892944 0.06929228 -0.10639301 -0.014034673 0.010323384 -0.10895784
0.00875974 0.08520649 0.08623524 -0.10209821 -0.084833466 0.09717431 -0.08794192 0.083575636
00000000: d0a8 42bd 4c32 c03d 6558 6a3c 563f 553d
00000010: 2e33 023d faad fcbd 4823 533d 58c7 953c
00000020: 7c04 f53d 0651 193d fc98 0fbd 6265 50bc
00000030: b7e9 7f3a 84d9 dcbd 99b4 bebc 6f12 4ebd
00000040: bd67 37b9 4291 4d3d 83e5 c43d dda4 e23d
00000050: 50b2 d8bd 5cd1 c03d 3ed5 093d 9a01 b3bd
00000060: 57a0 38bd 295d 993d 2c31 79bc b037 cf3d
00000070: e65e debd 821f 93bc ce92 62bd eabe 71bd
00000080: 6c93 063d e30c bfbd 40ba 9abd 6762 ddbd
00000090: e5ef d9bc 67bd 4ebd f537 ebbd f84c e53d
000000a0: 587b b13d 8e73 d33c 5700 47bd e0eb 57bd
000000b0: c4ea adbd a292 953d 8772 38bc 0f18 93bd
000000c0: 26ea e13d 0ea2 c53d 4791 f3bd 1ce9 8d3d
000000d0: 94e4 d9bd aff1 65bc 6923 293c 4a25 dfbd
000000e0: 0385 0f3c bd80 ae3d 1a9c b03d de18 d1bd
000000f0: 2bbd adbd 5303 c73d e51a b4bd b429 ab3d

weight f4 [7, 64]
0.12093999 0.10988899 0.10116406 0.07070112 -0.11492753 0.111299515 0.076316066 0.0068346583
0.0785662 0.0967602 -0.07994849 0.020263247 -0.059254147 -0.052863155 -0.11108405 0.049721427
0.10128481 -0.073149286 -0.031031 -0.05447826 -0.015099003 -0.10843945 0.0029565308 0.005197618
-0.09042199 0.01114414 -0.02260591 -0.06103436 0.017779782 0.055092372 -0.096063055 0.043538447
0.055265225 0.04140621 -0.055653673 -0.078493886 -0.09348308 -0.010078652 -0.065164946 -0.032288622
0.045051996 -0.06789426 0.06056497 0.041561067 -0.08404084 -0.00652697 0.00957549 0.046087045
0.12261465 0.09057943 0.061933156 0.013545411 0.07277021 0.10373928 -0.059437178 -0.05942101
0.058099244 0.08471512 -0.048430026 -0.10103495 -0.037776824 -0.07051026 -0.04743442 0.025645606
-0.08433448 -0.11732621 -0.037305485 -0.043487057 -0.08975159 -0.008065596 -0.090694524 -0.025715617
-0.01997376 -0.07234644 0.09395333 0.09592181 -0.08201488 0.087198876 -0.12123435 0.083873086
0.03449131 -0.036230206 0.049271956 0.09206447 0.09544212 0.0456328 -0.089305 -0.09121354
-0.017208738 0.117443025 -0.06736662 0.022727164 -0.050133124 0.08662484 0.08069762 0.078825586
-0.022501994 -0.113352925 -0.029863944 0.1162575 -0.06321725 -0.060648415 0.08714275 -0.11563255
-0.011416711 0.09801271 -0.08209792 0.0660311 0.008044751 0.0152075635 -0.0049743447 0.025196996
0.07153164 0.11440936 -0.105823286 0.022530256 -0.119072795 -0.12006313 -0.10959492 -0.08981612
-0.0493411 0.08768797 0.08880774 0.07820743 0.027802471 0.06999382 0.047171563 0.021993777
-0.124546826 0.072651714 -0.08795808 -0.06140669 0.045252413 -0.001526922 -0.12292543 -0.061495304
-0.09645696 0.0019819117 0.036149938 -0.03178255 -0.12069225 -0.057545155 0.08892168 -0.031470396
0.05344121 0.083325736 0.08822233 0.059038863 0.04624939 -0.058440346 0.06578785 0.040308297
-0.06922701 -0.07918581 0.039187014 -0.0816728 0.12188309 -0.03328225 -0.07970269 -0.07980951
-0.06792909 0.011050789 0.0825378 -0.116020046 -0.12220168 0.037058685 -0.06068578 0.08440766
0.062524304 0.044465855 -0.08410026 0.010430276 0.109184965 -0.11150234 -0.06725545 -0.08272411
-0.016957264 -0.11804891 0.014459148 -0.048074596 0.066553526 -0.06417656 -0.044794917 -0.0817111
-0.12438095 -0.11745178 0.014680257 0.058108076 -0.09149319 0.075342074 0.030279338 0.111293636
0.096500985 -0.040994562 -0.086569406 -0.06463987 0.06342481 0.08646703 0.08416755 -0.041420713
0.08893411 0.021521896 0.11076901 -0.09394543 -0.009330765 0.037290648 -0.09711884 -0.11928089
-0.02459617 0.036339972 0.0696549 -0.014331267 -0.080882505 -0.09896107 -0.12379196 0.07853806
0.052174155 -0.09663062 -0.036082484 0.04605569 0.08637796 -0.11957808 -0.04165456 -0.023865158
0.030563446 -0.04367313 -0.02493575 0.038102206 -0.080196224 -0.050435193 -0.08921118 -0.02576154
0.06519366 0.02534372 0.02773185 -0.0991503 -0.09144431 0.12425916 0.11466937 0.005091595
0.12294605 0.033301495 -0.09085285 -0.08841257 0.025462126 -0.044778425 0.037961643 -0.0060004215
0.01151252 0.029199673 0.12331054 0.014617965 -0.0862675 0.07874928 0.0352123 0.03603021
00000000: 63af f73d 7b0d e13d 1a2f cf3d c0cb 903d
00000010: 205f ebbd 00f1 e33d 994b 9c3d 45f5 df3b
00000020: 51e7 a03d 362a c63d 09bc a3bd 1cff a53c
00000030: 7ab4 72bd 0987 58bd 0980 e3bd b2a8 4b3d
00000040: 696e cf3d 4bcf 95bd b934 febc 9924 5fbd
00000050: cf61 77bc 8115 debd 5bc2 413b c850 aa3b
00000060: 2a2f b9bd e995 363c 0830 b9bc 2aff 79bd
00000070: e8a6 913c 8aa8 613d b5bc c4bd 5f55 323d
00000080: ca5d 623d 8f99 293d 1bf5 63bd 67c1 a0bd
00000090: 0f74 bfbd ee20 25bc 3375 85bd 1341 04bd
000000a0: 7188 383d 250c 8bbd f912 783d f03b 2a3d
000000b0: 9b1d acbd 31e0 d5bb 84e2 1c3c c5c5 3c3d
000000c0: 641d fb3d b581 b93d 9fad 7d3d 92ed 5d3c
000000d0: 8c08 953d 4275 d43d 6674 73bd 7263 73bd
000000e0: 79f9 6d3d 1f7f ad3d 905e 46bd 69eb cebd
000000f0: dfbb 1abd af67 90bd 984a 42bd bc16 d23c
00000100: 8eb7 acbd b948 f0bd a3cd 18bd 7c1f 32bd
00000110: aecf b7bd 9025 04bc 0dbe b9bd 8fa9 d2bc
00000120: 03a0 a3bc 5f2a 94bd 9a6a c03d a772 c43d
00000130: 6bf7 a7bd 5395 b23d b749 f8bd a7c5 ab3d
00000140: c346 0d3d 2066 14bd 64d1 493d 4c8c bc3d
00000150: 2977 c33d 75e9 3a3d 8ae5 b6bd 2ace babd
00000160: 57f9 8cbc f885 f03d 83f7 89bd 512e ba3c
00000170: 6458 4dbd 5d68 b13d cb44 a53d 4f6f a13d
00000180: 1a56 b8bc 9425 e8bd 3ba5 f4bc 6a18 ee3d
00000190: 0c78 81bd 796a 78bd e677 b23d c2d0 ecbd
000001a0: 280d 3bbc e3ba c83d f422 a8bd 503b 873d
000001b0: 22ce 033c 2529 793c d4ff a2bb ee69 ce3c
000001c0: 2e7f 923d 744f ea3d e1b9 d8bd 5f91 b83c
000001d0: 70dc f3bd a9e3 f5bd 4d73 e0bd 84f1 b7bd
000001e0: e519 4abd c095 b33d d5e0 b53d 382b a03d
000001f0: 02c2 e33c eb58 8f3d f836 413d 4b2c b43c
00000200: 6812 ffbd 6cca 943d 5e23 b4bd 9585 7bbd
00000210: 985a 393d 0023 c8ba 54c0 fbbd 80e2 7bbd
00000220: 3a8b c5bd f6e2 013b f511 143d 6b2e 02bd
00000230: 802d f7bd 78b4 6bbd 921c b63d 1ae7 00bd
00000240: 2ce5 5a3d afa6 aa3d e9ad b43d bcd2 713d
00000250: 0070 3d3d 255f 6fbd c8bb 863d 501a 253d
00000260: e4c6 8dbd 2c2c a2bd 9082 203d 1244 a7bd
00000270: d79d f93d f852 08bd 2a3b a3bd 2b73 a3bd
00000280: 681e 8bbd 5e0e 353c 9409 a93d eb9b edbd
00000290: e044 fabd d9ca 173d a791 78bd ecdd ac3d
000002a0: be0c 803d d421 363d c23c acbd c0e3 2a3c
000002b0: 5e9c df3d 575b e4bd 3abd 89bd 426b a9bd
000002c0: f6e9 8abc a0c3 f1bd 10e6 6c3c dee9 44bd
000002d0: 374d 883d 006f 83bd e07a 37bd 2658 a7bd
000002e0: 71bb febd 8f8a f0bd 7685 703c bc02 6e3d
000002f0: c860 bbbd f24c 9a3d 600c f83c ebed e33d
00000300: 4fa2 c53d eae9 27bd 4d4b b1bd e861 84bd
00000310: dee4 813d a015 b13d 0960 ac3d c4a8 29bd
00000320: 1623 b63d b04e b03c ddda e23d 7666 c0bd
00000330: 11e0 18bc 14be 183d 3ee6 c6bd 8a49 f4bd
00000340: e87d c9bc 39d9 143d 3aa7 8e3d b1cd 6abc
00000350: baa5 a5bd 1aac cabd a486 fdbd 90d8 a03d
00000360: 91b4 553d 46e6 c5bd 3acb 13bd e4a4 3c3d
00000370: eee6 b03d 5ae5 f4bd f99d 2abd dd80 c3bc
00000380: 3160 fa3c 99e2 32bd 0f46 ccbc 0f11 1c3d
00000390: eb3d a4bd 2295 4ebd 5ab4 b6bd dd09 d3bc
000003a0: 4184 853d a29d cf3c e82d e33c 500f cbbd
000003b0: 2847 bbbd 967b fe3d c6d7 ea3d 65d7 a63b
000003c0: 23cb fb3d 2667 083d 0f11 babd a611 b5bd
000003d0: f395 d03c 9569 37bd ab7d 1b3d 2f9f c4bb
000003e0: 029f 3c3c 2734 ef3c 3d8a fc3d 3080 6f3c
000003f0: 04ad b0bd 4d47 a13d c63a 103d 6a94 133d

bias f4 [7]
-0.039400067 0.09601967 -0.048097186 -0.108243994 -0.025390599 -0.031919725 0.0946781
00000000: f761 21bd f6a5 c43d 8e01 45bd 07af ddbd
00000010: f2ff cfbc 42be 02bd 97e6 c13d

weight f4 [7, 7]
-0.35026494 -0.16585864 -0.14064422 0.31732115 0.06328508 -0.09082782 0.34590712 -0.048463672
-0.1536038 0.1430209 -0.1475692 -0.012618184 0.061913162 -0.103489816 0.30094853 0.11808327
-0.0788002 -0.005748749 -0.17493692 -0.10366115 -0.34739375 0.06592324 -0.11594763 -0.08952045
-0.2194939 0.07976235 -0.22130457 -0.2668886 -0.04168856 0.0015642941 -0.014200896 -0.07613549
0.13622925 0.22929958 0.065003544 -0.2168359 0.31569597 0.2303339 -0.262424 0.33597472
-0.13041663 -0.11399785 -0.067326546 0.036942244 0.114499025 0.16193192 0.06747057 0.35040784
0.27039456
00000000: ed55 b3be d9d6 29be 0a05 10be eb77 a23e
00000010: 9c9b 813d f003 babd bd1a b13e d881 46bd
00000020: 514a 1dbe 1274 123e 611c 17be 80bc 4ebc
00000030: a898 7d3d 78f2 d3bd ed15 9a3e a4d5 f13d
00000040: 0062 a1bd 0060 bcbb aa22 33be 4c4c d4bd
00000050: 98dd b1be c302 873d f375 edbd 7f56 b7bd
00000060: 02c3 60be 715a a33d aa9d 62be 9fa5 88be
00000070: a0c1 2abd 0009 cd3a e0aa 68bc ecec 9bbd
00000080: ae7f 0b3e 82cd 6a3e 9420 853d 3b0a 5ebe
00000090: e7a2 a13e a6dc 6b3e 705c 86be e104 ac3e
000000a0: f08b 05be b477 e9bd 80e2 89bd c050 173d
000000b0: 777e ea3d 7bd1 253e 032e 8a3d a868 b33e
000000c0: 2871 8a3e

bias f4 [7]
-0.32147494 -0.34210852 -0.3312922 0.37699106 -0.10619512 -0.11221519 0.3711627
00000000: 5d98 a4be d928 afbe 229f a9be f904 c13e
00000010: d47c d9bd 14d1 e5bd 0a09 be3e

weight f4 [64, 42]
0.10694805 -0.0833481 -0.112228245 0.029603107 -0.10078703 -0.1314275 -0.09743816 -0.13712154
0.047102246 -0.067350395 -0.0735931 0.031877216 0.029341914 -0.056269817 -0.09949031 -0.10442216
-0.00011173909 0.010816843 0.07307593 -0.15014558 0.083180025 0.017448617 0.052909777 0.09186495
-0.1292899 -0.12852083 -0.06380559 -0.02962666 -0.13628215 0.06754005 -0.0048795748 0.11482607
0.0929328 -0.13443626 -0.14583413 0.041292645 -0.1037435 0.08606535 0.028872743 -0.031143991
-0.093803324 0.13109075 -0.11914553 -0.06645171 -0.10270866 0.026450902 -0.02721336 0.13798444
0.04352721 -0.14299473 0.06460714 -0.031015182 0.082729235 -0.064897746 -0.041768808 -0.0678929
-0.0917669 -0.14447536 0.08749172 0.13658991 -0.05142424 0.14887285 0.11219761 0.13005967
0.0808334 0.14908403 0.122059 0.03656872 -0.09073125 0.078217246 -0.092629015 0.079425916
0.13989937 -0.04812037 0.0078494875 -0.0062391977 -0.051428013 -0.074222475 0.03628091 -0.018761732
-0.012756639 0.070029035 -0.042249557 0.096806936 -0.077252254 0.13991264 0.025174344 -0.048821967
-0.09095613 0.03143664 0.14128895 -0.09135628 -0.077005275 -0.05661125 -0.15192178 -0.13754196
-0.07762728 0.014174755 -0.029013911 -0.040147044 0.05479652 0.03728935 -0.073673435 0.08069571
0.09610886 -0.05726958 -0.14175487 -0.014569318 -0.10517642 0.0606647 -0.042668376 -0.14196977
-0.06907468 -0.061108653 0.070894666 0.030351363 0.14952728 -0.12058319 0.074801065 -0.09767201
-0.018843647 -0.0590463 -0.02940027 0.027469296 0.045164607 -0.09142513 -0.07330028 -0.13379997
0.1233255 -0.14422368 0.14685433 -0.02138631 -0.13470978 -0.070428714 -0.076968685 0.009643339
-0.1519621 0.1402486 -0.07618442 0.07372987 -0.01799877 0.12830788 0.10059342 0.027217362
0.06512385 0.13890685 0.12587184 0.027618365 -0.062261935 -0.108573616 -0.1328976 0.11619638
-0.07794853 0.14370105 0.07529986 -0.030413626 0.13799071 -0.12546708 -0.10687668 -0.13393925
-0.0618057 0.13572581 0.13049085 0.08969246 0.047478795 -0.0015969266 0.021869054 -0.027702503
-0.03580146 0.015961647 -0.049978945 0.10701311 0.06056293 -0.058950935 -0.049104087 -0.06539639
-0.11298316 0.14616615 0.08145545 -0.03068983 0.11402436 0.06300334 0.0024951266 -0.14221166
-0.10831723 0.05338748 0.019700594 -0.12842605 -0.07550142 -0.07640606 0.08658912 -0.1234444
-0.059416775 0.032571364 0.08286442 0.047253944 0.15099892 0.07166579 -0.15224192 -0.048634212
0.11480034 -0.06908133 0.0968246 0.07483654 0.021690758 -0.09813132 -0.056010645 -0.10072497
0.09002715 -0.022447443 0.01827283 0.008564289 0.037847757 0.1291724 0.050014514 0.053066913
0.12849382 -0.05067631 -0.013623876 0.055734526 0.09902132 0.14646499 -0.054252055 -0.11081854
-0.145366 -0.13262834 0.08565513 -0.08512876 -0.0074428464 -0.0902123 -0.10153576 -0.05489907
-0.1316583 -0.09479092 -0.11136398 -0.03734655 -0.04907058 0.037631042 0.018490687 -0.039636545
-0.06656188 -0.025537482 0.048193675 0.14861055 0.06701356 0.05838252 0.04761837 0.098443314
-0.0707368 -0.025783164 0.13084841 -0.044961248 0.003341815 -0.12212155 0.089610286 0.13365322
00000000: 9407 db3d 69b2 aabd ecd7 e5bd 3782 f23c
00000010: 6e69 cebd ee94 06be a88d c7bd 9769 0cbe
00000020: 49ee 403d 01ef 89bd fbb7 96bd af91 023d
00000030: 745e f03c 2e7b 66bd 93c1 cbbd 49db d5bd
00000040: 7855 eab8 2139 313c d5a8 953d c3bf 19be
00000050: 4a5a aa3d 67f0 8e3c ecb7 583d b123 bc3d
00000060: 9264 04be f79a 03be 81ac 82bd 9cb3 f2bc
00000070: 8c8d 0bbe 7052 8a3d d7e4 9fbb ee29 eb3d
00000080: 8d53 be3d a9a9 09be 8b55 15be 7a22 293d
00000090: 7977 d4bd 0843 b03d 8886 ec3c af21 ffbc
000000a0: f51b c0bd a73c 063e 9202 f4bd d617 88bd
000000b0: eb58 d2bd 90af d83c 8dee debc cb4b 0d3e
000000c0: 9649 323d 366d 12be c050 843d 8d13 febc
000000d0: f26d a93d 1ce9 84bd c515 2bbd 6f0b 8bbd
000000e0: 49f0 bbbd 59f1 13be dc2e b33d 3ade 0b3e
000000f0: 39a2 52bd 2072 183e dcc7 e53d 5d2e 053e
00000100: fb8b a53d 7ca9 183e 12fa f93d 15c9 153d
00000110: 4ed1 b9bd 5d30 a03d 48b4 bdbd 0eaa a23d
00000120: c841 0f3e dd19 45bd 239b 003c 2f72 ccbb
00000130: 2ea6 52bd f401 98bd 4b9b 143d 34b2 99bc
00000140: 3901 51bc 626b 8f3d df0d 2dbd b742 c63d
00000150: 6e36 9ebd 4245 0f3e 6d3a ce3c 8bf9 47bd
00000160: 3547 babd b5c3 003d 0dae 103e 0019 bbbd
00000170: f1b4 9dbd 33e1 67bd 6291 1bbe cdd7 0cbe
00000180: 0dfb 9ebd 3b3d 683c 95ae edbc 3a71 24bd
00000190: 5172 603d b8bc 183d 19e2 96bd cb43 a53d
000001a0: b9d4 c43d 8293 6abd 3028 11be 26b4 6ebc
000001b0: bc66 d7bd 8c7b 783d 09c5 2ebd 8660 11be
000001c0: 0777 8dbd 114d 7abd 3931 913d 6ca3 f83c
000001d0: ae1d 193e 52f4 f6bd 4d31 993d 4308 c8bd
000001e0: fe5d 9abc 88da 71bd d6d8 f0bc 4a07 e13c
000001f0: 86fe 383d 193d bbbd 751e 96bd dc02 09be
00000200: 1492 fc3d 5faf 13be fb60 163e 5832 afbc
00000210: 5cf1 09be ee3c 90bd c2a1 9dbd 18ff 1d3c
00000220: f49b 1bbe 549d 0f3e 9406 9cbd b0ff 963d
00000230: 2872 93bc 2463 033e ec03 ce3d f2f6 de3c
00000240: a75f 853d 993d 0e3e 8ce4 003e e93f e23c
00000250: 5f06 7fbd d85b debd 4f16 08be 5ef8 ed3d
00000260: 7ba3 9fbd 5e26 133e d036 9a3d ff25 f9bc
00000270: 704d 0d3e 717a 00be 29e2 dabd 5f27 09be
00000280: f927 7dbd b5fb 0a3e 659f 053e aeb0 b73d
00000290: 2079 423d f74f d1ba bb26 b33c 5cf0 e2bc
000002a0: 8da4 12bd 00c2 823c b9b6 4cbd b029 db3d
000002b0: d610 783d 8976 71bd 5e21 49bd 8bee 85bd
000002c0: b763 e7bd 94ac 153e 1dd2 a63d 3d69 fbbc
000002d0: 9b85 e93d e507 813d 4785 233b ef9f 11be
000002e0: 6dd5 ddbd d5ac 5a3d 2463 a13c 1e82 03be
000002f0: 7da0 9abd c87a 9cbd a355 b13d 6bd0 fcbd
00000300: 015f 73bd 8d69 053d d2b4 a93d 5a8d 413d
00000310: 769f 1a3e 84c5 923d 4ee5 1bbe ab34 47bd
00000320: 711c eb3d 837a 8dbd fa4b c63d e643 993d
00000330: d1b0 b13c 13f9 c8bd 6b6b 65bd e548 cebd
00000340: 2860 b83d b3e3 b7bc e7b0 953c 3b51 0c3c
00000350: 4006 1b3d c545 043e 05dc 4c3d b15c 593d
00000360: e293 033e f691 4fbd ad36 5fbc e349 643d
00000370: b1cb ca3d ebfa 153e 6737 5ebd d5f4 e2bd
00000380: d3da 14be b9cf 07be f56b af3d fd57 aebd
00000390: 1fe3 f3bb 3ac1 b8bd fbf1 cfbd d9dd 60bd
000003a0: 6fd1 06be be21 c2bd cc12 e4bd b2f8 18bd
000003b0: 3cfe 48bd 0223 1a3d c879 973c ee59 22bd
000003c0: 9851 88bd fb33 d1bc bb66 453d 5d2d 183e
000003d0: 683e 893d 8222 6f3d 7b0b 433d a69c c93d
000003e0: 75de 90bd 3737 d3bc 20fd 053e 4929 38bd
000003f0: 5a02 5b3b dd1a fabd 9985 b73d 64dc 083e

bias f4 [64]
-0.13504192 0.104705155 -0.020568585 0.08462185 -0.0827628 0.14099589 -0.008846588 0.006466485
0.010965127 0.036243614 0.05488743 0.017610302 -0.07263261 0.052113656 -0.024291296 0.08428928
-0.06663251 -0.06545704 -0.03340127 0.123403005 0.04651075 -0.012109851 -0.14317766 0.10786927
0.13953257 -0.14906386 0.03242306 0.058943253 -0.15329486 0.06444587 -0.072934106 -0.06294859
-0.006470751 0.15068273 -0.07808518 -0.004678191 0.0498973 -0.1528283 0.13179006 0.14490835
0.082654536 -0.09134927 0.059293363 -0.06387744 -0.10699487 0.12703758 -0.15351842 -0.15232065
-0.06199318 -0.05350698 0.011893698 -0.10693164 0.1453399 -0.111491054 0.018817151 -0.04829989
-0.06432214 -0.08237255 -0.047919817 -0.05241923 -0.072621256 -0.01982621 0.122378744 0.094538145
00000000: 6e48 0abe a86f d63d 737f a8bc 384e ad3d
00000010: 8b7f a9bd 3a61 103e 48f1 10bc cfe4 d33b
00000020: 13a7 333c 2f74 143d a4d1 603d 7b43 903c
00000030: 68c0 94bd 2175 553d 8afe c6bc dc9f ac3d
00000040: a076 88bd 570e 86bd c5cf 08bd b7ba fc3d
00000050: 0e82 3e3d 6668 46bc 2a9d 12be 90ea dc3d
00000060: a0e1 0e3e 32a4 18be 0bce 043d 7b6e 713d
00000070: 54f9 1cbe 32fc 833d 7a5e 95bd 31eb 80bd
00000080: 9808 d4bb 934c 1a3e 1feb 9fbd 834b 99bb
00000090: 1c61 4c3d 067f 1cbe f9f3 063e db62 143e
000000a0: c846 a93d 5315 bbbd 99dd 723d 2dd2 82bd
000000b0: 2020 dbbd 2416 023e ef33 1dbe f2f9 1bbe
000000c0: 90ec 7dbd 232a 5bbd c9dd 423c fafe dabd
000000d0: fcd3 143e 6c55 e4bd 6d26 9a3c 1bd6 45bd
000000e0: 53bb 83bd f1b2 a8bd 9247 44bd 8cb5 56bd
000000f0: 74ba 94bd 936a a2bc b5a1 fa3d 379d c13d

weight f4 [64, 64]
0.12512077 -0.056440007 -0.043214288 -0.07754952 -0.005643434 0.03158409 0.114814505 -0.04637582
-0.03285822 0.03868848 -0.036006626 0.04341325 -0.01967782 -0.11800121 -0.0014206173 0.11881307
-0.05216522 -0.081022955 0.11126577 0.086429045 -0.056551266 0.077100754 -0.037617717 -0.00732778
-0.0009438274 -0.06561824 0.1142157 0.0905948 -0.068330266 0.009085966 0.10335001 0.08649941
-0.08697104 0.10904407 0.042872537 -0.0931418 0.031678475 0.05380016 0.058391776 -0.112624854
-0.028353017 -0.0033638403 0.07899394 0.044230282 -0.111269385 -0.12434499 0.07738684 0.051135667
0.0876043 -0.013357921 0.07642717 -0.089967564 -0.008957874 0.0052387333 0.1110304 -0.06810347
0.011096694 0.040414277 0.01671012 -0.067077026 -0.009833465 -0.08281072 -0.09466266 0.08064262
0.08421488 -0.012727801 0.10164524 0.046932563 -0.035836596 0.010893409 -0.0037579471 -0.006522567
-0.10623457 0.058495004 0.11756001 0.076585315 -0.05327558 -0.124928 -0.02328026 0.07608662
0.111674964 0.10138952 0.040380705 0.012985323 -0.07018996 -0.088665955 -0.039262928 -0.11955328
-0.078923345 0.080235735 0.054768752 0.028945567 -0.04879976 -0.0031575128 -0.094593555 0.03905037
0.06403283 0.09215056 -0.033456605 0.07139006 0.09217364 -0.083198346 -0.08726756 0.008628274
0.04813277 0.032688633 0.04818415 -0.083961815 0.03068807 0.10912292 -0.019338096 -0.05599852
-0.070706375 0.02015449 -0.063191995 -0.075768225 -0.048480995 -0.07236747 0.028224893 0.07917327
0.08398253 0.005355944 -0.103560224 -0.11670618 0.030247908 0.098875195 -0.037421666 0.04428681
-0.10769705 0.101589665 -0.01364608 0.060922 -0.030533912 0.011171169 0.0467369 0.115903504
0.12186407 0.098941185 -0.043981615 -0.032150354 -0.10980184 -0.014017101 -0.10619848 0.0052476646
0.075137794 -0.05488465 0.09106756 0.10287271 -0.11276316 0.11517238 -0.11732677 0.092545986
-0.10684676 -0.065849625 -0.09966932 -0.061498072 -0.029108666 -0.093427144 -0.10027331 -0.007413653
0.095647246 -0.071791075 0.11838065 0.10474998 0.03935315 -0.021844279 -0.025850419 0.0089192
-0.07183557 -0.055581648 0.112638414 -0.02584327 -0.0050247163 0.015300979 -0.025849529 -0.031541992
-0.10065892 -0.037318368 0.12168117 -0.11088942 0.04262506 -0.12031503 -0.08974264 -0.018067641
-0.023480395 0.09462389 -0.013561365 -0.018980166 -0.043870423 0.08711354 -0.104784355 0.07322034
-0.06852856 -0.074088015 0.034963902 -0.1149536 -0.09534374 -0.114503145 0.024981106 0.09415694
-0.1133258 0.07787639 0.11976218 -0.017555913 -0.049059607 -0.012827763 0.105625436 -0.043676604
0.014744462 -0.0154070705 -0.09963399 -0.020733314 0.06490773 0.06628891 0.12188921 0.11532898
0.00074910885 0.094546996 -0.06355185 -0.028399032 0.064788245 0.0776097 0.055910505 0.03276129
0.027477626 0.0463602 -0.11715541 -0.06969124 -0.020429758 0.012246381 0.09846621 0.07064388
0.055873394 0.01945841 0.016792592 0.03796733 -0.09372641 -0.0928017 -0.0083873 0.050136503
0.10744218 0.074463055 0.078197084 0.12471723 0.08368511 -0.08654684 -0.007656558 -0.07347892
-0.02950064 0.018732 -0.057001688 0.117325254 -0.07734847 -0.020462263 -0.08891414 -0.094170935
00000000: a91f 003e a32d 67bd 7701 31bd 48d2 9ebd
00000010: 8eec b8bb 525e 013d de23 eb3d 92f4 3dbd
00000020: 5796 06bd d077 1e3d af7b 13bd 18d2 313d
00000030: 6133 a1bc 9eaa f1bd 0234 baba 4454 f33d
00000040: 33ab 55bd 5def a5bd 4fdf e33d b601 b13d
00000050: 4da2 67bd 00e7 9d3d 0915 1abd e01d f0bb
00000060: 2f6b 77ba db62 86bd ece9 e93d c489 b93d
00000070: bdf0 8bbd 4edd 143c 2ca9 d33d 9a26 b13d
00000080: df1d b2bd 7f52 df3d 1d9b 2f3d 21c1 bebd
00000090: 4ac1 013d 8e5d 5c3d 372c 6f3d dca7 e6bd
000000a0: 9644 e8bc e073 5cbb 93c7 a13d d02a 353d
000000b0: 34e1 e3bd 96a8 febd fe7c 9e3d a273 513d
000000c0: e269 b33d 2edb 5abc d985 9c3d ea40 b8bd
000000d0: 0cc4 12bc aea9 ab3b e863 e33d d579 8bbd
000000e0: e8ce 353c 7189 253d a9e3 883c ae5f 89bd
000000f0: 8b1c 21bc ab98 a9bd 7fde c1bd f527 a53d
00000100: da78 ac3d 4488 50bc 612b d03d 5c3c 403d
00000110: 65c9 12bd 457a 323c e447 76bb 42bb d5bb
00000120: 8391 d9bd 7598 6f3d 4dc3 f03d c3d8 9c3d
00000130: 7f37 5abd 40da ffbd 3eb6 bebc 4dd3 9b3d
00000140: d8b5 e43d 4fa5 cf3d 3d66 253d 64c0 543c
00000150: c1bf 8fbd 7f96 b5bd 2ad2 20bd 5ad8 f4bd
00000160: 90a2 a1bd a252 a43d 3355 603d 411f ed3c
00000170: 42e2 47bd 46ee 4ebb 44ba c1bd 48f3 1f3d
00000180: a523 833d 6fb9 bc3d cb09 09bd f434 923d
00000190: 89c5 bc3d e563 aabd 56b9 b2bd 9b5d 0d3c
000001a0: de26 453d 84e4 053d be5c 453d 2cf4 abbd
000001b0: 8c65 fb3c d67b df3d ed6a 9ebc b45e 65bd
000001c0: 81ce 90bd 071b a53c ce6a 81bd 5f2c 9bbd
000001d0: 0294 46bd 6535 94bd e437 e73c 9825 a23d
000001e0: 08ff ab3d ea80 af3b 6217 d4bd a603 efbd
000001f0: 76ca f73c 147f ca3d 7647 19bd 1666 353d
00000200: 4590 dcbd 3e0e d03d cf93 5fbc 5989 793d
00000210: 4122 fabc 4707 373c 316f 3f3d d15e ed3d
00000220: df93 f93d ada1 ca3d 1126 34bd 17b0 03bd
00000230: c9df e0bd fca7 65bc 977e d9bd 9af4 ab3b
00000240: d8e1 993d bace 60bd a181 ba3d edae d23d
00000250: 5ff0 e6bd 7fdf eb3d 0549 f0bd c088 bd3d
00000260: 79d2 dabd 2bdc 86bd 6e1f ccbd 67e5 7bbd
00000270: 4c75 eebc bb56 bfbd 185c cdbd 3bee f2bb
00000280: b4e2 c33d 3307 93bd 8e71 f23d 2887 d63d
00000290: c530 213d c6f2 b2bc 42c4 d3bc d621 123c
000002a0: 871e 93bd 95a9 63bd f8ae e63d 44b5 d3bc
000002b0: 60a6 a4bb f5b0 7a3c 64c2 d3bc 2d32 01bd
000002c0: 4426 cebd 25db 18bd fa33 f93d fe19 e3bd
000002d0: 9d97 2e3d ba67 f6bd fdca b7bd 9702 94bc
000002e0: f559 c0bc 2cca c13d 7d30 5ebc 4b7c 9bbc
000002f0: 79b1 33bd 9568 b23d 2e99 d6bd 8cf4 953d
00000300: b458 8cbd 75bb 97bd 4f36 0f3d cb6c ebbd
00000310: 9443 c3bd a080 eabd 2da5 cc3c 5bd5 c03d
00000320: 5b17 e8bd a87d 9f3d e045 f53d 6bd1 8fbc
00000330: baf2 48bd 8a2b 52bc 2652 d83d 3de6 32bd
00000340: c292 713c f06d 7cbc e80c ccbd e9d8 a9bc
00000350: 58ee 843d 7bc2 873d 0da1 f93d 9a31 ec3d
00000360: d85f 443a dba1 c13d 7927 82bd 16a5 e8bc
00000370: b3af 843d d6f1 9e3d 6a02 653d b430 063d
00000380: c218 e13c 31e4 3d3d 2def efbd 48ba 8ebd
00000390: 4f5c a7bc 0ba5 483c a7a8 c93d bdad 903d
000003a0: 80db 643d 3e67 9f3c 9e90 893c a283 1b3d
000003b0: a2f3 bfbd d10e bebd e36a 09bc ef5b 4d3d
000003c0: a50a dc3d 1680 983d cb25 a03d bf6b ff3d
000003d0: 1963 ab3d 783f b1bd dde3 fabb 1e7c 96bd
000003e0: 54ab f1bc da73 993c 9a7a 69bd 3948 f03d
000003f0: e068 9ebd 7aa0 a7bc 9e18 b6bd b1dc c0bd

bias f4 [64]
-0.088696264 -0.10092506 -0.10743254 -0.05711051 0.024209019 -0.056785144 0.078219496 0.015922152
-0.069716446 0.07067977 0.09147584 0.007923688 -0.030212753 0.06438564 -0.022945885 0.023389027
0.035611726 0.06732679 -0.039267786 -0.07755622 0.067873135 -0.043053556 -0.123907745 0.12473121
0.092364885 -0.04984464 -0.0046623326 0.095951 0.0725134 -0.025681863 -0.070283525 0.112617634
0.015358266 -0.09959037 0.058690052 0.07732011 -0.121578164 0.118658654 0.0030058161 0.1011824
-0.0830218 0.11126054 0.11491295 0.011653322 0.03596317 0.10810892 0.077709354 0.05913158
-0.062029958 0.06444911 0.071748495 0.08530076 -0.045001127 0.08196551 -0.046706706 0.049695045
-0.02095358 0.035133228 -0.06705594 -0.07361997 0.07139461 -0.061167587 -0.014932734 0.11399337
00000000: 63a6 b5bd ccb1 cebd 9705 dcbd b6ec 69bd
00000010: fe51 c63c 8a97 68bd 8b31 a03d 2c6f 823c
00000020: 7fc7 8ebd 8ec0 903d af57 bb3d 5bd2 013c
00000030: bc80 f7bc 9edc 833d 02f9 bbbc 589a bf3c
00000040: 9add 113d a1e2 893d 42d7 20bd ccd5 9ebd
00000050: 1201 8b3d ed58 30bd 58c3 fdbd 1473 ff3d
00000060: cd29 bd3d e529 4cbd 7bc6 98bb f581 c43d
00000070: e881 943d c562 d2bc cff0 8fbd 13a4 e63d
00000080: 3da1 7b3c 09f6 cbbd fb64 703d 015a 9e3d
00000090: f9fd f8bd 4f03 f33d 3afd 443b b838 cf3d
000000a0: 5507 aabd 91dc e33d 7b57 eb3d 93ed 3e3c
000000b0: 1e4e 133d 3668 dd3d 1526 9f3d f533 723d
000000c0: 2013 7ebd e5fd 833d e0f0 923d 2ab2 ae3d
000000d0: 1a53 38bd 89dd a73d 884f 3fbd 088d 4b3d
000000e0: d8a6 abbc dce7 0f3d a054 89bd 11c6 96bd
000000f0: 5637 923d dd8a 7abd 6da8 74bc 5b75 e93d

weight f4 [7, 64]
-0.1229603 0.124102406 0.12371842 -0.10319329 -0.11941446 0.07525999 0.11031979 0.099423476
0.10907693 0.11881557 -0.025297875 0.012292254 -0.06498916 -0.08043753 -0.10781965 -0.047077205
0.11674393 -0.061912764 0.11330239 0.12224306 -0.03812568 0.11297925 -0.081388295 -0.109594375
0.03986627 -0.057564776 -0.053876925 0.021045446 -0.105222434 0.039238945 0.06513896 0.09999097
-0.075023524 -0.06867001 -0.12299965 -0.0037707826 -0.03676434 0.11820033 0.006430597 -0.055212565
0.05868698 0.06014123 -0.0044633057 -0.090319544 0.098281875 -0.062811956 0.05439433 0.09556794
-0.06229938 -0.003078949 0.063194826 0.0020049622 0.021369865 0.047996692 0.030484099 0.11240225
0.041272856 0.0024172014 -0.0032262877 -0.049114347 0.06669713 0.04503195 0.090719745 0.11353635
0.027356563 0.053959224 -0.060070947 0.11535121 0.038265586 0.05455149 -0.03970309 -0.020730464
-0.041964713 -0.10102913 -0.0053847856 0.054774035 0.03142579 0.106821604 -0.07828428 -0.013810678
-0.105738826 -0.052259058 0.04240724 -0.122559555 -0.08108658 -0.07324465 0.11451532 -0.10736166
0.03415069 -0.053346068 -0.08201965 -0.114982165 -0.02245904 0.011469707 0.050374478 -0.10226306
0.07732915 -0.04999011 -0.07300829 0.024836402 0.04773012 0.0044820337 0.07998542 -0.012456643
-0.045783438 -0.03514897 0.0529874 0.0917381 0.026077727 0.12008 -0.112871036 -0.031778056
0.022719521 -0.042947073 -0.054106202 -0.06792445 -0.11261476 0.057642926 -0.09503364 -0.08734836
-0.023519626 0.060387522 0.08975574 0.01681993 -0.0073442184 0.050548647 0.006064437 0.0464192
0.08363421 0.019421903 0.064063 0.09415626 0.010442406 -0.10585057 -0.055650134 0.0020484577
-0.01937699 -0.0387822 0.04739848 -0.050600022 -0.11174879 0.11010412 0.022751136 0.005241975
-0.028857097 0.09271443 0.12339789 -0.06349746 0.111600526 -0.07998073 -0.07639049 -0.10044203
-0.00357247 -0.11530447 -0.082011096 0.06918175 -0.06813429 -0.11007903 -0.013013706 -0.03282525
0.099006444 -0.055970944 0.096450366 -0.024885684 -0.06873542 -0.08132368 -0.05072491 -0.012989811
0.07210872 -0.1231612 -0.0022847266 0.032532558 0.05064545 0.054529306 0.07105509 0.071808256
-0.080208264 -0.008942118 -0.08522026 -0.025567684 -0.12038177 0.080377296 -0.031720154 0.09831896
-0.026375778 -0.014827807 0.064756565 0.03544882 0.065786466 0.10740232 -0.06680884 0.013890079
0.060098235 -0.05775364 0.005501097 -0.017481413 0.07654698 -0.09912462 0.09879904 -0.041368674
0.08876186 -0.037498835 -0.110589005 0.121311784 -0.060001902 -0.023228977 0.020424407 -0.062338095
0.038040485 -0.01680055 0.050048504 0.021732962 0.004788329 0.087257884 -0.07313708 0.08165594
-0.072050475 0.07478006 0.09683818 0.024472913 0.09641862 0.029068552 0.03517641 0.07538405
-0.050636582 0.08845688 0.070694104 0.077361986 0.035424966 -0.119154885 0.10368506 0.054997455
-0.0034427466 -0.10724708 0.028475452 -0.014243524 0.01124167 -0.11985249 0.0871757 -0.10960503
0.09869914 0.10384245 -0.049497057 -0.1182028 0.08142434 0.010847307 -0.020160306 0.090084545
-0.014854976 0.08674237 6.17843e-05 -0.011178994 0.08027308 -0.11706134 -0.02031902 -0.069824256
00000000: 9cd2 fbbd 6729 fe3d 1560 fd3d 0157 d3bd
00000010: 928f f4bd e921 9a3d 58ef e13d 899e cb3d
00000020: ba63 df3d 9455 f33d 7d3d cfbc 7365 493c
00000030: 0919 85bd 6fbc a4bd 8cd0 dcbd 07d4 40bd
00000040: 7117 ef3d 3d98 7dbd 150b e83d 925a fa3d
00000050: ac29 1cbd aa61 e73d e8ae a6bd 0473 e0bd
00000060: d04a 233d 0bc9 6bbd 0dae 5cbd 8067 ac3c
00000070: dc7e d7bd 04b9 203d 9367 853d 11c8 cc3d
00000080: efa5 99bd dda2 8cbd 3ee7 fbbd 3c1f 77bb
00000090: 3496 16bd 0413 f23d c2b7 d23b 9226 62bd
000000a0: c261 703d a656 763d ec40 92bb 74f9 b8bd
000000b0: 0248 c93d 8ea3 80bd 97cc 5e3d 20b9 c33d
000000c0: a22d 7fbd 31c8 49bb 4a6c 813d af65 033b
000000d0: db0f af3c 2e98 443d cab9 f93c 2733 e63d
000000e0: ba0d 293d e969 1e3b 2070 53bb 202c 49bd
000000f0: 8198 883d 6c73 383d 46cb b93d bf85 e83d
00000100: df1a e03c 5904 5d3d f40c 76bd 413d ec3d
00000110: 60bc 1c3d 6271 5f3d b59f 22bd efd2 a9bc
00000120: 31e3 2bbd 5ce8 cebd db72 b0bb bd5a 603d
00000130: 54b8 003d 49c5 da3d 8253 a0bd 2f46 62bc
00000140: 998d d8bd 980d 56bd 37b3 2d3d 8100 fbbd
00000150: b910 a6bd 4b01 96bd 0287 ea3d 6ee0 dbbd
00000160: 98e1 0b3d 6881 5abd ebf9 a7bd c57b ebbd
00000170: 05fc b7bc 70eb 3b3c 7855 4e3d 4c6f d1bd
00000180: bf5e 9e3d 6ec2 4cbd 5f85 95bd b675 cb3c
00000190: a980 433d 06de 923b 65cf a33d f316 4cbc
000001a0: 6a87 3bbd 5ef8 0fbd 5109 593d 2fe1 bb3d
000001b0: f5a0 d53c 81ec f53d ee28 e7bd b529 02bd
000001c0: 4a1e ba3c 45e9 2fbd 779e 5dbd f91b 8bbd
000001d0: 91a2 e6bd fd1a 6c3d ffa0 c2bd b2e3 b2bd
000001e0: 3bac c0bc e858 773d dbd1 b73d f3c9 893c
000001f0: c5a7 f0bb 190c 4f3d 2fb8 c63b 0f22 3e3d
00000200: 6a48 ab3d af1a 9f3c 7633 833d ffd4 c03d
00000210: a016 2b3c 2fc8 d8bd 65f1 63bd 6b3f 063b
00000220: 7ebc 9ebc 16da 1ebd e924 423d f841 4fbd
00000230: 8ddc e4bd 457e e13d 9760 ba3c e0c4 ab3b
00000240: b865 ecbc 10e1 bd3d 08b8 fc3d f50a 82bd
00000250: d18e e43d f0cc a3bd 9e72 9cbd 8db4 cdbd
00000260: 1a20 6abb c024 ecbd 6ff5 a7bd 29af 8d3d
00000270: fe89 8bbd 1d71 e1bd 7037 55bc c573 06bd
00000280: e4c3 ca3d ca41 65bd c587 c53d 10dd cbbc
00000290: 28c5 8cbd 088d a6bd ecc4 4fbd 37d3 54bc
000002a0: bdad 933d f03b fcbd 5abb 15bb dc40 053d
000002b0: 9a71 4f3d 1f5a 5f3d 5585 913d 3510 933d
000002c0: 3b44 a4bd f681 12bc f687 aebd 5273 d1bc
000002d0: b88a f6bd da9c a43d feec 01bd 735b c93d
000002e0: 0412 d8bc 55f0 72bc 179f 843d c832 113d
000002f0: 0ebb 863d bff5 db3d 13d3 88bd 3793 633c
00000300: 9129 763d 158f 6cbd 8c42 b43b 2e35 8fbc
00000310: aac4 9c3d d901 cbbd 2757 ca3d 3372 29bd
00000320: c7c8 b53d 6198 19bd 7d7c e2bd 5072 f83d
00000330: 8ec4 75bd b24a bebc 1651 a73c 3b56 7fbd
00000340: 57d0 1b3d 4fa1 89bc a9ff 4c3d 5309 b23c
00000350: 6ae7 9c3b 43b4 b23d e5c8 95bd 3b3b a73d
00000360: 338f 93bd 4a26 993d 1953 c63d 6b7b c83c
00000370: 2077 c53d 2c21 ee3c 2415 103d f462 9a3d
00000380: 4e68 4fbd e128 b53d 12c8 903d f66f 9e3d
00000390: c519 113d 7a07 f4bd d558 d43d 0345 613d
000003a0: b49f 61bb 5ba4 dbbd 5a45 e93c ab5d 69bc
000003b0: fb2e 383c 3975 f5bd 2c89 b23d 9a78 e0bd
000003c0: c622 ca3d 5aab d43d 6dbd 4abd 4f14 f2bd
000003d0: cec1 a63d e7b8 313c 3a27 a5bc 3f7e b83d
000003e0: 4962 73bc fca5 b13d 3292 8138 1928 37bc
000003f0: 3666 a43d dbbd efbd 1374 a6bc 0500 8fbd

bias f4 [7]
0.08731683 0.030844899 -0.08446834 -0.08873661 0.031786792 0.08620629 0.11210251
00000000: 2bd3 b23d 71ae fc3c bdfd acbd 8abb b5bd
00000010: de32 023d ec8c b03d 0096 e53d

weight f4 [7, 7]
-0.16246681 -0.09709796 0.16253152 -0.0002783537 0.17969301 -0.35381144 0.33080932 0.18062153
-0.18559094 0.12463197 -0.24710582 -0.10908359 -0.079419136 -0.17702301 0.077888995 -0.35094795
0.29091093 -0.24087077 0.16014948 -0.20434943 0.33950618 0.32340088 0.32179627 -0.24538067
-0.2660847 -0.31514317 -0.2334358 -0.039600007 0.29246393 0.050906125 -0.19835146 -0.33323106
-0.27945426 -0.35493335 -0.15988882 -0.34812087 0.24418348 -0.25316182 0.012661987 -0.20534459
-0.3326859 -0.2430187 -0.20121035 0.2849569 -0.21681495 -0.096184164 0.20343623 0.27959356
0.29530665
00000000: b35d 26be 4cdb c6bd aa6e 263e 00f0 91b9
00000010: 7201 383e c626 b5be d75f a93e daf4 383e
00000020: 8d0b 3ebe 0c3f ff3d 4f09 7dbe 3867 dfbd
00000030: 80a6 a2bd 8545 35be 4484 9f3d 73af b3be
00000040: 47f2 943e d4a6 76be 3afe 233e fa40 51be
00000050: c1d3 ad3e cd94 a53e 7bc2 a43e 1245 7bbe
00000060: 413c 88be 725a a1be cb09 6fbe 9e33 22bd
00000070: d5bd 953e f182 503d a51c 4bbe 439d aabe
00000080: a114 8fbe d3b9 b5be e5b9 23be e63c b2be
00000090: 3c0b 7a3e 6d9e 81be 3974 4f3c da45 52be
000000a0: ce55 aabe e5d9 78be 160a 4ebe dfe5 913e
000000b0: bd04 5ebe 34fc c4bd 9651 503e e326 8f3e
000000c0: 6f32 973e

bias f4 [7]
-0.21259847 -0.2154149 -0.23453294 0.15486401 0.33241704 0.19543889 -0.36895576
00000000: 6ab3 59be b995 5cbe 6729 70be ac94 1e3e
00000010: 9132 aa3e 2221 483e c5e7 bcbe
