logs/cp5_agent0_050924-034439.pth (torch, 67322 bytes, 16 tensors)

weight f4 [64, 42]
000000 25 a6 36 bc 1a 8d 8e bd a0 a5 35 bc d1 bc 80 3d
       -0.01114801 -0.06960507 -0.011086851 0.06286014
000010 30 c6 a9 bc a2 c1 e8 bd d3 2e b1 3d dd 88 2a 3d
       -0.020724386 -0.113650575 0.08651509 0.04163443
000020 00 55 89 bd 70 7c 08 be cd 04 ad bc ec 57 07 be
       -0.067056656 -0.13328719 -0.021120453 -0.13217133
000030 a9 71 81 3d 74 6e 16 3e 1a 39 c7 bc 20 00 7b bd
       0.06320507 0.14690572 -0.02431922 -0.061279416
000040 fc b9 f7 bd 1a 69 b4 3d ff c0 a3 bc 50 6d f5 bd
       -0.120960206 0.08809109 -0.019989489 -0.1198374
000050 38 b9 d5 3d 18 85 24 3d b4 59 b8 3c 50 f4 94 bd
       0.10435718 0.04016599 0.022503711 -0.072731614
000060 69 18 04 be 35 58 26 39 e3 f6 6f 37 a2 fc ed 3d
       -0.12899937 0.00015863853 1.4302993e-05 0.116204515
000070 88 78 71 bd 90 ab 89 bd c1 ed d3 bc 5c 11 85 bd
       -0.05895284 -0.06722176 -0.025870206 -0.06497452
000080 1b 8b e0 3d 71 9b e4 3c 8f d5 13 3d 66 88 d1 3d
       0.10964032 0.027906151 0.036092337 0.10231094
000090 10 5b 02 3e 9e 79 ab 3d a8 0f f2 3b 86 69 10 be
       0.1273005 0.08372806 0.0073871203 -0.14102754
0000a0 4c 45 8e 3d ba ca 98 bd e7 ac 13 3e 82 ae 85 3d
       0.06946811 -0.07460542 0.14421426 0.06527425
0000b0 5d 57 0c 3e 72 0f f4 bd f3 06 06 3e 7f 85 05 3e
       0.13705201 -0.119170085 0.13088588 0.13039206
0000c0 04 6f 0b bd 36 59 f7 bd 26 1a d4 3d f3 78 f0 3d
       -0.03404142 -0.120775625 0.1035655 0.11741819
0000d0 45 7f 73 bc a0 88 49 bd 33 6c 17 3e c3 89 80 bd
       -0.014861886 -0.04920256 0.14787368 -0.06276276
0000e0 44 e6 0d be 25 e5 06 be 28 1e 14 bd 8f e0 04 3e
       -0.1385737 -0.13173349 -0.03616157 0.12976287
0000f0 00 95 16 be d1 d1 89 bd 30 74 b7 3d 00 9e fc 3b
       -0.14705276 -0.067294724 0.08957708 0.0077092648
000100 b3 b4 1a bd 33 e8 05 3d 1b 43 b8 bd 13 dc ec 3c
       -0.037769984 0.032692146 -0.08997174 0.028913533
000110 7b c7 14 bd 50 e5 1a be a6 13 85 bd fe a9 f0 bd
       -0.036323052 -0.15126538 -0.06497888 -0.117511734
000120 18 1a bc bc 64 a6 00 3e a2 57 e2 3c 9c 12 fc 3d
       -0.022961661 0.12563473 0.027629677 0.12308237
000130 48 47 fa bc db 37 9b bd 86 d2 8b bd e7 85 ed bd
       -0.030551568 -0.07579013 -0.068272635 -0.115978055
000140 ad 39 dd bd 70 5e 30 3d a7 37 9c bd e5 d6 0e 3e
       -0.108020164 0.043058813 -0.07627802 0.13949163
000150 29 fb e5 3d 6d 3a 40 bd 84 7a b7 bd 06 a1 fe 3d
       0.112295456 -0.04693072 -0.08958915 0.124330565
000160 3d 35 8d bd 3f a1 e2 3d 40 72 00 3e 13 9a d5 3c
       -0.0689492 0.110659115 0.12543583 0.026074445
000170 6f b3 35 3d e7 66 e2 bd aa 88 19 3e 4b e6 a6 3d
       0.044360574 -0.11054783 0.1499354 0.08149394
000180 96 a4 4a 3d 36 ad bc 3c 41 2a a6 bd 41 e2 ae 3d
       0.049473368 0.023031812 -0.08113528 0.08539248
000190 7b e0 46 3c 29 2a 04 3d 83 31 e3 bc 60 64 57 3d
       0.012138481 0.03226677 -0.02773357 0.05258596
0001a0 b1 89 7a bd 6d d4 77 3d b2 11 f3 3d 5b 12 0e be
       -0.06116647 0.06050532 0.118686095 -0.1387419
0001b0 49 ad 28 bd 70 b8 e5 bb fb 2b 17 be 30 b4 4c bd
       -0.041180883 -0.007010512 -0.14762871 -0.049976528
0001c0 a7 01 65 3b 9d 46 42 3c ac e6 e3 bd 1a de dc 3c
       0.0034943612 0.011857656 -0.111279815 0.026961375
0001d0 58 22 14 be b7 43 16 be 3a 92 5e bd 25 a3 3f 3d
       -0.14466226 -0.14674269 -0.05433867 0.046786446
0001e0 37 84 d5 bc 6a 3d 3a 3d e3 01 20 3d 7a 42 d2 3d
       -0.026064022 0.045468725 0.0390643 0.10266586
0001f0 0d 81 05 be b1 5c dd 3d 3d 95 fb 3d b0 32 34 bd
       -0.1303751 0.10808695 0.12284324 -0.043993652
000200 94 98 20 3d 40 57 c7 3d c9 2e cc bd 60 04 58 3d
       0.03920801 0.097334385 -0.09969861 0.052738547
000210 ef 8d cd bd 51 e7 9b 3d 88 06 13 3d 76 b8 0c be
       -0.10036837 0.076124795 0.0358949 -0.13742241
000220 b0 f8 1b 3e fe d4 e7 3d 9a 3f 84 bc 1a 92 97 3c
       0.15231586 0.11319922 -0.016143609 0.018502284
000230 23 6e c0 bd d4 9b 92 bc da e7 4a 3d b7 7f ea bd
       -0.09396007 -0.01789657 0.049537517 -0.11450141
000240 a1 9d 4f 3d 92 48 22 bc 77 db de bd 9f 3a 5a 3d
       0.050687436 -0.009904997 -0.10881703 0.05327856
000250 97 5d 44 3d 3a 79 d3 3d 61 6f 79 bd b4 64 d8 bd
       0.047940817 0.103258565 -0.060897235 -0.105660826
000260 b0 d5 1b be 3e c3 53 3d 9e 2b 82 3d 0d 46 c0 3d
       -0.15218234 0.05169987 0.063559756 0.09388361
000270 56 26 1c 3e b4 d1 b3 bd 2b 55 1e bd 63 34 bf bd
       0.15248999 -0.08780232 -0.03865544 -0.09336164
000280 3f dc 5b 3d 22 17 57 bc fd 8e be bd 3b c2 9b bc
       0.05367684 -0.013128074 -0.093046166 -0.019013515
000290 35 58 b7 bd cf 50 9a bd d3 af 04 bd c3 87 16 3e
       -0.08952371 -0.07534944 -0.03239424 0.14700226
0002a0 e4 f7 c9 3d 25 24 bd 3d 45 ea 1c be 04 6a 4e bd
       0.098617345 0.0923541 -0.15323742 -0.050394073
0002b0 66 5f dd bc 6c 9a 03 be 73 29 9d bc b1 76 8f bd
       -0.027023029 -0.12851876 -0.019184804 -0.070050605
0002c0 77 16 f0 3d 5c 43 f8 bb 5a c4 96 3d 07 33 be bd
       0.11723035 -0.0075763892 0.0736167 -0.092870764
0002d0 dc 54 ce 3d 98 83 cf bd 22 f1 c4 bd 27 7e 47 bd
       0.100747794 -0.101325214 -0.09616305 -0.048704293
0002e0 65 c8 42 bc 43 d3 7f bd 10 53 bd bc 5e 64 e8 bd
       -0.011888598 -0.062457334 -0.023110896 -0.113472685
0002f0 75 60 88 3d 91 5e a4 bd 7b 62 dc bd f7 93 17 bd
       0.06659023 -0.080258496 -0.10760971 -0.037006345
000300 b8 96 0a be d5 1e b3 3d 76 45 e0 bd bd c7 4f 3d
       -0.13534057 0.08746115 -0.109507486 0.050727595
000310 9b 6d 03 3d c1 bd 18 3e 2d 72 5d 3d 2c d8 c5 3d
       0.03208695 0.14916135 0.054063965 0.09660372
000320 35 44 1f 3d 7e 1b a7 3c 45 bc b4 3d ee fc 8f bd
       0.038883407 0.020398851 0.08824972 -0.070306644
000330 61 d6 1c 3e 08 50 0e 3d ad 91 17 be b4 1c f9 3d
       0.15316154 0.034744292 -0.14801665 0.12163678
000340 ae b3 ed 3d 2d 67 18 3e 2e f5 81 bc 8f 3c d5 3c
       0.11606537 0.14883108 -0.015863981 0.026029853
000350 be c2 94 3c be a9 ad bd d6 33 6d 3d ec 2c 1c be
       0.018159267 -0.084796414 0.057910763 -0.15251511
000360 e3 12 fa bc 0b df 9e bd b0 c2 18 bd 76 69 ad bb
       -0.030526584 -0.07757386 -0.037295043 -0.005292113
000370 fe 6b 30 bd ee 30 75 bc 22 a6 e9 3d 77 06 56 bd
       -0.04307174 -0.014965279 0.114086404 -0.05225226
000380 bf ad 9f 3d 43 9e c8 bd 24 54 20 3d 32 02 6e bc
       0.07796811 -0.09795811 0.039142743 -0.014526891
000390 d7 4d bb bd 41 ff 07 3e 2b b5 9e 3d a8 09 06 3e
       -0.09145706 0.13280965 0.07749399 0.13089621
0003a0 30 75 24 bc 49 3c 1e 3c 43 20 9e bd 7b df 17 3e
       -0.010037705 0.009657928 -0.07720997 0.14831345
0003b0 d6 54 6b bd 0e 2e 10 be ca 37 86 3b 07 c7 ca bd
       -0.057453953 -0.14080068 0.004096006 -0.09901243
0003c0 1f cf 01 3e d1 76 05 bc f8 1e f5 3a e1 b0 21 bd
       0.12676667 -0.008146004 0.0018701246 -0.039475325
0003d0 15 a9 67 bd eb 6e 15 3e 0b ba ab bc 6d ed 83 bd
       -0.056557734 0.14593093 -0.020962736 -0.0644177
0003e0 27 35 11 bc fc a2 3e 3c 2e 12 b3 3d e0 e5 e9 bd
       -0.00886277 0.011635538 0.08743702 -0.11420798
0003f0 7e 49 1b be cf de 04 3c 32 9a 02 3e ec 58 e9 3d
       -0.15164754 0.008109762 0.12754133 0.113939136

bias f4 [64]
000000 dd c4 96 3d 1e c3 a7 3d 33 47 01 bd 8a 93 15 3d
       0.073617674 0.081915125 -0.03156204 0.036517657
000010 27 b9 14 3e 11 7b eb bd 9a 9b c6 bd ac ab 1c be
       0.14523755 -0.114980824 -0.096976474 -0.15299863
000020 98 63 d6 3d 5b 2b fd 3c 02 f5 2b bc 1d ec 78 3d
       0.10468215 0.030904463 -0.010495426 0.06077205
000030 c8 13 d7 bc 28 c2 02 be fc fe 50 bd 88 24 cb bd
       -0.02625455 -0.12769377 -0.051024422 -0.09919077
000040 ba a6 71 bd 2a b7 9b 3d 6b d9 03 3e 7c 68 57 3d
       -0.058996893 0.07603295 0.12875907 0.05258988
000050 e6 2e 00 be e3 12 d8 bc 61 02 78 3d 85 eb 8f 3c
       -0.1251789 -0.026376193 0.060549144 0.01756836
000060 ac 98 cd 3d 83 06 f6 3d c7 90 0b 3c 7c 56 0e 3e
       0.100388855 0.12012961 0.008518404 0.13900179
000070 ea 90 da bd 33 86 18 3e 87 9c 9b 3d b2 6a 00 3e
       -0.106721714 0.14894943 0.075982146 0.12540701
000080 c4 d0 6c bd ec d4 8c bd bf 0f 03 3e a2 48 da bd
       -0.057816282 -0.06876549 0.12798975 -0.10658385
000090 90 6b 85 3d 5b a3 fe bd b0 de ae bd 02 52 94 bd
       0.065146565 -0.12433501 -0.08538568 -0.07242204
0000a0 be 70 bf bd 9a ba 43 bd 0c 65 e3 bd e8 1d 8a 3b
       -0.09347676 -0.04778538 -0.111032575 0.004214991
0000b0 dc 3a 0c 3d f3 69 2d 3c 5e 89 1c be 95 9c af bd
       0.03423582 0.010584342 -0.15286776 -0.085747875
0000c0 35 4e 03 bc c9 a7 5e 3d fa 76 19 3e cf c4 93 3d
       -0.0080142515 0.05435923 0.14986792 0.07215273
0000d0 b5 3d a3 bd 06 79 6a bd 92 30 d7 bd 6b dc 3c 3b
       -0.07970754 -0.057244323 -0.10507311 0.0028817903
0000e0 4b c7 2b 3d da 8b 05 3e f0 ea 11 bd 14 c8 aa bc
       0.041938107 0.1304163 -0.035624444 -0.020847358
0000f0 40 db 83 3b ce 90 80 bc fc ed b3 bd 02 1b fd bb
       0.0040239394 -0.015694048 -0.08785626 -0.007724167

weight f4 [64, 64]
000000 d4 64 51 bc 51 7e ca bd 31 d1 c6 bc ca d1 9a b9
       -0.012780387 -0.09887374 -0.024269672 -0.00029529474
000010 25 d6 f0 3d f0 b1 76 bb 29 e4 36 3d 11 02 f4 3d
       0.11759595 -0.003764268 0.044651184 0.11914457
000020 8d 7a 94 3c 25 c4 47 bd 58 c4 93 bd 6b 3e a5 3d
       0.018124843 -0.048771042 -0.07215184 0.08068546
000030 7f b4 a8 3d 47 06 29 3d 62 a9 6d bd 17 00 5d bd
       0.08237552 0.041265752 -0.058022864 -0.053955164
000040 62 0a 91 bd 20 4a d2 bd 2c 4c ee 3d 15 ff 5b bb
       -0.070820585 -0.102680445 0.116356224 -0.0033568789
000050 14 15 63 bd ca 4a e4 bd 7c 7e be bd e0 11 c0 3d
       -0.055440024 -0.111470774 -0.09301469 0.093784094
000060 8b ad 93 3d 32 72 28 3d 6a 52 f4 bc e3 6f 26 3d
       0.07210835 0.04112453 -0.029824454 0.040634047
000070 de 60 7f bd 6d 51 8d 3d 52 e1 b3 3d 24 bd 5d 3a
       -0.06234824 0.06900296 0.08783211 0.0008458665
000080 35 e3 8c bd 7c 51 e7 3d 73 6c bc bc 77 c1 a0 3b
       -0.06879274 0.11294839 -0.023000931 0.0049058753
000090 ef c1 e2 bd c4 1f 43 bd e4 dd 67 3c 90 f5 d5 3d
       -0.11072146 -0.047637716 0.014152024 0.10447228
0000a0 53 d3 f2 3b 61 06 b3 bd 63 8f 61 bd 86 93 aa bc
       0.0074104457 -0.08741451 -0.055068385 -0.020822298
0000b0 27 58 2d bd 6f f8 dc 3d 23 ff b5 bd 15 b1 bb bc
       -0.042320397 0.107895724 -0.08886554 -0.022911588
0000c0 39 b5 bd 3c 1a 9a f3 bc 44 83 c0 3b 51 2a 3a 3d
       0.023157703 -0.029736567 0.005875023 0.045450512
0000d0 2e 8a 78 3d 74 88 c2 3d c4 90 ae 3d 80 7f 51 3d
       0.060678653 0.094986826 0.085237056 0.051146984
0000e0 b5 ff dd 3d 3f c9 a2 bd 13 d2 d7 3d a1 87 d8 bd
       0.10839788 -0.07948541 0.10538115 -0.10572744
0000f0 55 ad e7 3d ec 2c f7 3d 5d e2 c1 3d 34 b5 91 bd
       0.11312357 0.12069115 0.094670035 -0.0711464
000100 3b 11 1d 3d 54 49 c3 bd b0 e8 d0 3d 71 bd df 3d
       0.03834651 -0.095354706 0.102006316 0.10924805
000110 4d 78 ed bd 7a b8 50 bd 79 58 07 3d c8 6c f5 bc
       -0.11595211 -0.05095718 0.03304336 -0.029959098
000120 85 74 cf bc 56 35 c9 bd 74 d0 c9 3c 8d cd 4f bd
       -0.025324116 -0.09824626 0.024635531 -0.050733138
000130 03 d0 84 bd 5b d9 d7 bd c3 0b 91 3d e6 c9 aa bb
       -0.064849876 -0.10539504 0.070823215 -0.0052120565
000140 71 d2 97 3d 48 1d f8 3d d1 99 16 bd 22 5e 4f 3d
       0.074131854 0.1211496 -0.036767785 0.05062688
000150 45 30 8e 3d 2a 72 cb 3d a8 26 83 3d 21 d0 e5 3d
       0.069428004 0.099338844 0.064038575 0.11221338
000160 68 f3 fa 3d e2 cb 21 bd ea 67 f7 3d d5 a0 25 bd
       0.12253457 -0.03950108 0.12080367 -0.040436585
000170 f6 68 e5 bc bc 56 47 bd 7f a6 83 3d 5d ef f7 bd
       -0.02800415 -0.0486667 0.06428241 -0.12106202
000180 b1 5b 12 bd 9b f8 4a 3d 26 4c 93 bd 13 32 a5 39
       -0.035731975 0.049553495 -0.071922585 0.0003150856
000190 dd 30 9f ba 29 ac c5 bd ce 99 dc bd ea a8 c7 bd
       -0.00121453 -0.096519776 -0.107715234 -0.09749015
0001a0 5d 25 67 bd e6 a6 e3 bb 3f 1d c9 bc b8 25 bb bb
       -0.056432117 -0.006947386 -0.024550078 -0.0057112835
0001b0 0e 39 a0 bc 07 e3 f0 bd 1d 16 19 3c 66 83 23 3d
       -0.019558456 -0.11762052 0.009343651 0.039920233
0001c0 42 40 dd bd 31 47 9d 3d 9c 22 aa 3d 48 d9 f3 3d
       -0.10803272 0.07679594 0.083073825 0.119066775
0001d0 1f 25 c5 3d 66 40 b6 bd 06 37 c0 bd 71 c9 c5 3c
       0.09626221 -0.08899002 -0.09385495 0.024143906
0001e0 3b 86 11 3c e4 4b e6 3d 67 b8 36 bd 41 2c 21 bd
       0.008882101 0.11244944 -0.044609454 -0.039348844
0001f0 97 66 9c bd 43 37 e2 bd ae 3a 87 bd 8f 41 ba 3d
       -0.07636755 -0.110456966 -0.06602989 0.090945356
000200 ec c5 1c 3d 8f 55 df ba fa c8 98 3d 1d 68 ea bc
       0.03827469 -0.0017039048 0.07460208 -0.028614098
000210 93 39 1e 3d c8 ad f9 3d 2f 88 ea 3d ae 5b 0f bc
       0.038629126 0.12191349 0.11451756 -0.0087498855
000220 76 c0 13 bd e6 12 e2 3d 46 72 70 3c 52 6f 10 bd
       -0.036072217 0.11038761 0.014675682 -0.035262413
000230 0d 68 14 3d 78 d1 34 3d 97 e0 fa 3d 54 4e 96 3d
       0.036232043 0.044145077 0.12249868 0.07339159
000240 07 59 c9 bc 8d d2 dc bd c8 6f 17 bc d2 1a 8f 3c
       -0.024578584 -0.10782347 -0.009242959 0.017468844
000250 40 b3 53 bd b1 3f c4 bc ed c0 8a bd 41 53 bd 3d
       -0.051684618 -0.023956152 -0.06775079 0.09244395
000260 b0 ae 31 3c 94 0f a3 bd 6e 53 84 3d 68 df 90 bd
       0.010844871 -0.07961956 0.064612255 -0.07073861
000270 ae cc dc 3d 3d 13 1c bd 3b 91 2f 3d 56 55 ab bd
       0.10781227 -0.038104285 0.042863112 -0.08365886
000280 ae 7c 32 3d ea 39 ce bd 43 14 94 3c a9 90 9a 3d
       0.043575935 -0.1006964 0.018076068 0.07547123
000290 33 b6 6a bd da 7c 52 3c 6b f6 79 3c 4a c9 3c 3d
       -0.057302665 0.01284715 0.0152565045 0.0460904
0002a0 69 75 80 3d 00 9a f6 3d 90 60 aa bd 95 af 3e bd
       0.06272394 0.12041092 -0.08319199 -0.046554167
0002b0 7a f6 47 3d 4d aa a8 bd 7e 55 95 3c 25 63 53 bd
       0.048819043 -0.08235607 0.018229242 -0.051608223
0002c0 e0 fa b4 bd 4f b2 ef bd f6 fd 0d 3d 24 86 98 3d
       -0.08836913 -0.117039315 0.034666024 0.0744746
0002d0 92 d5 d8 bd 5b 44 da 3d 3a e5 db bd f5 55 ba 3d
       -0.1058761 0.10657569 -0.10737081 0.09098426
0002e0 83 cb cf 3c 64 45 83 3c 20 e3 81 3d 46 f3 cf bd
       0.025365597 0.016024299 0.06342149 -0.101538226
0002f0 3a da 3a 3d c3 4d 85 3d 2b e2 cf bd 92 d2 cb 3d
       0.045618273 0.065089725 -0.1015056 0.099522725
000300 f4 88 fa bd da de 87 bc b1 35 8b 3d c5 7d 67 3d
       -0.12233153 -0.016585756 0.0679735 0.056516428
000310 30 ef 60 3d 20 02 b2 bd 22 aa 91 3d be b9 48 bd
       0.054915607 -0.086918116 0.071125284 -0.049005263
000320 d3 bb b1 3d 52 14 f8 3c 90 1f c0 bd 2c 6e 52 bd
       0.08678403 0.030283127 -0.0938102 -0.0513746
000330 d7 24 5b 3d 45 20 9c 3d cd dc d1 bd 54 c7 e1 3b
       0.05350193 0.076233424 -0.102471925 0.006890217
000340 c6 81 b9 bd 99 de 91 bd db 2c 8d 3c c7 96 7f bd
       -0.090579554 -0.07122535 0.017233303 -0.06239965
000350 ac ba 7d bd d7 a9 6a bc d4 4b a4 bd 61 8d 62 3c
       -0.061945602 -0.01432272 -0.080222756 0.013827653
000360 f5 22 4f 3d d2 7e aa 3d c4 23 34 3d 25 91 e2 3d
       0.050570447 0.0832497 0.04397942 0.1106284
000370 3c 59 ac bc 25 74 0a 3d 4e 6e e5 3d 81 fe c3 bc
       -0.021038644 0.03380217 0.112026796 -0.023925068
000380 41 34 b0 3d 53 aa 70 bb 4e 34 95 bc 06 b4 bf bd
       0.08603717 -0.0036722615 -0.018213417 -0.093605086
000390 4f 22 f9 3c 7e a5 ce bc 5e b9 99 3d 45 bc e3 bc
       0.030411867 -0.025225397 0.07506059 -0.027799735
0003a0 38 1e e3 3c 3e 09 b1 3b 0c dc a2 bd 62 93 91 3d
       0.02772437 0.005402713 -0.07952127 0.07108189
0003b0 31 3c 34 bd cd 0a 98 bc f5 8f 99 bd 10 55 d0 bd
       -0.044002715 -0.018559838 -0.07498161 -0.101724744
0003c0 fa 97 e0 3d 21 32 95 3d 2c 3f b9 3d f1 7b ea bd
       0.10966487 0.07284952 0.09045252 -0.11449421
0003d0 62 62 82 3d 97 2d 71 3d 18 2b 99 3a ff 0b fd bd
       0.06366421 0.05888137 0.0011685817 -0.12355804
0003e0 f8 31 51 3d 6c f2 1d 3d 89 88 d9 bd 6e ee a3 3d
       0.051073045 0.03856127 -0.10621745 0.08004461
0003f0 c5 2d 20 3d 1a b1 80 bd 8c c8 59 3d 67 65 3b bd
       0.03910615 -0.062837794 0.053169772 -0.045751

bias f4 [64]
000000 47 d7 42 bd d7 5b c0 3d 97 b7 6c 3c 7a 44 55 3d
       -0.047568586 0.09392517 0.014448068 0.052067257
000010 c3 22 02 3d bc 85 fc bd 89 44 53 3d c5 06 96 3c
       0.031771433 -0.12330195 0.051579032 0.018313775
000020 81 50 f5 3d 58 09 1a 3d f6 04 0f bd e6 35 52 bc
       0.119782455 0.037606567 -0.03491684 -0.012830233
000030 c0 06 93 3a 53 a4 dc bd 0c d1 bf bc 15 98 4e bd
       0.0011217222 -0.1077353 -0.023415111 -0.050438005
000040 4d 6b bf b9 47 ae 4d 3d 7c 8f c4 3d 7e 43 e2 3d
       -0.00036510304 0.050215032 0.0959768 0.11048029
000050 73 72 d8 bd 97 ef c0 3d 09 47 09 3d 35 da b2 bd
       -0.105687045 0.09420698 0.03351501 -0.08733026
000060 ed 1b 39 bd 26 b5 99 3d 30 c7 79 bc 11 e7 ce 3d
       -0.045192648 0.075052544 -0.015245244 0.10102666
000070 dd 9b de bd 7e 4c 93 bc 8c 36 63 bd ff 80 72 bd
       -0.10869572 -0.01798081 -0.05547194 -0.05920505
000080 ed 1d 07 3d 94 53 bf bd 96 70 9a bd f3 85 dd bd
       0.032987524 -0.09342113 -0.07541005 -0.108165644
000090 fe 72 db bc bf 51 4f bd c9 21 eb bd 52 a6 e5 3d
       -0.026788231 -0.05061507 -0.114810534 0.11213364
0000a0 1c bf b1 3d 5f ce d3 3c 03 26 47 bd e0 eb 57 bd
       0.08679029 0.025855241 -0.048620235 -0.052715182
0000b0 09 2e ae bd 4a d7 95 3d 91 7b 38 bc d9 59 93 bd
       -0.08504874 0.07316454 -0.011259929 -0.071948715
0000c0 05 3e e2 3d c4 51 c5 3d 36 77 f3 bd 38 9c 8d 3d
       0.110469855 0.09634736 -0.11887972 0.06914562
0000d0 26 1a da bd 3a 04 65 bc 2a 7d 27 3c 1c 38 df bd
       -0.10649519 -0.0139780585 0.0102227125 -0.10899374
0000e0 2a 17 0d 3c 87 4d ae 3d 53 e1 b0 3d 8d 39 d1 bd
       0.00861148 0.08510881 0.08636727 -0.10216055
0000f0 fc 63 ad bd 23 c6 c6 3d ed e4 b3 bd 38 c9 aa 3d
       -0.08466336 0.0970576 -0.087838985 0.08339161

weight f4 [7, 64]
000000 0b df f7 3d 32 30 e1 3d 0d 35 cf 3d dd f3 90 3d
       0.12103089 0.10995521 0.101175405 0.07077763
000010 89 62 eb bd 0c 19 e4 3d 4a 89 9c 3d f4 b1 e0 3b
       -0.114934035 0.1113759 0.07643373 0.006857151
000020 bd fd a0 3d 70 6a c6 3d b4 92 a3 bd cf a3 a6 3c
       0.07860897 0.0968827 -0.07986966 0.020341782
000030 a7 70 72 bd eb 33 58 bd 25 30 e3 bd 3f 57 4b 3d
       -0.059189465 -0.052783888 -0.11093167 0.04964375
000040 43 86 cf 3d 3e b7 95 bd e2 60 fd bc 74 bd 5e bd
       0.1013303 -0.07310341 -0.030929986 -0.054379895
000050 0d 1e 78 bc 8d 0c de bd a9 c5 43 3b 3d 53 af 3b
       -0.015143883 -0.108422376 0.0029872453 0.005350499
000060 2f 4c b9 bd cd fe 37 3c 08 30 b9 bc 20 91 79 bd
       -0.09047734 0.011230183 -0.02260591 -0.060929418
000070 18 8b 92 3c eb d9 61 3d 0e 9a c4 bd 17 b5 32 3d
       0.01788859 0.055139463 -0.09599696 0.043629732
000080 a6 c5 62 3d 58 28 29 3d 14 a7 63 bd a8 e2 a0 bd
       0.055364273 0.04129824 -0.05557926 -0.07855731
000090 a0 67 bf bd d9 2c 24 bc e4 4d 85 bd 85 e9 03 bd
       -0.09345937 -0.010020458 -0.06508997 -0.032205123
0000a0 c2 e9 38 3d 00 ec 8a bd c8 1f 78 3d f0 3b 2a 3d
       0.045144804 -0.06783295 0.060577184 0.041561067
0000b0 9c dd ab bd 8c f3 d3 bb c0 46 1b 3c 55 a5 3c 3d
       -0.08391878 -0.006468242 0.009477317 0.04605611
0000c0 61 4c fb 3d 62 9c b9 3d 2f 5e 7d 3d b0 2d 60 3c
       0.122704275 0.09063031 0.0618574 0.013682768
0000d0 ef 28 95 3d 29 84 d4 3d 40 20 73 bd 4c 65 73 bd
       0.07283198 0.1037677 -0.059356928 -0.059422776
0000e0 f2 55 6e 3d 27 8f ad 3d dd 8e 46 bd d1 eb ce bd
       0.058187433 0.0847457 -0.04847609 -0.10103572
0000f0 09 76 1a bd dc 4d 90 bd b6 86 42 bd b1 2a d3 3c
       -0.037710223 -0.070461005 -0.04749175 0.025777193
000100 e6 0c ad bd d5 96 f0 bd db 00 19 bd 7e dd 32 bd
       -0.08449726 -0.11747519 -0.03735433 -0.043668263
000110 8c ed b7 bd 22 6e 05 bc 01 09 ba bd e2 74 d3 bc
       -0.08980855 -0.0081439335 -0.090837486 -0.02581257
000120 e7 54 a4 bc 9d 5d 94 bd a1 12 c0 3d 5b 1b c4 3d
       -0.020060016 -0.07244418 0.09378553 0.0957553
000130 0e 56 a8 bd 25 75 b2 3d 39 9d f8 bd 13 a3 ab 3d
       -0.08219539 0.0871375 -0.12139363 0.08380713
000140 fc ba 0c 3d c0 05 15 bd 6d fb 48 3d 4b 29 bc 3d
       0.03435801 -0.036382437 0.049067903 0.091875635
000150 c2 50 c3 3d 08 63 3a 3d 39 0a b7 bd d0 06 bb bd
       0.09536888 0.0455046 -0.08937497 -0.09132159
000160 f3 92 8d bc 03 2b f0 3d 10 e5 89 bd 92 84 b8 3c
       -0.017281985 0.11726954 -0.06733143 0.022524152
000170 87 ff 4d bd d7 10 b1 3d 95 f1 a4 3d 87 18 a1 3d
       -0.050292518 0.0864579 0.080538906 0.07866006
000180 51 7c b9 bc 2a 33 e8 bd b1 97 f5 bc cc 1f ee 3d
       -0.022642286 -0.11337884 -0.029979559 0.116271585
000190 76 b6 81 bd c1 e8 78 bd 0b 1b b2 3d 77 20 ed bd
       -0.0633363 -0.060768846 0.08696564 -0.11578458
0001a0 34 69 3d bc 96 94 c8 3d b9 4c a8 bd 50 3b 87 3d
       -0.011560727 0.097939655 -0.08217759 0.0660311
0001b0 ee 6a 01 3c a4 c4 76 3c e1 e3 a2 bb c4 e1 cd 3c
       0.007899029 0.015061531 -0.004971013 0.025132068
0001c0 74 21 92 3d c9 13 ea 3d f2 95 d8 bd a4 42 b7 3c
       0.07135287 0.11429555 -0.10575475 0.022370644
0001d0 f5 09 f4 bd 71 dc f5 bd 19 a4 e0 bd d9 07 b8 bd
       -0.11915962 -0.120049365 -0.10968799 -0.08985872
0001e0 1c c8 4a bd f6 4f b3 3d 47 a9 b5 3d 1c 1d a0 3d
       -0.049507245 0.08755486 0.08870178 0.07818052
0001f0 83 02 e2 3c bd 15 8f 3d 4e 56 41 3d 7b 26 b3 3c
       0.027589088 0.06986568 0.047201447 0.021868935
000200 68 12 ff bd 5c a2 94 3d 5e 23 b4 bd ae c5 7b bd
       -0.124546826 0.0725753 -0.08795808 -0.06146782
000210 13 1c 39 3d 00 23 c8 ba 70 e7 fb bd 6d 20 7c bd
       0.04519279 -0.001526922 -0.123000026 -0.06155436
000220 dc b2 c5 bd dd ef f9 3a c7 c2 13 3d 22 7c 02 bd
       -0.09653255 0.0019068677 0.036074426 -0.031856664
000230 ac 4c f7 bd 78 b4 6b bd 92 1c b6 3d ef 0f 01 bd
       -0.12075171 -0.057545155 0.08892168 -0.031509336
000240 2c e5 5a 3d 3e 80 aa 3d b1 86 b4 3d 55 8c 71 3d
       0.05344121 0.083252415 0.08814753 0.05897172
000250 00 70 3d 3d e1 9d 6f bd 33 9d 86 3d 50 1a 25 3d
       0.04624939 -0.058500174 0.06572952 0.040308297
000260 e4 c6 8d bd 5d 53 a2 bd 90 82 20 3d c3 6a a7 bd
       -0.06922701 -0.079260565 0.039187014 -0.0817466
000270 29 77 f9 3d f8 52 08 bd 2a 3b a3 bd 6c 91 a3 bd
       0.12180931 -0.03328225 -0.07970269 -0.079867214
000280 2e 44 8b bd 3e 03 34 3c f6 e9 a8 3d ad ba ed bd
       -0.068001136 0.010987101 0.082477495 -0.11607871
000290 6a 63 fa bd 99 86 17 3d db d4 78 bd 08 b6 ac 3d
       -0.12225993 0.036993597 -0.06074987 0.08433157
0002a0 78 cf 7f 3d d4 21 36 3d c2 3c ac bd c0 e3 2a 3c
       0.062453717 0.044465855 -0.08410026 0.010430276
0002b0 5e 9c df 3d 68 7f e4 bd 3a bd 89 bd 42 6b a9 bd
       0.109184965 -0.11157113 -0.06725545 -0.08272411
0002c0 59 67 8b bc 7e de f1 bd 10 e6 6c 3c c3 35 45 bd
       -0.017017053 -0.11810015 0.014459148 -0.048146974
0002d0 a7 2e 88 3d 00 6f 83 bd 84 c7 37 bd 26 58 a7 bd
       0.06649523 -0.06417656 -0.044868007 -0.0817111
0002e0 eb e1 fe bd ca a7 f0 bd 8a 87 6f 3c bc 02 6e 3d
       -0.12445434 -0.11750753 0.014619717 0.058108076
0002f0 c8 60 bb bd ef 2e 9a 3d 60 0c f8 3c 6c c7 e3 3d
       -0.09149319 0.07528483 0.030279338 0.11122021
000300 e2 85 c5 3d 33 02 28 bd fe 68 b1 bd 4f 8a 84 bd
       0.09644677 -0.041017722 -0.08662604 -0.06471693
000310 1a b8 81 3d a0 15 b1 3d a1 5a ac 3d 9e 12 2a bd
       0.06333943 0.08646703 0.084157236 -0.04152166
000320 98 12 b6 3d 6a 27 b0 3c 48 b8 e2 3d ba a0 c0 bd
       0.08890265 0.02150317 0.11070305 -0.09405656
000330 51 21 1a bc 14 be 18 3d 45 05 c7 bd 0a 77 f4 bd
       -0.009407357 0.037290648 -0.09717802 -0.119367674
000340 c8 a8 c9 bc 0a a7 14 3d 54 64 8e 3d b3 76 6c bc
       -0.024616614 0.036292113 0.0695273 -0.014432597
000350 92 da a5 bd f2 da ca bd e1 82 fd bd 48 94 a0 3d
       -0.080983296 -0.09905042 -0.12378479 0.078407824
000360 53 97 55 3d d2 1b c6 bd d7 a3 13 bd d2 21 3c 3d
       0.052146267 -0.09673275 -0.03604492 0.04593069
000370 f4 bc b0 3d 0f 26 f5 bd b1 f1 2a bd 54 dc c3 bc
       0.0862979 -0.1197015 -0.0417344 -0.023908772
000380 cd ba f9 3c 07 2e 33 bd c0 05 cd bc 0e a2 1b 3d
       0.030484581 -0.043745067 -0.025027156 0.037996344
000390 81 55 a4 bd df e6 4e bd 83 f5 b6 bd 3b 88 d3 bc
       -0.08024121 -0.050513145 -0.089335464 -0.025821796
0003a0 2d 6c 85 3d b2 57 cf 3c 67 c7 e2 3c 50 0f cb bd
       0.065147735 0.025310371 0.027682973 -0.0991503
0003b0 f9 8e bb bd b9 63 fe 3d 6d 9f ea 3d ae ca a3 3b
       -0.09158129 0.12421364 0.11456189 0.0049985265
0003c0 0c 9a fb 3d 32 00 08 3d 1f 4c ba bd 3c 2a b5 bd
       0.122852415 0.03320331 -0.0909655 -0.08845946
0003d0 9a a6 cf 3c e9 04 37 bd ce 32 1b 3d 37 6f c7 bb
       0.025347997 -0.044682417 0.037890248 -0.006086256
0003e0 1d 26 3b 3c a3 ef ee 3c f4 68 fc 3d 88 33 6e 3c
       0.011422661 0.029167002 0.12324706 0.014538653
0003f0 28 b9 b0 bd 5c 28 a1 3d 93 be 0f 3d 49 4e 13 3d
       -0.08629066 0.07869026 0.035093855 0.03596333

bias f4 [7]
000000 90 06 21 bd 00 49 c4 3d b8 4f 45 bd 95 d7 dd bd
       -0.0393129 0.09584236 -0.04817173 -0.10832135
000010 e0 11 cf bc 44 7c 03 bd ac 94 c1 3d
       -0.025277078 -0.03210093 0.09452185

weight f4 [7, 7]
000000 ed 55 b3 be d9 d6 29 be 0a 05 10 be eb 77 a2 3e
       -0.35026494 -0.16585864 -0.14064422 0.31732115
000010 9c 9b 81 3d f0 03 ba bd bd 1a b1 3e d8 81 46 bd
       0.06328508 -0.09082782 0.34590712 -0.048463672
000020 51 4a 1d be 12 74 12 3e 61 1c 17 be 80 bc 4e bc
       -0.1536038 0.1430209 -0.1475692 -0.012618184
000030 a8 98 7d 3d 78 f2 d3 bd ed 15 9a 3e a4 d5 f1 3d
       0.061913162 -0.103489816 0.30094853 0.11808327
000040 00 62 a1 bd 00 60 bc bb aa 22 33 be 4c 4c d4 bd
       -0.0788002 -0.005748749 -0.17493692 -0.10366115
000050 98 dd b1 be e0 1e 87 3d be 11 ed bd da 41 b7 bd
       -0.34739375 0.06597686 -0.1157565 -0.08948107
000060 85 c7 60 be 24 93 a3 3d 2d 74 62 be 31 91 88 be
       -0.2195111 0.07987049 -0.2211463 -0.26673272
000070 a0 c1 2a bd 00 09 cd 3a e0 aa 68 bc ec ec 9b bd
       -0.04168856 0.0015642941 -0.014200896 -0.07613549
000080 ae 7f 0b 3e 82 cd 6a 3e 94 20 85 3d 3b 0a 5e be
       0.13622925 0.22929958 0.065003544 -0.2168359
000090 e7 a2 a1 3e a6 dc 6b 3e 70 5c 86 be e1 04 ac 3e
       0.31569597 0.2303339 -0.262424 0.33597472
0000a0 f0 8b 05 be b4 77 e9 bd 53 09 8a bd 5e d7 16 3d
       -0.13041663 -0.11399785 -0.0674006 0.036826484
0000b0 d3 63 ea 3d 60 e3 25 3e 61 37 8a 3d bd 68 b3 3e
       0.11444821 0.16200018 0.06748844 0.35040846
0000c0 14 6b 8a 3e
       0.2703482

bias f4 [7]
000000 5d 98 a4 be d9 28 af be 22 9f a9 be 53 1b c1 3e
       -0.32147494 -0.34210852 -0.3312922 0.3771616
000010 d4 7c d9 bd 14 d1 e5 bd 07 f9 bd 3e
       -0.10619512 -0.11221519 0.37104055

weight f4 [64, 42]
000000 57 2f db 3d f8 a2 aa bd 5d f4 e5 bd fd 5b f2 3c
       0.10702389 -0.08331865 -0.11228249 0.029584879
000010 60 4c ce bd 7b a1 06 be 17 6f c7 bd df 86 0c be
       -0.10073161 -0.13147537 -0.097379856 -0.13723324
000020 71 10 41 3d f6 da 89 bd 3f ae 96 bd 0c 50 02 3d
       0.04713482 -0.067312166 -0.073574536 0.03181462
000030 fe 34 f1 3c 3b b3 66 bd 96 e6 cb bd 4a df d5 bd
       0.029444214 -0.05632327 -0.0995609 -0.1044298
000040 84 a5 e5 b8 ce da 31 3c f5 bb 95 3d 31 c5 19 be
       -0.000109504006 0.01085539 0.073112406 -0.15016629
000050 e6 76 aa 3d cd 24 8e 3c 1f d7 58 3d 95 25 bc 3d
       0.08323459 0.017351532 0.05293953 0.09186856
000060 90 52 04 be 3a 96 03 be 48 9d 82 bd 72 df f2 bc
       -0.1292212 -0.12850276 -0.06377655 -0.029647563
000070 4d 83 0b be 50 67 8a 3d c0 84 a0 bb 38 3c eb 3d
       -0.13624306 0.067579865 -0.0048986375 0.11486095
000080 96 54 be 3d 90 a6 09 be 9e 5d 15 be 94 fa 28 3d
       0.09293477 -0.13442445 -0.14586493 0.041254595
000090 6f 51 d4 bd 61 3d b0 3d b7 ad eb 3c 9d 7b fe bc
       -0.10367095 0.08605457 0.028769357 -0.031064803
0000a0 ad f5 bf bd 58 17 06 3e 21 ed f3 bd 95 1c 88 bd
       -0.09373031 0.13094842 -0.11910463 -0.066460766
0000b0 34 34 d2 bd d6 8e d8 3c bb 14 df bc 11 2d 0d 3e
       -0.10263863 0.026435297 -0.027231565 0.13786723
0000c0 80 78 32 3d dd 7f 12 be 54 37 84 3d f1 73 fe bc
       0.04357195 -0.14306588 0.064558655 -0.031061145
0000d0 90 7e a9 3d f7 fa 84 bd 33 59 2b bd 1f 25 8b bd
       0.08276093 -0.0649318 -0.041833114 -0.0679419
0000e0 33 21 bc bd de ed 13 be 70 47 b3 3d 80 f4 0b 3e
       -0.0918602 -0.14446208 0.0875386 0.13667488
0000f0 ff c3 52 bd f7 8a 18 3e 17 e7 e5 3d c7 1e 05 3e
       -0.051456448 0.14896761 0.112257175 0.13000022
000100 04 a6 a5 3d 25 a0 18 3e b9 0f fa 3d 99 98 15 3d
       0.080883056 0.1490484 0.1221003 0.03652248
000110 bd b8 b9 bd ad 18 a0 3d 86 de bd bd 5e c3 a2 3d
       -0.09068439 0.078172065 -0.092709586 0.079474196
000120 15 36 0f 3e fc d9 44 bd a1 2a 00 3c 88 15 cd bb
       0.13985474 -0.04805945 0.0078226635 -0.0062586702
000130 6c 88 52 bd 7a 0f 98 bd 81 d4 14 3d 20 24 99 bc
       -0.051399633 -0.07424827 0.036335472 -0.018693984
000140 33 3c 51 bc 95 91 8f 3d 78 5c 2d bd 95 28 c6 3d
       -0.0127707 0.070101894 -0.042324513 0.09675709
000150 ef 22 9e bd 30 47 0f 3e de 6c ce 3c c3 f6 47 bd
       -0.07721507 0.13992 0.025198396 -0.048819315
000160 00 45 ba bd 53 01 01 3d f1 9b 10 3e e9 36 bb bd
       -0.09095192 0.031495403 0.14121987 -0.09141333
000170 79 ff 9d bd bc ee 67 bd 3d a9 1b be a9 d8 0c be
       -0.07714743 -0.05662416 -0.15201278 -0.13754524
000180 b3 05 9f bd df 5c 68 3c b6 0e ed bc d7 84 24 bd
       -0.07764759 0.014182298 -0.028937679 -0.04016575
000190 e7 56 60 3d 3a af 18 3d bf d4 96 bd 73 63 a5 3d
       0.054770377 0.037276484 -0.07364797 0.08075609
0001a0 08 c7 c4 3d 14 9c 6a bd 47 37 11 be 51 0f 6f bc
       0.09608275 -0.057277754 -0.14181243 -0.014591054
0001b0 87 9f d7 bd f8 93 78 3d 84 e4 2e bd 10 6b 11 be
       -0.10528474 0.06068799 -0.0426984 -0.14200997
0001c0 53 80 8d bd 32 b2 7a bd 06 40 91 3d 0a a0 f8 3c
       -0.069092415 -0.061205097 0.070922896 0.03034975
0001d0 59 2b 19 3e c2 16 f7 bd bf 67 99 3d fe 44 c8 bd
       0.14957942 -0.120648876 0.07490491 -0.09778784
0001e0 eb 3d 9a bc 77 8e 71 bd f0 21 f0 bc d5 5f e1 3c
       -0.018828353 -0.058973756 -0.029313058 0.027511517
0001f0 6e 41 39 3d 36 60 bb bd 87 1f 96 bd c2 d6 08 be
       0.045228414 -0.0914921 -0.07330232 -0.13363174
000200 83 46 fc 3d a6 a5 13 be 9d 55 16 3e e5 dd af bc
       0.123181365 -0.14418659 0.14681096 -0.021468112
000210 87 fb 09 be 89 46 90 bd f8 b1 9d bd 98 19 1c 3c
       -0.13474856 -0.070447035 -0.076999605 0.009527586
000220 fa 94 1b be b7 a3 0f 3e 00 f4 9b bd c4 24 97 3d
       -0.15193549 0.14027296 -0.07614899 0.07380059
000230 fe 0f 94 bc 7f 5b 03 3e 9d 4d ce 3d 47 19 df 3c
       -0.018074032 0.12827872 0.10073397 0.027233733
000240 0f 7b 85 3d 24 43 0e 3e 1c ee 00 3e 51 69 e2 3c
       0.06517612 0.138928 0.12590832 0.02763811
000250 cb 3d 7f bd a0 51 de bd 15 21 08 be c2 18 ee 3d
       -0.06231479 -0.108554125 -0.1329387 0.11625816
000260 10 a9 9f bd 48 2f 13 3e 09 0a 9a 3d 5a 62 f9 bc
       -0.07795918 0.14373505 0.07521445 -0.030442405
000270 f9 51 0d 3e 5f 5f 00 be 61 19 db bd 6d 30 09 be
       0.13800801 -0.12536381 -0.106982 -0.13397379
000280 a7 32 7d bd eb df 0a 3e 0a a6 05 3e d7 e2 b7 3d
       -0.061815884 0.1356198 0.1305162 0.08978813
000290 09 ef 42 3d d3 f0 d1 ba 57 84 b2 3c d1 d5 e2 bc
       0.047591243 -0.0016017206 0.02179162 -0.027689846
0002a0 47 b3 12 bd 20 0b 83 3c d6 95 4c bd b9 15 db 3d
       -0.035815503 0.015996516 -0.049947582 0.10697503
0002b0 d7 e3 77 3d 24 a2 71 bd c5 45 49 bd 36 f5 85 bd
       0.06052002 -0.05899252 -0.049138803 -0.06540911
0002c0 e3 5d e7 bd 7a 9a 15 3e 4c b5 a6 3d 8e 1e fb bc
       -0.11297204 0.1460971 0.081400484 -0.030654218
0002d0 19 8a e9 3d 15 e0 80 3d 6e d4 23 3b 33 9b 11 be
       0.11403293 0.0629274 0.0024998444 -0.1421936
0002e0 ae a7 dd bd 48 85 5a 3d 7a 22 a2 3c 14 81 03 be
       -0.10822998 0.053349763 0.01979183 -0.12842208
0002f0 35 9e 9a bd cf 78 9c bd 5e 48 b1 3d d2 b5 fc bd
       -0.07549707 -0.0764023 0.08656381 -0.12339367
000300 d6 13 73 bd de 8b 05 3d 58 cf a9 3d c5 3a 41 3d
       -0.05934509 0.03260409 0.08291501 0.047175188
000310 43 8d 1a 3e d4 cf 92 3d 1f ed 1b be 69 c0 46 bd
       0.1509295 0.07168546 -0.15227173 -0.04852334
000320 d5 10 eb 3d 1f 7a 8d bd e7 5b c6 3d 11 69 99 3d
       0.1147782 -0.069080584 0.09685498 0.07490743
000330 43 fe b0 3c b4 f5 c8 bd 80 61 65 bd 1f 15 ce bd
       0.021605616 -0.09812489 -0.056001186 -0.10062622
000340 b2 22 b8 3d 2b fd b7 bc c1 8a 95 3c ca 6d 0d 3c
       0.089909926 -0.022459587 0.01825464 0.008632133
000350 46 77 1b 3d e1 42 04 3e 6e 3a 4d 3d 78 61 59 3d
       0.037955545 0.12916137 0.05010455 0.05307147
000360 7f 9f 03 3e 42 a3 4f bd 97 5a 5e bc 4e 2f 64 3d
       0.12853812 -0.050692804 -0.013571403 0.055709176
000370 ca e3 ca 3d b2 ef 15 3e ea 4a 5e bd 45 09 e3 bd
       0.099067286 0.14642218 -0.054270662 -0.110857524
000380 01 d6 14 be 63 d2 07 be e2 7e af 3d 4e 2d ae bd
       -0.14534761 -0.1326385 0.08569123 -0.08504735
000390 7b 76 f3 bb 83 9b b8 bd b7 cf cf bd dd 14 61 bd
       -0.0074298955 -0.090140365 -0.1014704 -0.054951537
0003a0 57 b9 06 be e2 1b c2 bd 5a 1b e4 bd 84 77 19 bd
       -0.13156639 -0.094779745 -0.111380294 -0.037467495
0003b0 46 46 49 bd c3 4f 1a 3d 67 0d 97 3c 06 b1 21 bd
       -0.049139284 0.037673723 0.018439008 -0.039475463
0003c0 5b 69 88 bd 10 ae d0 bc 37 32 45 3d b2 21 18 3e
       -0.0666072 -0.025473624 0.04814359 0.14856604
0003d0 f8 43 89 3d 3d db 6e 3d 75 19 43 3d 5e 70 c9 3d
       0.06702417 0.05831455 0.0476317 0.098358855
0003e0 17 ae 90 bd a3 b9 d2 bc b4 dd 05 3e 92 0c 38 bd
       -0.07064455 -0.025723284 0.13072854 -0.044933863
0003f0 3f f6 5e 3b db 28 fa bd 3a 9f b7 3d 29 e5 08 3e
       0.0034021286 -0.12214824 0.08965917 0.13368668

bias f4 [64]
000000 2f 60 0a be 14 39 d6 3d 2c 28 a7 bc ae 74 ad 3d
       -0.13513254 0.104601055 -0.020404898 0.084695205
000010 23 b6 a9 bd 6f 35 10 3e bf af 0e bc b2 a5 ce 3b
       -0.08286693 0.14082883 -0.008708893 0.0063063735
000020 d6 4b 35 3c 51 af 14 3d da 6a 60 3d b0 17 91 3c
       0.011065444 0.036300007 0.0547894 0.01771149
000030 40 0a 95 bd d3 2b 55 3d 05 cc c5 bc 5a a0 ac 3d
       -0.07277346 0.052043747 -0.024145136 0.08429022
000040 37 69 88 bd b8 e7 85 bd 9d 6a 09 bd d2 b6 fc 3d
       -0.06660693 -0.065383375 -0.03354894 0.12339558
000050 2a 1f 3f 3d 70 ee 43 bc f5 8b 12 be 3b e7 dc 3d
       0.04666058 -0.011958703 -0.14311202 0.10786291
000060 57 c7 0e 3e 9d b0 18 be 04 6b 04 3d fe 06 72 3d
       0.1394323 -0.14911123 0.03232862 0.0590887
000070 32 c9 1c be 7c 53 84 3d 94 28 95 bd 5f cf 80 bd
       -0.15311125 0.06461236 -0.0728313 -0.06289553
000080 eb 2f d4 bb 18 1f 1a 3e 6a b1 9f bd 6e 0a 9b bb
       -0.006475439 0.15050924 -0.07797511 -0.004731468
000090 28 17 4d 3d b9 92 1c be 5f 15 07 3e d9 34 14 3e
       0.05007091 -0.15290345 0.13191746 0.14473285
0000a0 25 8c a9 3d 1f 48 bb bd 00 3d 72 3d d0 aa 82 bd
       0.082786836 -0.091446154 0.059140205 -0.06380236
0000b0 6f f7 da bd 14 41 02 3e b5 1a 1d be 65 06 1c be
       -0.106917255 0.12720138 -0.15342219 -0.15236814
0000c0 87 bd 7d bd c1 40 5b bd 1a 0d 45 3c ce ce da bd
       -0.061948325 -0.05352855 0.012027049 -0.10683976
0000d0 28 d0 14 3e a7 87 e4 bd 77 48 99 3c 2e 1b 46 bd
       0.1453253 -0.11158686 0.018711312 -0.048365764
0000e0 f1 b4 83 bd a5 9a a8 bd 4f 0f 45 bd e9 42 57 bd
       -0.06430996 -0.08232621 -0.048110303 -0.052554045
0000f0 a6 7f 94 bd bd 19 a1 bc 03 f7 fa 3d bd 58 c1 3d
       -0.072509095 -0.019665593 0.12254145 0.094407536

weight f4 [64, 64]
000000 0b 26 00 3e e3 1c 67 bd e8 da 30 bd 3a bd 9e bd
       0.12514512 -0.056424033 -0.043177515 -0.07750936
000010 53 fd b5 bb ed c5 01 3d d2 4c eb 3d 4a ab 3d bd
       -0.0055538802 0.031682897 0.11489262 -0.046305932
000020 11 60 06 bd 41 d0 1e 3d c0 4c 13 bd a2 01 32 3d
       -0.03280646 0.038772825 -0.035961866 0.04345859
000030 d2 f7 a0 bc 64 95 f1 bd b7 5a bb ba 5d 6c f3 3d
       -0.01964942 -0.11796072 -0.0014294003 0.11885903
000040 ea 57 55 bd 6c f0 a5 bd b3 f3 e3 3d 2b 30 b1 3d
       -0.052085795 -0.081024975 0.11130466 0.086517654
000050 5f 58 67 bd bb 19 9e 3d 01 db 19 bd 8a 69 ef bb
       -0.05648076 0.077197514 -0.037562374 -0.0073062824
000060 9c 94 6d ba 11 55 86 bd 9d 07 ea 3d 39 88 b9 3d
       -0.0009062977 -0.06559194 0.11427233 0.090591855
000070 ff df 8b bd 64 62 16 3c 01 b0 d3 3d ed 17 b1 3d
       -0.06829833 0.009178732 0.103363045 0.086471416
000080 bd 0d b2 bd 8a 66 df 3d 00 45 2f 3d dc 9f be bd
       -0.086940266 0.1090823 0.042790413 -0.093078345
000090 e1 d0 01 3d c6 bd 5c 3d eb 70 6f 3d ec 99 e6 bd
       0.031693343 0.05389192 0.058457296 -0.11259827
0000a0 d5 d1 e7 bc c1 81 58 bb e0 e5 a1 3d de 13 35 3d
       -0.028298298 -0.0033036324 0.07905173 0.0442084
0000b0 aa c8 e3 bd 69 84 fe bd 89 83 9e 3d 4b b8 51 3d
       -0.11122258 -0.12427599 0.07739932 0.051201146
0000c0 9b 7d b3 3d df d0 59 bc 10 a5 9c 3d a9 25 b8 bd
       0.08764192 -0.013294428 0.07648671 -0.08991558
0000d0 aa 44 12 bc c5 a1 ac 3b 5d 71 e3 3d 44 75 8b bd
       -0.008927504 0.005268308 0.11105607 -0.06809476
0000e0 1c d7 36 3c a9 80 25 3d 10 36 89 3c a0 3a 89 bd
       0.0111596845 0.040405903 0.016749412 -0.06700635
0000f0 0a d2 20 bc 5d aa a9 bd 6b c3 c1 bd d4 61 a5 3d
       -0.009815702 -0.08284447 -0.09461101 0.080753
000100 35 73 ac 3d e7 99 4f bc ea 0a d0 3d 0c de 3f 3d
       0.084204115 -0.0126709705 0.10158332 0.04684262
000110 9d 08 13 bd 6b 4c 31 3c ee 29 7e bb 58 74 db bb
       -0.035896886 0.010821442 -0.0038782316 -0.006697219
000120 48 9b d9 bd 75 89 6f 3d 47 b1 f0 3d 01 c6 9c 3d
       -0.10625321 0.0584807 0.11752563 0.07654954
000130 76 a0 5a bd 19 f4 ff bd ed 53 be bc 3d e1 9b 3d
       -0.053375684 -0.1249773 -0.023233378 0.0761132
000140 27 7c e4 3d c8 9f cf 3d ce 7a 25 3d cc 06 55 3c
       0.11156493 0.10137898 0.04040032 0.013002109
000150 8a e5 8f bd a2 9b b5 bd ff 18 21 bd 5d 01 f5 bd
       -0.07026203 -0.08867575 -0.03933048 -0.11963151
000160 39 e4 a1 bd 1e 3f a4 3d 54 10 60 3d 79 e9 ec 3c
       -0.07904858 0.08019851 0.05470307 0.028919922
000170 38 e5 47 bd 82 6f 4f bb b6 c2 c1 bd 4c dc 1f 3d
       -0.048802584 -0.0031652157 -0.09460966 0.03902845
000180 bf 21 83 3d d2 b2 bc 3d 2a c9 08 bd 3c 16 92 3d
       0.06402921 0.09213795 -0.03339497 0.07133147
000190 43 cc bc 3d 5e 8a aa bd 17 bb b2 bd f3 86 0d 3c
       0.09218647 -0.08327173 -0.08727091 0.008638131
0001a0 78 c0 44 3d 95 39 05 3d c2 f5 44 3d 32 e5 ab bd
       0.048035115 0.032525618 0.048085935 -0.08393325
0001b0 40 c0 fa 3c a2 8b df 3d 56 ab 9d bc d9 aa 65 bd
       0.03060925 0.10915305 -0.019246738 -0.056071136
0001c0 c7 c3 90 bd f1 d0 a4 3c c2 7f 81 bd 29 1f 9b bd
       -0.070685916 0.020119162 -0.06323196 -0.07574303
0001d0 60 ea 46 bd ab 3b 94 bd a4 36 e7 3c 7f ef a1 3d
       -0.04856336 -0.07237943 0.028224297 0.079070084
0001e0 da fc ab 3d 78 bd ad 3b 9f 02 d4 bd be fa ee bd
       0.08397837 0.0053021275 -0.103520624 -0.11668919
0001f0 5b 87 f8 3c 87 96 ca 3d 81 9a 19 bd ac f7 34 3d
       0.03033798 0.09891992 -0.037500862 0.04418151
000200 fa 7f dc bd cb 37 d0 3d d2 82 5f bc 55 5c 79 3d
       -0.10766597 0.10166892 -0.01364203 0.06087907
000210 42 4d fa bc 3d 3a 36 3c 7d 07 3f 3d 23 23 ed 3d
       -0.030554418 0.0111222835 0.046638 0.115789674
000220 d0 6b f9 3d f7 a5 ca 3d 34 2e 34 bd 0e 74 03 bd
       0.12178767 0.098949365 -0.043989375 -0.0320931
000230 bd d6 e0 bd 68 8a 64 bc ed 60 d9 bd 04 0c ab 3b
       -0.10978458 -0.013949014 -0.1061419 0.0052199382
000240 cc f6 99 3d b1 aa 60 bd 42 ab ba 3d ef 93 d2 3d
       0.07517776 -0.054850284 0.09114696 0.10282122
000250 44 e2 e6 bd f8 ef eb 3d 9d 77 f0 bd 49 72 bd 3d
       -0.112736255 0.1152038 -0.117415644 0.09250314
000260 42 0c db bd d9 f2 86 bd 9f 23 cc bd c1 2f 7c bd
       -0.10695697 -0.06589288 -0.09967732 -0.06156898
000270 78 0f ee bc 76 3d bf bd c4 3d cd bd 39 92 f3 bb
       -0.02906011 -0.093378946 -0.100215465 -0.0074332026
000280 23 f2 c3 3d 5d 1c 93 bd 43 89 f2 3d 93 9c d6 3d
       0.09567668 -0.07183144 0.11842587 0.10479083
000290 ff 17 21 3d d4 a8 b2 bc 3c 7f d3 bc 4f f8 12 3c
       0.039329525 -0.02180902 -0.025817506 0.008970334
0002a0 ff 66 93 bd 1b 2c 64 bd 96 a4 e6 3d f9 69 d3 bc
       -0.07197379 -0.055706125 0.11261861 -0.025807368
0002b0 45 b8 a7 bb fd e4 7b 3c 34 68 d3 bc 01 10 01 bd
       -0.005118402 0.015374419 -0.025806524 -0.031509403
0002c0 6d fd cd bd c5 b0 18 bd df 1f f9 3d 87 11 e3 bd
       -0.10058103 -0.037277956 0.12164282 -0.110873275
0002d0 f0 52 2e 3d ed 5e f6 bd 8c d6 b7 bd a4 34 94 bc
       0.042559564 -0.120298244 -0.089764684 -0.018091507
0002e0 d7 d1 bf bc a2 a4 c1 3d ae 0a 5d bc 1c bf 9b bc
       -0.02341549 0.09455229 -0.013491316 -0.019012026
0002f0 b4 68 33 bd ff 4b b2 3d b2 93 d6 bd ca e0 95 3d
       -0.043801025 0.08705901 -0.104773894 0.07318266
000300 46 61 8c bd d2 ab 97 bd 0e 97 0f 3d 10 58 eb bd
       -0.06854491 -0.07405819 0.035056166 -0.11491406
000310 53 f2 c2 bd ba 56 ea bd 7c 07 cd 3c 38 e5 c0 3d
       -0.09518876 -0.11442323 0.025027983 0.0941872
000320 58 f0 e7 bd 24 92 9f 3d 05 68 f5 3d 86 5e 8f bc
       -0.11325139 0.07791546 0.11982731 -0.017501127
000330 6d b9 48 bd 3b cd 51 bc ba 83 d8 3d 3b 97 32 bd
       -0.04900496 -0.012805278 0.10572 -0.043601256
000340 cb 70 72 3c 30 98 7b bc ff 05 cc bd fc 39 a9 bc
       0.0147974 -0.015356109 -0.09962081 -0.020657532
000350 17 ff 84 3d 5c ff 87 3d c2 c0 f9 3d 97 62 ec 3d
       0.06493967 0.06640503 0.12194969 0.11542242
000360 c5 e2 4c 3a 85 b9 c1 3d 79 fc 81 bd 5f 14 e8 bc
       0.0007815774 0.09459213 -0.063469835 -0.028330026
000370 9b c6 84 3d 09 1c 9f 3d 87 54 65 3d 84 37 06 3d
       0.064831935 0.07769019 0.055988815 0.032767788
000380 1f 37 e1 3c 16 29 3e 3d 69 a3 ef bd 43 83 8e bd
       0.027492104 0.0464259 -0.1170109 -0.0695863
000390 6e 08 a7 bc 6f 9f 49 3c f5 b9 c9 3d 5c be 90 3d
       -0.020389762 0.012306078 0.098499216 0.07067558
0003a0 67 08 65 3d 69 43 a0 3c 44 2e 8a 3c e8 ba 1b 3d
       0.055916216 0.019563394 0.016867764 0.038020045
0003b0 0f cb bf bd fd ea bd bd ed e5 08 bc 8d 93 4d 3d
       -0.09364902 -0.09273336 -0.0083556 0.050189544
0003c0 20 28 dc 3d 07 a3 98 3d 4c 55 a0 3d a5 89 ff 3d
       0.10749841 0.0745297 0.07828769 0.124774255
0003d0 7a 8e ab 3d 8d 38 b1 bd 0d e1 f8 bb c6 74 96 bd
       0.083767846 -0.08653364 -0.0075951875 -0.073464915
0003e0 bc fa f0 bc 8c e2 99 3c e3 6f 69 bd 09 58 f0 3d
       -0.029416434 0.018784784 -0.05699147 0.117355414
0003f0 a2 61 9e bd 04 c3 a6 bc 9c fb b5 bd a9 ba c0 bd
       -0.07733466 -0.020356663 -0.08885881 -0.094106026

bias f4 [64]
000000 3a 84 b5 bd 55 cc ce bd d7 06 dc bd f5 8b 69 bd
       -0.08863111 -0.10097567 -0.10743492 -0.05701824
000010 f5 4a c7 3c 0d 84 68 bd 68 fb 9f 3d 22 37 82 3c
       0.024327734 -0.05676656 0.07811624 0.01589543
000020 dd 0b 8f bd da e3 90 3d 01 02 bb 3d 08 af 04 3c
       -0.069846846 0.07074709 0.091312416 0.008098371
000030 0b 16 f6 bc 2a 34 84 3d 22 08 bd bc 4a eb be 3c
       -0.030039808 0.06455262 -0.023075167 0.023305554
000040 30 4f 11 3d 9a 42 8a 3d a4 c5 20 bd 1b b1 9e bd
       0.03547591 0.067509845 -0.039250985 -0.07748624
000050 c8 b0 8a 3d ab 9f 30 bd b4 7c fd bd 00 8b ff 3d
       0.067719996 -0.04312102 -0.12377301 0.12477684
000060 2f 0a bd 3d d7 88 4c bd 9b 67 93 bb 97 dd c4 3d
       0.09230458 -0.04993519 -0.0044984347 0.096125774
000070 6d d7 94 3d 70 ff d0 bc 4b f8 8f bd 78 69 e6 3d
       0.07267652 -0.025512427 -0.0702978 0.11250585
000080 7d 06 7d 3c 55 ff cb bd b7 27 71 3d df 32 9e 3d
       0.015443441 -0.0996081 0.058875766 0.07724547
000090 0f cf f8 bd 1c aa f2 3d 19 51 3a 3b 6e 77 cf 3d
       -0.12148868 0.11848852 0.0028429686 0.10130201
0000a0 84 3e aa bd 07 36 e4 3d 36 01 eb 3d 19 d5 41 3c
       -0.08312705 0.111431174 0.1147484 0.011830592
0000b0 c9 9d 12 3d 1f bf dd 3d c3 d2 9e 3d ce 92 71 3d
       0.035795007 0.10827469 0.07755043 0.058977894
0000c0 94 e7 7d bd c1 55 84 3d 18 b8 92 3d 22 63 ae 3d
       -0.06198843 0.06461669 0.07164019 0.08515002
0000d0 93 b8 37 bd 1a 35 a8 3d 02 22 3f bd e9 4c 4b 3d
       -0.044853758 0.08213253 -0.04666329 0.049633894
0000e0 ad 92 ac bc 88 4b 0f 3d c6 10 89 bd 07 78 96 bd
       -0.021066034 0.03498414 -0.066926524 -0.07347112
0000f0 e2 0d 92 3d ff 82 7a bd 91 c7 76 bc 2e 18 e9 3d
       0.07131554 -0.061160084 -0.015062229 0.11381565
